project_1-Navigation/checkpoint.pth (torch_old, 28493 bytes, 6 tensors)

fc1.weight f4 [64, 37]
000000 cc 50 14 3e 67 c2 56 be 27 ac 01 bf 2c d3 ac be
       0.14483947 -0.20972596 -0.5065331 -0.3375486
000010 1c be 66 bf 8c 70 ab bd 41 74 57 be f0 5d 58 bd
       -0.90133834 -0.08371076 -0.21040441 -0.05282396
000020 a4 f3 2a bc ae 02 c8 3a 00 82 6c be c8 46 80 bc
       -0.010434065 0.0015259588 -0.23096466 -0.015658751
000030 05 fe 94 be d7 36 16 be d3 7b fd be b9 40 b6 3d
       -0.29100052 -0.14669357 -0.49508533 0.088990636
000040 a6 71 5e be 9d c7 16 be f1 5c 80 be 4b 5b 13 bf
       -0.21723041 -0.14724584 -0.2507091 -0.57561177
000050 b5 ef b2 3d 1b 46 8a 3d 8d 28 af bd c3 8b 92 bd
       0.08737127 0.06751653 -0.08552656 -0.07155564
000060 21 07 d5 be 75 b1 e2 3d f3 06 b8 3d 58 1b bd be
       -0.41607 0.110690035 0.089857005 -0.36934924
000070 3e a6 29 be 54 64 cf bd 06 df b4 bd f8 48 ac bd
       -0.16567323 -0.10126558 -0.08831601 -0.08412355
000080 87 c3 bb be f8 43 7b bd be af 08 bf b0 2c 0c be
       -0.36672613 -0.061344117 -0.5339316 -0.13688922
000090 95 f4 3b bc b6 0f a8 3e e2 35 dd bd a6 9d 91 3d
       -0.011471887 0.32824486 -0.10801293 0.07110147
0000a0 ad b3 cf 3c 55 6c 24 bf 12 bf 28 be f6 8c 87 bd
       0.02535423 -0.642278 -0.16479138 -0.06618683
0000b0 b4 3d 60 3d c3 6f 6e 3d e4 c0 57 3e b1 f3 11 bd
       0.054746345 0.058212053 0.21069676 -0.035632793
0000c0 54 c4 03 3e 4e 6b 99 3d c4 72 ec 3d df e8 18 3e
       0.12867862 0.0749117 0.11545327 0.14932583
0000d0 cf 8b 59 3e 9e fd 08 3c 37 a3 4a bd 5e 68 00 3e
       0.21244739 0.008361248 -0.04947206 0.12539813
0000e0 70 57 b9 be 23 f0 67 bd 39 85 0f be 7b df c3 3c
       -0.36199522 -0.056625497 -0.14015664 0.023910275
0000f0 64 42 32 3d 8c d3 03 3d 12 76 25 be 42 c2 25 3e
       0.043520346 0.03218417 -0.16158321 0.16187385
000100 f4 36 10 3e f4 68 a0 3d 3c bd b6 3d e5 5b 45 3c
       0.14083463 0.07832518 0.08922812 0.012045835
000110 82 cf 5c 3e 0b 89 2c 3e f7 5c 8d 3c a7 c2 b6 3a
       0.21563533 0.16849153 0.017256243 0.0013943509
000120 65 8a 81 3a 2b 55 e1 3b df 3d ed bc 95 1e 88 3d
       0.0009883164 0.006876608 -0.028960166 0.06646458
000130 70 55 0e 3e 59 8f 9f 3e d4 90 c2 3d 23 e5 69 bf
       0.1389978 0.31164053 0.0950028 -0.9136526
000140 b4 fc eb 3d 80 04 71 3e da 80 39 3e d6 12 e2 be
       0.11522809 0.23536873 0.18115559 -0.44154996
000150 a2 10 24 be af d9 b5 3b 19 86 41 bb f5 be 06 3d
       -0.1602197 0.0055496315 -0.0029529391 0.032896955
000160 af 8b 2f bd 0a 58 c7 bd 50 e4 83 3d 3b c1 c1 3d
       -0.042857822 -0.09733589 0.064400315 0.09460684
000170 f7 e5 2e 3e 99 ef 2f bd a9 a9 e3 bd 2d aa 2b bd
       0.17079912 -0.042953108 -0.111163445 -0.04191034
000180 0a a4 94 bc 5c a1 08 3e ca 47 4e 3e 13 e7 14 bf
       -0.018144626 0.13342804 0.20144573 -0.5816509
000190 e2 c2 aa 3e 37 6f 31 3e 7a d3 e0 bd 27 ba b7 be
       0.3335181 0.17327581 -0.10977836 -0.3588421
0001a0 66 1e b4 be 85 85 71 3d e7 0d 9c bd e6 39 13 bd
       -0.35179442 0.058965225 -0.07619839 -0.035943888
0001b0 ce 62 a5 bd ef f1 a2 3c 93 cc 06 3d b7 0a 93 3e
       -0.08075486 0.019890754 0.03290994 0.28719112
0001c0 70 a4 55 3d df b4 26 be 3f b5 42 bd b6 a5 49 bf
       0.052158773 -0.16279934 -0.04753613 -0.7876848
0001d0 5c 03 03 be 90 5a 16 3c 12 b5 44 3e 51 05 7b 3d
       -0.1279425 0.009176865 0.19209698 0.061284367
0001e0 67 b6 d6 bc 50 01 e6 3d ef 9f eb bd ba fa e2 3d
       -0.026210023 0.11230719 -0.11505114 0.110829785
0001f0 2a d8 26 be 2a 35 49 be 33 78 63 3b e0 d6 04 be
       -0.16293398 -0.19649187 0.0034709095 -0.12972593
000200 22 5d 2f bd 22 02 8d bd 3f 50 88 be de 5b 68 3a
       -0.042813428 -0.068851724 -0.26623723 0.0008863787
000210 e3 1d d9 3c 87 c7 05 3e fd 8e 3e 3c ad 67 1c be
       0.026503509 0.13064395 0.011630771 -0.15273924
000220 38 24 d5 3d 21 40 88 bd 9f 2b 62 3d 5e 03 52 3e
       0.10407299 -0.066528566 0.05521738 0.20509097
000230 1e d1 e4 3c fd c3 62 3e 81 2c 69 3e fc cd 13 be
       0.027931746 0.22145076 0.22770883 -0.14434046
000240 d5 4d 19 bd 12 41 25 3c 15 9a c7 3d 64 ce 8c bc
       -0.037427742 0.010086315 0.09746186 -0.017188258
000250 51 63 b7 3c 71 00 e6 bd 4d 6a 31 be ae 6e a8 be
       0.022386225 -0.11230553 -0.17325707 -0.32896942
000260 8e 70 26 bf f8 d5 f8 3d 9e d7 c2 3d d8 3a 2d be
       -0.65015495 0.12150186 0.09513782 -0.16916978
000270 3a 17 05 bd 3c 04 51 3e 73 06 4b bd 99 38 0d 3e
       -0.032492854 0.20411772 -0.049566697 0.13791122
000280 b3 d0 0e bd c7 28 5c be 31 f8 47 be 99 d9 10 be
       -0.034867 -0.2149993 -0.19528271 -0.14145507
000290 04 c5 30 3d 70 70 82 bc 86 9b 00 be 3e 6c 6d 3e
       0.04315664 -0.015922755 -0.12559327 0.23185822
0002a0 5a be fa bd 25 d7 93 bd e3 29 22 3e f6 3b 87 3d
       -0.12243338 -0.0721877 0.15836291 0.066032335
0002b0 db 60 35 3d c7 8d 4e 3d 5d 48 22 be d4 5b b5 3d
       0.04428182 0.05042818 -0.15847917 0.088554054
0002c0 9c 61 13 bd a9 42 95 3a 64 d8 ef 3c d8 ee 90 bd
       -0.03598176 0.0011387664 0.029277988 -0.07076806
0002d0 29 fd 27 bb eb 6b 25 3e fa ea 2a 3e e3 04 e8 bc
       -0.0025633073 0.16154449 0.16691199 -0.028322643
0002e0 8f 03 f4 3c d7 1d f9 3c 79 92 13 bd 84 df e3 3d
       0.029786853 0.030409737 -0.03602836 0.111266166
0002f0 c8 56 92 bd 66 85 22 3e 87 22 ac 3e d4 8c 22 3d
       -0.071454585 0.158712 0.33620092 0.039685085
000300 9a 26 66 be 3a de 0e bf 50 c2 02 c0 98 a6 9d 3a
       -0.22475663 -0.5580784 -2.04311 0.0012027798
000310 1a ab 70 3d 20 08 83 bd da 5c b0 bd df af 52 3c
       0.058756925 -0.06398034 -0.0861146 0.012859314
000320 75 1e ce bd 37 f9 0e 3d ae 34 3c 3d 24 68 0b 3e
       -0.10064403 0.03490564 0.045948677 0.13613945
000330 6c ef 22 3e 9d 50 8a 3d 17 78 9e 3d c6 09 24 3e
       0.15911645 0.06753657 0.07737749 0.16019353
000340 f4 7a 3b 3e 8b 1e 16 bd a6 5c 60 bd f7 8c 23 3e
       0.18308622 -0.03665022 -0.054775856 0.15971743
000350 ab 8f 81 3d 87 1a 24 3e 9e eb 27 3e 30 c1 8b bb
       0.063262306 0.16025744 0.16398475 -0.004264973
000360 14 65 f5 3d 65 49 e2 3c b8 93 62 bd af 80 de bd
       0.1198217 0.027622888 -0.055316657 -0.10864388
000370 68 c6 18 3c 14 43 91 3b a1 b1 b7 3e 67 ab e2 be
       0.0093246475 0.004433045 0.35877708 -0.44271395
000380 84 b6 04 bf f3 c5 ea be 4e 6a eb bf ac 48 c7 bd
       -0.51840997 -0.45854148 -1.8391817 -0.09730658
000390 a5 2b 35 3d 2d 7b fc 3b 63 22 ae 3d ae af 0e 3e
       0.044231076 0.0077051134 0.085026525 0.13934204
0003a0 11 83 93 3d 3d c3 00 3e 4e 94 e7 3d b9 ce f0 3d
       0.07202733 0.12574477 0.11307584 0.11758179
0003b0 9d af b9 3d 12 42 1d be e1 8d 85 3d e3 ec 2f 3c
       0.09066699 -0.15357235 0.06521202 0.010737631
0003c0 34 df 26 3e bf f7 b5 3e 39 15 98 ba 6a da 66 3d
       0.16296083 0.35540578 -0.0011603005 0.05636064
0003d0 93 4a 44 bd 15 81 ef 3c d7 40 10 bd 0b 4b e2 bd
       -0.047922682 0.029236356 -0.035218086 -0.110494696
0003e0 e1 44 e7 3c 6a a2 b3 3c ba 36 d6 3c a1 2a 3e 3d
       0.028231086 0.021928031 0.026149143 0.046427373
0003f0 aa f7 99 bd e6 03 5e 3d 9f 3f b0 3d 3e 7c a9 3d
       -0.07517941 0.054202937 0.08605885 0.082756504

fc1.bias f4 [64]
000000 cd 52 ef 3c e6 88 22 3d 19 da d1 bd 1c 3e 3a bd
       0.029214287 0.039681338 -0.10246677 -0.04546939
000010 1e 42 20 3e 4e db 08 3d 2a 96 b6 bb 7c 98 17 3d
       0.15650222 0.03341227 -0.0055721 0.037010655
000020 fe 34 38 bc 83 ba 1f be 06 1a 8c 3e 93 c1 5a 3e
       -0.011243103 -0.15598492 0.27363604 0.21362905
000030 43 7c 07 3e 94 2a a2 3d 11 49 56 bd cb ad e6 bd
       0.13230996 0.079182774 -0.052315775 -0.11263617
000040 ed 5a 9b 3c d3 ce 9c bd 65 bf 24 bd ff 97 5b be
       0.018964255 -0.07656636 -0.04022159 -0.214447
000050 17 ee ee bd 96 3a 7b 3d e1 94 0a bb ab f9 8c bd
       -0.11666506 0.06133517 -0.0021145868 -0.06883558
000060 f1 85 ce bd c7 cc 59 3e 17 d2 f5 bb 2f 81 4f be
       -0.10084141 0.21269523 -0.0075018513 -0.20264123
000070 6b 9a 8b 3d 31 4c ca 3d a6 ab 9b bd a7 f7 37 be
       0.06816562 0.098778136 -0.07601099 -0.17965566
000080 96 dd 2e 3e 0d 0d 5f 3c 65 36 ab bd b0 e6 00 3d
       0.17076716 0.013613951 -0.08359984 0.03147
000090 e8 83 da bc 5c 32 a4 3c 42 7a d3 bd 8e 30 2a be
       -0.026674226 0.020043544 -0.10326053 -0.16620085
0000a0 20 b9 12 be 96 ed 19 3d 8e e2 07 be 72 ec 41 3e
       -0.14328432 0.037580095 -0.13270018 0.18937853
0000b0 20 64 12 bd fa ef 26 be 3c ff a6 3c 4b 7d c3 bd
       -0.035740018 -0.16302481 0.020385377 -0.09545382
0000c0 bb 61 05 be fc 80 e6 bb 20 9e 60 be f7 21 4f 3d
       -0.13025562 -0.007034419 -0.2193532 0.0505695
0000d0 5c 8a 16 b9 02 a6 06 be 05 0d 44 be dd c4 b1 3c
       -0.00014356658 -0.13149264 -0.19145592 0.021700317
0000e0 be 15 e1 3d d6 8d 4c bd 13 60 26 be 6b a8 0d be
       0.10990475 -0.049939953 -0.16247587 -0.13833778
0000f0 83 51 60 bc ee 2e 3d 3d 78 b6 27 3e 51 7a 84 3d
       -0.013691309 0.046187334 0.163782 0.064686425

fc2.weight f4 [64, 64]
000000 21 83 1d ba 34 06 f8 3d f6 be 8c 3c f8 18 82 bc
       -0.00060086144 0.12110558 0.017180901 -0.015881047
000010 71 20 52 3d ee ea d6 3d 4b 3d 71 be 9e 65 21 be
       0.05130047 0.10494028 -0.23558538 -0.1576142
000020 e0 bb 2a 3d 82 8d 69 be b3 4b e5 3d f8 59 c8 3d
       0.041683078 -0.22807887 0.11196079 0.09782785
000030 fb c1 c1 3d e4 fc 22 3e 7a 6f 9e 3d 3f 17 5e 3d
       0.09460827 0.15916783 0.07736106 0.054221388
000040 99 dd 2e be 3c 55 1c 3e 8e 91 90 bb 1f 01 76 3e
       -0.1707672 0.1526689 -0.0044118827 0.24023865
000050 23 0d 1f bd 16 57 0b 3e b4 97 db 3e 8e 44 60 be
       -0.038830888 0.1360744 0.42889178 -0.21901152
000060 21 9d e5 bc 90 49 9d 3d 0d 33 96 3d 35 20 68 bd
       -0.028029026 0.076800466 0.07333956 -0.05667134
000070 02 76 e2 3d ea 68 56 3d 36 cb ec bd 6f 6e 0a 39
       0.110576645 0.052346148 -0.11562197 0.00013201845
000080 98 3a 21 bd f9 6c 95 3d be 1a a6 3d 1a 74 1e 3d
       -0.03936252 0.072961755 0.081105694 0.03868494
000090 74 5e eb bd 97 b0 12 3e 87 92 7b 3e ca 8e bd bd
       -0.11492625 0.14325176 0.24567614 -0.092557505
0000a0 84 ca 99 bd 1a b5 1d 3e 86 a2 82 3e f9 3c 54 bd
       -0.0750933 0.15401116 0.2551462 -0.05181596
0000b0 8a e3 96 3e 96 eb cb bd f6 0d ad bd 04 2e d6 bc
       0.29470474 -0.09957044 -0.084499285 -0.026144989
0000c0 c9 03 96 bc 1d bc a1 bd 54 ef 5f 3e 40 fc d9 3d
       -0.018312352 -0.07897208 0.2186864 0.10643816
0000d0 8d 4e de bd b6 5f af bd 6d ee 38 3e 84 49 ab 3d
       -0.10854826 -0.08563177 0.18059702 0.08363631
0000e0 d1 64 81 3d 6b 98 05 be db a5 db 3d b2 b3 3e be
       0.06318057 -0.13046424 0.10724994 -0.18623236
0000f0 5d e5 6a 3e 78 ee bd 3e f9 ff 14 be ff 07 b1 bd
       0.22939058 0.37096 -0.14550771 -0.08644103
000100 57 a5 f1 bd f6 bb b6 3d cb 2e dd be e2 43 4d 3e
       -0.11799114 0.089225695 -0.43199763 0.20045426
000110 e7 69 60 3d 81 5b 23 3e ae 5b 8a 3e 69 17 ac bd
       0.054788496 0.15952875 0.2702307 -0.08402903
000120 de 43 60 be 1c c7 03 be 12 f4 a9 3d 57 f4 ac 3e
       -0.2190089 -0.12868923 0.08298506 0.33780167
000130 cd 1c 4e 3d 8c 6f 3e 3d 4b ea 0d be f2 af d3 bd
       0.050320435 0.0464931 -0.13858907 -0.10336293
000140 fd a7 d0 3c dc 93 e6 3d 61 e2 ce 3c b1 ce 7b bd
       0.025470728 0.11258671 0.02525443 -0.061476413
000150 22 69 20 3d 2f 32 52 3d 9f 18 45 be 56 60 24 bd
       0.039162762 0.05131739 -0.19247673 -0.040130936
000160 b2 77 56 3e 9f d5 91 3d 85 c5 a8 bc c7 07 ed bd
       0.20944098 0.07120823 -0.020601997 -0.11573749
000170 96 d1 f2 3d 29 f5 65 3d ec a9 c2 3d 99 39 f1 3c
       0.118563816 0.056142006 0.09505066 0.02944641
000180 78 fa 57 3e 21 37 87 ba 04 0f 84 3c d8 39 1c bd
       0.2109164 -0.0010316112 0.016120441 -0.0381411
000190 88 e5 ac bd 40 2d fc 3d 25 4f 54 3e 87 ff bc bd
       -0.08442217 0.12313318 0.20733316 -0.092284255
0001a0 e0 3a b6 bb d9 93 a4 3e 29 db 46 be 09 d1 ff bd
       -0.0055612177 0.3214405 -0.1941954 -0.12491042
0001b0 16 58 4a 3d c1 40 d2 bd 15 22 00 bd 74 7e f8 bd
       0.04940041 -0.10266257 -0.031282503 -0.12133494
0001c0 67 e5 e3 bd a6 c9 8e bd d7 9a cc 3d a7 d6 03 3e
       -0.111277394 -0.06972055 0.09990471 0.12874852
0001d0 af 90 66 be 93 e3 ce bc 58 07 16 bc ac 23 85 3d
       -0.2251613 -0.025255 -0.009157024 0.065009445
0001e0 07 eb 2f be b7 c6 14 be b2 a2 4e 3d 6d f8 97 bd
       -0.171795 -0.14528929 0.050448127 -0.0742043
0001f0 64 c5 93 be b8 97 69 3e 84 b0 81 3b e1 d1 a3 bc
       -0.28861535 0.22811782 0.00395781 -0.019997539
000200 55 cd 5f be 8b 67 07 be a4 d1 e4 3b a9 49 5f bb
       -0.21855672 -0.13223092 0.006982999 -0.0034071004
000210 96 b3 a4 bb 83 bf ea 3d 3d a7 31 be 98 4e 71 bd
       -0.005026291 0.11462309 -0.17348953 -0.058912843
000220 c5 f4 b3 3d 2b 28 02 be e9 d8 7a 3d af 8b 25 3e
       0.087869205 -0.12710635 0.061242018 0.16166566
000230 f5 ba f0 3c dc 68 24 3e 1f 09 99 3d 48 8f 82 bc
       0.029386023 0.16055626 0.07472443 -0.015937462
000240 83 09 da bd 7e 34 5a 3e 52 4c cc bb 50 d9 ba bc
       -0.106463455 0.21309087 -0.006234684 -0.0228087
000250 0d 10 fa bc 2b e9 0f bd ee 09 a4 be db 83 09 bd
       -0.030525232 -0.035134476 -0.32038826 -0.033573013
000260 a8 38 49 bb 47 4c 7c 3e 21 59 01 3e 12 f0 f0 3c
       -0.0030703936 0.24638472 0.12631656 0.02941135
000270 ae 46 6c 3d 1a b2 dd 3e 10 81 7f 3c 7d d5 18 bd
       0.057684593 0.43299943 0.015594736 -0.037312973
000280 15 ce a4 3d 85 e7 b8 bd 94 39 3a be 6a 66 41 bd
       0.080471195 -0.09028534 -0.18186027 -0.04721681
000290 26 18 b0 bd 30 6f c2 3d c4 8f 5f 3e c5 c2 c2 bd
       -0.08598356 0.094938636 0.21832186 -0.095098056
0002a0 26 46 d9 bd fd 41 4c 3e a3 71 3f 3d c9 f0 10 be
       -0.10609083 0.19947048 0.04673923 -0.14154352
0002b0 d4 34 3c be 3b 63 21 3e 96 10 14 bd 32 cc 4a be
       -0.18379527 0.1576051 -0.03614863 -0.19804457
0002c0 a4 a5 58 3d 5e d2 82 be b5 ab bc 3c 78 77 8c 3d
       0.052892342 -0.25551122 0.023031095 0.06858724
0002d0 59 c6 b0 be 4f d3 07 3e 12 6b f4 bd f6 51 9b 3d
       -0.34526327 0.13264202 -0.119344845 0.07583992
0002e0 a5 66 76 3d 5c 25 3e be 90 ce 8a 3e 54 91 5b 3d
       0.060156483 -0.18568939 0.2711072 0.053605393
0002f0 95 cb ac 3e aa 79 d9 3d d3 d4 0c 3e d6 14 c7 bd
       0.3374907 0.10618909 0.13753061 -0.09720771
000300 b8 c8 b4 be a6 b0 93 be a8 1f b3 3d a4 7b 7b be
       -0.35309386 -0.2884571 0.08746272 -0.24558884
000310 b6 59 9f 3d 19 ee 48 bd f7 b0 5f 3d df 39 2c be
       0.07780783 -0.049055193 0.054612126 -0.16818951
000320 b9 fe b7 3d 09 fe 96 3d b1 e3 c7 bd ff 8b 10 3e
       0.08984131 0.07372672 -0.097602256 0.14115904
000330 dc 4e 8c bd fa 6c 54 3e 40 7f fb be 52 63 02 bc
       -0.06850979 0.20744696 -0.49120522 -0.00795825
000340 33 fd bf bd f7 99 58 be f7 31 7f 3d 52 ab 7a be
       -0.09374466 -0.21152483 0.06230351 -0.24479416
000350 27 e4 76 be fd 4d 88 3e 8b 90 bf bd c8 37 40 3e
       -0.2411047 0.26622 -0.09353741 0.18771279
000360 64 4f a8 3d 7b ad af bd cb f8 5c be 25 2c e8 bc
       0.082182676 -0.08578011 -0.21579282 -0.028341362
000370 ce d9 14 3e 58 75 ec be 17 ab 88 be 3c b5 4f bd
       0.14536211 -0.46183276 -0.2669303 -0.050709948
000380 7b d7 be be b2 56 c5 3e 18 f5 89 3e f9 55 3e 3e
       -0.37273774 0.38542706 0.26944804 0.18587483
000390 a3 88 ab bd fc 96 f3 bd dd bd 70 3e 20 2b 12 3c
       -0.08375671 -0.11894032 0.23509927 0.008921415
0003a0 93 15 58 be 78 97 65 be 16 37 1d be 3a 94 27 3c
       -0.2110198 -0.22421062 -0.15353045 0.010228211
0003b0 2d 69 e4 3d 4a 58 c8 b9 36 53 1e 3e db dc 40 be
       0.11152873 -0.00038212753 0.1546143 -0.1883425
0003c0 93 51 9e be c1 22 64 bd ce d2 b8 bd f9 0c 2d be
       -0.3092161 -0.055697206 -0.09024583 -0.1689948
0003d0 6f 69 17 3e 2a 25 27 bf be ca fb 3c 22 87 5b be
       0.14786313 -0.6529108 0.030736323 -0.21438268
0003e0 f6 87 09 be 82 4d 89 bc 12 77 fb be 49 83 cb 3d
       -0.13430771 -0.016760591 -0.4911428 0.0993715
0003f0 b5 63 43 be d5 a7 05 bf 96 a1 43 be ba 66 1d be
       -0.19081004 -0.52209216 -0.19104609 -0.15371218

fc2.bias f4 [64]
000000 e9 6f a8 3b 48 3b d7 3d e1 a1 f2 3d e8 e7 29 3d
       0.005140294 0.10509354 0.11847282 0.04148093
000010 b7 5d 0f 3e 18 f4 6f be 3c f4 0f be 18 0f 11 3e
       0.14000593 -0.23432958 -0.14058012 0.14165914
000020 ba 5f a2 3e a1 a2 09 3f ac f6 72 bd 6a d5 4e 3e
       0.3171366 0.53763777 -0.059317276 0.20198599
000030 0e 9b 35 3e b6 00 de bd 7a 24 cd bc f2 c3 0d 3d
       0.1773493 -0.10839979 -0.025041807 0.034610696
000040 ba 71 f5 3c 90 db 39 ba 8b 10 77 bd b2 68 2c 3e
       0.029961456 -0.00070899073 -0.06031851 0.16836813
000050 23 ec 01 3e 33 de 1f 3f 47 47 0e be e1 d4 20 be
       0.12687735 0.62448424 -0.13894378 -0.15706207
000060 52 4e 57 be 45 c7 bc bc 52 7e 07 3e d8 8b ce bd
       -0.2102597 -0.023044238 0.13231781 -0.10085267
000070 7b 72 4a 3d d9 cc ad 3e 15 33 c3 bd a0 ba 1d 3e
       0.049425583 0.3394535 -0.095312275 0.15403223
000080 6e 65 9c bd c6 44 80 3e f7 78 ad 3e 58 f9 72 3d
       -0.07636534 0.2505247 0.3388135 0.059319824
000090 a8 fa a7 bd 0e 53 c5 bd 23 02 c6 3e 94 9f 05 bc
       -0.08202106 -0.09634982 0.38673505 -0.008155722
0000a0 59 6d 9d bd 6e 68 19 3f fb fc e2 3e 07 6e 5c bc
       -0.07686872 0.5992497 0.44333634 -0.013453967
0000b0 7d 9f 5d 3e 50 ad f2 bd 57 79 c2 3e 39 ba 27 be
       0.21642871 -0.11849463 0.379832 -0.16379632
0000c0 af d4 f4 3c 7c c9 16 be b1 bb 2f be 95 41 bc 3e
       0.029886572 -0.14725298 -0.17161442 0.36768785
0000d0 dc cb 2b be f6 8a 8c 3e 00 4f 8c 3e dd c1 18 be
       -0.16776985 0.2744977 0.27404022 -0.14917703
0000e0 2f 4e 7f be ad bc ec bd 49 30 89 bd dd 87 e5 bc
       -0.24932168 -0.115594245 -0.06698663 -0.028018886
0000f0 f6 47 01 3d 9b 88 80 3e 55 42 13 3e ff 71 47 bc
       0.031562768 0.25104222 0.14380772 -0.012173175

fc3.weight f4 [4, 64]
000000 34 21 2d bc eb c2 57 3e 30 27 b5 3d 45 ec c9 3d
       -0.010566998 0.21070449 0.08845365 0.09859518
000010 0c 22 8a 3e f4 8b b4 be d1 64 a1 bd b1 7f ee be
       0.269791 -0.35263026 -0.07880557 -0.46581796
000020 00 4b 26 3e 21 f2 20 3e b8 b0 4a be e4 d1 3b 3e
       0.16239548 0.15717365 -0.19793975 0.18341786
000030 ef 8c 0d 3f ac 2e 8e be ab 8e f4 3d 2f 6a 39 3b
       0.5529317 -0.27769983 0.11941274 0.002829205
000040 4c 2c da 3e 06 1e b5 3e 34 9a 2a 3c 30 59 48 3e
       0.4261192 0.3537447 0.010412741 0.19565272
000050 6a 85 4d 3e 35 ac 75 3e 47 e8 05 be bf 49 14 be
       0.20070425 0.23991473 -0.13076888 -0.14481257
000060 25 a1 56 be 6b ab cf be 98 67 f1 be 54 e7 1a be
       -0.2095991 -0.4056047 -0.47149348 -0.15127307
000070 15 4e cb 3d 90 62 5b 3e 8a 83 a3 be 8a a3 c5 3d
       0.09927002 0.21424317 -0.31936294 0.09650333
000080 a9 2f d0 3d f6 0f f3 3d 77 e3 1d 3e d4 e8 2f 3e
       0.101653405 0.11868279 0.15418802 0.1717866
000090 c2 45 93 3c 3f e2 f0 bc 28 5f 32 3e 36 48 db 3e
       0.017977599 -0.029404758 0.17419112 0.4282853
0000a0 3c d1 d5 3e f7 f1 3c 3e fe 0b e3 3d cb c5 04 bd
       0.41761196 0.18451677 0.11086272 -0.032415193
0000b0 91 61 54 3e d3 0b 30 3e cf cb 47 3e ff 46 a2 3e
       0.20740344 0.1719201 0.1951134 0.3169479
0000c0 ec f5 96 3e ae ec 65 3e 9d d7 64 be fc 0d 55 3e
       0.29484499 0.22453567 -0.22347875 0.20806116
0000d0 89 21 8b be 38 a8 55 3e f9 39 c6 3d fc bb ad 3e
       -0.27174023 0.20864952 0.09679026 0.33932483
0000e0 3f a8 ad be 2d 59 f4 3d 20 45 65 3d d2 a5 06 bd
       -0.33917424 0.119310714 0.055974126 -0.032872982
0000f0 1f db 9d be 10 64 3f 3e af 20 a7 3d d8 03 f4 3d
       -0.3083124 0.18690515 0.08160531 0.11914796
000100 c7 6f 44 3d fc f4 0b 3e 6c 8c f7 3d 2b 6f c8 3d
       0.04795816 0.13667673 0.1208733 0.097868286
000110 23 f5 98 3e e9 b4 79 be 84 13 dc 3e 6d 30 1c 3d
       0.29874524 -0.24385418 0.4298364 0.03813212
000120 a0 b6 7c 3d 2b 85 25 3e cd 71 5e 3e 7e 37 5c 3e
       0.061697602 0.16164081 0.21723099 0.21505544
000130 1d 70 da 3e 83 4c 34 be f7 ae 84 bd 1f 03 24 3e
       0.4266366 -0.17607312 -0.064786844 0.16016816
000140 62 47 08 3f 1c 65 b3 3e d0 6b 92 bd d8 e0 14 3e
       0.5323392 0.35038078 -0.0714947 0.14538896
000150 5e 92 3c 3e 5a ad 6e 3e ea 8a e6 bc 83 fc e6 bd
       0.1841521 0.23308316 -0.028142411 -0.112786315
000160 50 d5 1d be bb c6 55 be 4b da 88 bd 20 bf f7 bd
       -0.15413404 -0.20876591 -0.06682261 -0.12097001
000170 e9 f9 fd 3d e3 c6 68 3e 05 f1 7c be be fa 20 3e
       0.12401182 0.2273212 -0.24701317 0.1572065
000180 8b dd a1 3b 9b f2 84 3d 7b b9 23 3e a7 a9 95 3e
       0.00493974 0.06491586 0.15988724 0.29230997
000190 e0 b5 3e 3e 9a 16 e5 bd 1f ed 1d 3e 9a 0c ab 3e
       0.18624067 -0.111859515 0.15422486 0.33408052
0001a0 73 22 ce 3e db 26 2c 3e ba bb 11 3e b2 4b 26 3e
       0.40260658 0.16811697 0.14231768 0.16239813
0001b0 61 06 01 3e e0 59 2b be f2 c2 1c 3e c1 1f 6c 3c
       0.1260009 -0.16733503 0.1530874 0.014411868
0001c0 06 54 01 3f 83 5a 23 3e c4 e4 b6 be 7a cc 42 3e
       0.50518835 0.15952496 -0.3572141 0.19023314
0001d0 63 7d 82 be 10 73 28 3e 41 3c de 3d 8e f6 15 3f
       -0.25486287 0.16450143 0.10851336 0.5857934
0001e0 2b 93 27 be 9a 95 a3 bc 56 c0 3b 3d 67 6b 32 3e
       -0.16364734 -0.019968797 0.045837723 0.17423783
0001f0 e1 ed d6 bd 5e 05 06 3e 68 23 c4 bc ce e3 25 3e
       -0.104945906 0.13087985 -0.023942664 0.16200182
000200 93 fb 1d 3e 4f 38 44 3d d9 ae 5a 3e 1a 69 ef 3e
       0.15427999 0.047905263 0.21355762 0.46759874
000210 3f f3 d7 3e 3f 1e 4d be 3b 16 00 3f 18 d8 98 3d
       0.4217777 -0.20031069 0.5003392 0.074630916
000220 1f 85 ba 3d 1a 84 12 3e 0e 8c ec 3c 25 6e 77 3e
       0.09107422 0.14308205 0.028875377 0.2416311
000230 ad c0 35 3e fe c7 aa be 20 1c 66 3c 30 53 a5 3e
       0.17749281 -0.33355707 0.014044791 0.3229003
000240 f3 77 96 3e ed 91 1e 3e b9 50 01 bf 4e 90 2d 3c
       0.2938839 0.15485354 -0.505138 0.010593487
000250 8f bb 28 bd b9 89 7c 3e 09 91 7f be 3c e8 08 3e
       -0.041194495 0.24661912 -0.2495767 0.1336984
000260 de 2e 77 be ad 61 08 bf 8d a2 34 be b2 88 b0 be
       -0.24138972 -0.5327404 -0.17640133 -0.3447929
000270 4a f9 ba 3e cc 01 ad 3e 21 c9 21 bd f1 bc 92 3c
       0.36518317 0.33790433 -0.039498452 0.01791236
000280 ee dc 9b be 2b 80 ac 3d 03 a2 1f 3e 2c 81 a2 3e
       -0.30441993 0.084228836 0.15589146 0.31739175
000290 9f a9 67 be 21 42 f5 3d 43 49 25 3e 56 61 fb 3d
       -0.22623299 0.11975504 0.16141228 0.12274425
0002a0 a8 67 89 3e 61 68 3a 3e ed 78 61 3e 49 54 53 3e
       0.26836896 0.1820388 0.22018786 0.20637621
0002b0 ec 1a 6f 3c 63 bd 8d be c3 00 19 3e 7b 6e f8 be
       0.014593821 -0.27683553 0.14941697 -0.4852179
0002c0 1f 1d 0f 3f 87 56 33 3e 55 3e ba bd 05 ab c5 3e
       0.5590381 0.17513476 -0.0909392 0.3860704
0002d0 9c 12 b1 be 12 f2 ab 3d 74 92 10 3e 92 fa a7 be
       -0.3458451 0.083957806 0.14118367 -0.32808357
0002e0 bb af 33 be 77 7f 5f 3e 3b d1 04 bf 5f 6e d4 3e
       -0.17547505 0.21825968 -0.5188176 0.41490456
0002f0 84 bc 51 be 6f ea 71 3e e8 03 a1 be 12 d9 c6 3d
       -0.20482069 0.23624586 -0.31448293 0.097093716
000300 a3 23 65 3e 16 f0 25 3e 0e e2 04 3d b7 e4 11 bf
       0.22376876 0.16204867 0.032442145 -0.56989616
000310 0e bf 16 3e b2 5b 53 be 76 2b 53 be 53 9a 28 3e
       0.14721319 -0.20640448 -0.20622048 0.1646512
000320 0f d8 4b 3d 95 09 66 3e a6 3c 83 3e 81 f4 b6 3e
       0.049766596 0.22464593 0.2563221 0.35733417
000330 a7 4a a1 3e c9 d8 14 bd 0a 7f 8b 3e e5 c4 1e 3d
       0.31502268 -0.036339555 0.2724536 0.038761992
000340 f3 55 34 3f 35 67 b8 3e ad dd 3a 3e 82 b5 11 3e
       0.7044365 0.3601624 0.18248625 0.14229396
000350 e0 10 f3 bd 8c ff 57 3e 99 ec a9 bd bf 5d f5 3d
       -0.11868453 0.21093577 -0.082970805 0.11980771
000360 3e f0 c5 be c1 7f 1d bf 9f 87 a1 be bc 4e 8f 3d
       -0.38659853 -0.6152306 -0.31548783 0.06997439
000370 86 bf 60 3d e8 2e 65 3e 65 5a be 3b 7d 0a 87 3d
       0.05487015 0.22381175 0.0058091157 0.06593797
000380 1a 81 3c be 06 e5 4e 3e 2a 3b 6a 3d ad 67 c2 3d
       -0.18408623 0.20204553 0.05718533 0.09492431
000390 43 b7 0a bf c4 73 c0 3d 2f 8f 3c 3e bc e2 04 3f
       -0.54185885 0.093970805 0.18413995 0.5190847
0003a0 36 12 1c 3f 33 92 5d 3e c5 7e 5a 3e 92 37 31 bf
       0.6096529 0.21637802 0.21337421 -0.6922542
0003b0 4c 8f 11 3e 72 1e 9f 3b 49 ef 11 3e 64 ef 90 bd
       0.1421482 0.0048559243 0.14251436 -0.0707691
0003c0 c9 0d 0e bd 29 39 8b be fe b9 c8 3d 6e ac 8e 3e
       -0.034681115 -0.27192047 0.098011 0.27865928
0003d0 3a 80 c1 bd 36 a6 95 3e 4d 6c 3a 3d 43 ed 64 3f
       -0.094482854 0.2922837 0.04551344 0.8942453
0003e0 97 80 af bd c1 be db be fc 83 b9 be 26 9f 59 be
       -0.085694484 -0.4291897 -0.3623351 -0.21252117
0003f0 88 6e 4d be a9 e5 86 3d 4b dc 4f be ce 61 ae 3e
       -0.20061696 0.06586773 -0.20298879 0.34058994

fc3.bias f4 [4]
000000 f6 ec b5 3e 5d f4 aa 3e c2 b9 6d 3e cf 0c 87 3e
       0.3553235 0.3338956 0.23215392 0.2637696
