project_3-Collaboration_and_Competition/actor.pth (torch, 533842 bytes, 10 tensors)

fc1.weight f4 [400, 24]
00000000: e5ee 26c0 89d3 54c0 78bb 093f 44b6 723e
00000010: ecf1 5abf c9ff 243f ff6d 013f eef1 923e
00000020: a933 a7bf dd3d 2fc0 9f8f 583d fadd 253f
00000030: b698 083e 1327 253f 73d3 643d b9a3 2a3f
00000040: c03f b9bf 1691 10c0 d0a1 493f dc4f 263f
00000050: b521 2d3f 367a 733f 5734 3e3f 89e5 143f
00000060: 9ac5 fbbe 8cff 3dbf d604 d6bc f886 c2bc
00000070: 6fcd 03bf 2a47 dbbf 700c 133b 509a b73c
00000080: 6cfd 65bf c065 60bb 2cc0 52bc 61bc 03bd
00000090: 8ace 043f 9547 15c0 208c ba3c bfb4 29bd
000000a0: dd80 003d 6df1 473f 90e4 64bd c3f2 283d
000000b0: 9b76 083f 5dce 8e40 9d28 adbb 9d49 b33c
000000c0: 7f3d da3f 4e17 cbbf 3498 7d3d 82c9 1abf
000000d0: 2d6b 7dbe 32dc c8bf 410e 9b3d ec61 18bf
000000e0: cfc8 983f e93d b3bf 1abe 9abe d304 bdbf
000000f0: defb 4fbc d59a 65bf badb c2be dc18 bbbf
00000100: 1afd 2e3f eec2 17c0 de34 b83e fbe2 edbf
00000110: bc67 be3e 86bc cc3f 8e3e c93e d9f6 f2bf
00000120: c09f 0a40 5956 63bd 17d4 353d 7dbc 1bbf
00000130: 10ed 5abf ddcf c7bf 117c 523d 3ba3 1abf
00000140: ed49 cc3f 8518 133e 7c29 6fbf 919c a0bd
00000150: 5603 2ebe 266e 033f 2dc1 63bf 0941 62bd
00000160: 9ee3 a33f ca55 01bf eb12 5d3f 60a4 c7be
00000170: f77b 9c3d de37 ef3e 77dc 5f3f ad52 cdbe
00000180: 162a 1ebf da39 8b3d e8e1 563e dfe8 7e3f
00000190: 4dfa 923f b2f8 683e ad81 293e 83cf 853f
000001a0: 83f1 57bf 49e1 27bd 6e90 223e 4cab de3d
000001b0: e829 3c3f 9247 db3f dd1d 1e3e 7d46 873d
000001c0: 5142 a13e 72bd 1dbe a1df 193e 7092 ebbe
000001d0: 3bd0 5c40 25cb cf3f 796e f93d 1284 fabe
000001e0: 27ee b63f 2a88 e5be 728f 35be bf4e d6bf
000001f0: 85b0 273f 09a2 3a40 3837 3abe bb3d debf
00000200: 5e06 973f 0fbd 47be 3b78 c4be cddb 863d
00000210: 4df4 a8be 8d4f b93f 51cc dbbe 1bcb 723d
00000220: c8ab 323f b97c cdbe 11e9 7ebe 4476 533f
00000230: 64c3 a9bf b21b 873f 1ad4 76be ccbe 403f
00000240: 2c12 3e3f 5d46 2540 c07e bc3d 93be 2c3f
00000250: a6cf 16c0 fc3a f1bf d154 f73d 436b 3b3f
00000260: ec1c 4f3f a467 2440 2521 0abe 62c0 3a3e
00000270: 3650 ebbf 9085 abbf 45db a4bd a919 2c3e
00000280: 294e 863f 5de6 0f40 5564 2f3e 6640 96bf
00000290: c26b 38bf 57c8 9d3e 62f1 473e 5e31 98bf
000002a0: e0d5 0abf 2364 1440 50b4 593f 0526 c13f
000002b0: 8c85 903e 379f 393f e039 4a3f e20d ba3f
000002c0: 0ff7 1e3f 5b76 2540 1aef f93c 77db 123f
000002d0: 0649 66be d160 973f d2b4 8d3d 9482 2b3f
000002e0: 215f 523f b6c9 2b40 3644 d73e 2b22 6bbe
000002f0: b1a8 13bf 78ad 0340 9ed7 cf3e 330e 59be
00000300: 9afc 08c0 c71b 8b3f cfc6 063e 603f de3e
00000310: 5758 8f3e 74a3 54bf 32c8 003e 3360 c83e
00000320: 0410 97bf e837 a43f 7316 b4bb 59f0 39bf
00000330: c68e 0fbf 1d52 7c3e 72d0 82bc b9fb 37bf
00000340: 698b 0fc0 db38 933f 391d 0fbf 58b9 813f
00000350: e15a 0cc0 85b1 c33f ee7e 0ebf 6847 853f
00000360: e94b b13f 97a9 1cbf bd59 abbd 917c 1e3f
00000370: 065f 5dbc 55d3 8bc0 bda5 dcbd e420 153f
00000380: 7534 983f 42e7 62bf 4651 a2be 523c 8bbe
00000390: 2331 d93e fa9b 00c0 2503 a6be d052 82be
000003a0: eb47 b33f cfd0 f3be 29c5 03bf b190 ed3f
000003b0: 7baa d53e 088c 3d3f 1a00 12bf b127 f03f
000003c0: b378 983e 688f 2cc0 6eb4 4b3d b82d ef3f
000003d0: 6f7e ba3e a7bd 38bf af6d bb3c 8ef8 e73f
000003e0: 2f54 cbbd 6283 34c0 b90e 26be c0da 92bf
000003f0: c18c fbbd cd65 1fbf 14f8 51be aa84 8cbf
-2.608331 -3.325411 0.5380168 0.23702341 -0.85525393 0.644528 0.50558466 0.28700203
-1.306264 -2.7381508 0.052871343 0.64791834 0.13339505 0.6451275 0.055865716 0.6665607
-1.447258 -2.2588553 0.7876253 0.64965606 0.6762956 0.95108354 0.74298614 0.5816274
-0.49174196 -0.7421806 -0.026125353 -0.023745999 -0.5148534 -1.7131093 0.0022437833 0.02241245
-0.89839816 -0.0034240335 -0.0128632 -0.032162074 0.51877654 -2.332494 0.022771895 -0.04143214
0.031372894 0.7810276 -0.055882037 0.04124714 0.5330598 4.462691 -0.0052843825 0.021885687
1.7050017 -1.5866487 0.06191273 -0.60463727 -0.24747916 -1.5692198 0.07571078 -0.59524417
1.1936282 -1.4003268 -0.3022316 -1.4767097 -0.012694327 -0.8968938 -0.38058263 -1.4616961
0.6835495 -2.3712726 0.35977834 -1.8584894 0.37188518 1.5995033 0.39305538 -1.8981582
2.1660004 -0.05550227 0.044391718 -0.60834485 -0.8551798 -1.561031 0.05138785 -0.6040532
1.596006 0.14364822 -0.93422675 -0.07842363 -0.1699346 0.5133995 -0.8896664 -0.055237804
1.2803838 -0.5052153 0.8635699 -0.38992596 0.07640832 0.4672231 0.8744578 -0.4010214
-0.6178297 0.06798144 0.20984614 0.99574083 1.1482636 0.2275112 0.16553374 1.0453953
-0.8435289 -0.040986333 0.15875408 0.10872516 0.73501444 1.7131217 0.1544108 0.066052414
0.31495908 -0.15404299 0.15026714 -0.4601016 3.4502094 1.623387 0.12179274 -0.48928887
1.4291428 -0.44830447 -0.17730501 -1.6742781 0.6550372 2.9161398 -0.18185127 -1.7362589
1.1798818 -0.19505714 -0.3837298 0.065848924 -0.32998887 1.4477402 -0.4292932 0.059275728
0.6979337 -0.40134218 -0.24893595 0.82602334 -1.3262753 1.0555327 -0.24104348 0.7529113
0.7424648 2.5824196 0.09203863 0.67478293 -2.3564239 -1.8846126 0.12076724 0.73210543
0.80903506 2.5688257 -0.13489206 0.1823745 -1.8383853 -1.3400135 -0.08049635 0.16806664
1.0492603 2.2484353 0.17128117 -1.1738403 -0.72039425 0.3081691 0.19525674 -1.1890066
-0.542326 2.3186119 0.8504076 1.5089728 0.28226888 0.7250857 0.7899456 1.4535487
0.6209573 2.5853488 0.03050952 0.57366127 -0.22488794 1.1826421 0.06919254 0.6699612
0.82176405 2.6841865 0.42044228 -0.22962253 -0.5767928 2.0574627 0.4059419 -0.21196823
-2.1404176 1.0867852 0.13161777 0.43407726 0.27997085 -0.8306191 0.12576368 0.39135894
-1.1801763 1.2829561 -0.00549584 -0.72632366 -0.5607723 0.24640699 -0.015968535 -0.71868473
-2.242884 1.1501726 -0.55903965 1.0134687 -2.1930468 1.528855 -0.5566243 1.0412416
1.3851291 -0.61196274 -0.083667256 0.61908823 -0.013511425 -4.3695474 -0.107737996 0.5825331
1.1891009 -0.8863412 -0.31702632 -0.27194458 0.424203 -2.00952 -0.32424274 -0.25453806
1.4006323 -0.47620246 -0.5147272 1.8559781 0.4173163 0.74041796 -0.57031405 1.8762113
0.29779586 -2.6962528 0.049732618 1.8685827 0.36424586 -0.72164387 0.02287945 1.8122728
-0.09928166 -2.820519 -0.16216554 -1.1473007 -0.12282706 -0.6226471 -0.2050479 -1.0977986

fc1.bias f4 [400]
00000000: 0b3f 373e bcf8 f33c a41a 22bd d1df 1f3e
00000010: c8cd 123c 825d 7ebb df0c fa3b 27aa 01be
00000020: eb41 72bd 40e0 3cbe f1dd 99bc 93e8 49be
00000030: f429 fe3c 326c adba 5ad2 923d 9cfd 01be
00000040: d4b6 5fbb 0b90 5dbd e128 f9bd 8b58 233e
00000050: 34c0 4dbe 562d 133e 946d 4fbd d70b eabd
00000060: 9dec 4abe 5f88 45be 164d 92bd 67f3 063e
00000070: 9411 263d 029d 18be 5edf 2f3e f41b 2c3e
00000080: f7c1 ad3d 6a8b 4c3e a782 0a3e 714c ea3c
00000090: 855e 103e bc08 eebd 0e6a dabc bd2b d7bd
000000a0: f946 12bd 6c57 25be ea52 0e3e 7b24 a5bd
000000b0: 267c 803d 5c42 403e ac06 8d3d a8b6 393c
000000c0: 4199 4f3e 1dcb 50be 6ff2 413e 7d38 35be
000000d0: 2b1d 4f3e bb79 843c 2bf3 00be 0193 90bd
000000e0: 5066 d6bd 5a8a fa3d 47a2 333e 3ac1 fc3d
000000f0: 0a86 183e c76e 493e 0566 38be d088 af3d
00000100: fa79 873c 13cd fb3d 48cb 6a3d 395b bc3b
00000110: e3f1 0a3e 4270 a8bd bd24 1fbe 80f1 15be
00000120: 656f 153e 8e7e 893b 0809 2abe cece 903d
00000130: a400 d9bb 5e3e f7bd 4d3b 373e e9f0 f23d
00000140: f445 2f3e cc3a 07bd 62ec 00be 2497 30be
00000150: f3c8 bc3c 9a7f 12be ae62 f93d bc58 3ebe
00000160: 8d26 14be 699a f43c 0369 4c3d 3133 debc
00000170: b4c2 2ebd 8219 d5bd df8f 72bd c9a5 da3c
00000180: 9bbe 3bbe b9df 0fbd 2568 04bd db5a 8f3b
00000190: b7f1 1a3e 4f13 2fbe 9c47 913d 386c 9b3d
000001a0: 0e35 6a3d eac0 6fbd c6c2 f13d f78d 13be
000001b0: 5cdb a7bd 0217 b5bb 8ca1 f5bc d242 4fbe
000001c0: a501 e03d df0a f73d fb09 39be 4210 dc39
000001d0: d8a4 2fbe 9273 16bd 8295 c53c 64fc 353e
000001e0: d945 123e c31a d83d 2704 db3c 04de 40be
000001f0: 72f7 84bd d25c 3a3e 96cd 843c 0702 3bbd
00000200: 3fa7 90bd b299 c93d 5098 033e 1d8c 92bc
00000210: 5a90 763d e174 193e f7d0 0b3e 90e1 d83d
00000220: a7b1 0e3e 357e 983d 40aa 643d d4b2 4dbe
00000230: 890c 24bd f5c0 7abd c13b 3c3d f291 6fbd
00000240: 7ea0 3ebe c602 2f3e 0b10 b5bd 33b3 46be
00000250: f378 adbd ca31 2f3d 8850 8ebd 18e5 50be
00000260: 67a7 8a3d 3832 a13d 1b83 423e f2de 50be
00000270: ee80 1dbd e063 9fbd c9ff 90bd 34e9 8f3b
00000280: a2e2 423e f3c7 aebc 6d0f 333e 1556 db3c
00000290: 6843 d9bd 22d2 a1bc 49a0 db3d 9b16 f73d
000002a0: 334a 89bd 0866 cdbc 669e 2ebe f9eb 04be
000002b0: cdf1 5cbd 316d f93d c47c 503c af93 dc3d
000002c0: a71a 2ebe fa6c 2c3d 8b02 29be 7778 7abd
000002d0: a48d 2a3e 1e0c 0d3c 619f 1cbe c1aa 4dbe
000002e0: 2e0d 7cbd 1d13 a4bd 06a0 41be b80e e53d
000002f0: c28b af3b d72d 01bd 4568 213e f519 46be
00000300: a93e 853d f66f 153e d019 353d d855 e03d
00000310: f896 93bd 9c15 45be e6fa 453e c672 4fbe
00000320: 2cd5 a9bd b23b 3d3e a0a0 c8bd ac8e 23bd
00000330: f6a6 d6bd 6e2a 2b3d 91b5 98bd a6b3 9b3d
00000340: 4902 4b3e 4fc5 1cbe ea39 093e 3391 52bd
00000350: 97c5 4fbe 9793 b63d 4d97 0bbe fcb2 f63d
00000360: b0d8 11bd 8388 fcbd 11c6 35be 0396 333d
00000370: 89f0 48be a066 e63d afb0 a03d 47d7 31be
00000380: 8e6d db3d a03b 24be cb27 9c3c a7e7 70bd
00000390: da23 0b3e b08e 30be 332e 83bd 7c43 94bd
000003a0: 894e 91bc 3914 ab3c cec8 02be 934c e53c
000003b0: 1594 143c 0d7e cebd 02e3 453d 59ce 193e
000003c0: d63e d73d f07b 863d 6e5a b5bd 0b5e 17be
000003d0: a0e7 f93d 910f 043d 145a 833c 4081 d43d
000003e0: a3fe c0bd ef20 50be f7af 0fbe b3fb 43be
000003f0: 237f 023e 4b2a fe3d cf00 bfbd b92b 44bd
0.17895143 0.029781692 -0.039576188 0.15612723 0.008960195 -0.003881306 0.007630929 -0.12662564
-0.059144896 -0.1844492 -0.018782588 -0.19717626 0.031025864 -0.0013231097 0.071690276 -0.126944
-0.0034136074 -0.05409245 -0.12166 0.15951745 -0.20092851 0.14372763 -0.05064161 -0.114280395
-0.19816823 -0.19290303 -0.07143609 0.13178788 0.040544108 -0.14903644 0.17175052 0.16807538
0.084842615 0.19975057 0.13526402 0.028600903 0.14098556 -0.1162276 -0.026661899 -0.10506389
-0.035712216 -0.1614663 0.13898817 -0.08063599 0.062736794 0.18775314 0.06886038 0.011335053
0.20273305 -0.20389982 0.18940137 -0.1769733 0.2022597 0.016171327 -0.12592761 -0.07059289
-0.10468733 0.1223342 0.17542373 0.123415425 0.14894882 0.19671164 -0.18007667 0.08571017
0.016537655 0.12294974 0.05732277 0.0057481793 0.13568835 -0.082245365 -0.15541358 -0.14642906
0.14593275 0.0041959947 -0.16605008 0.07070695 -0.006622391 -0.120724425 0.17893715 0.11862356
0.17116529 -0.033015057 -0.12590173 -0.17245156 0.023045039 -0.14306489 0.12177025 -0.18588537
-0.14467831 0.029858785 0.049904834 -0.02712402 -0.042666152 -0.10405256 -0.059219237 0.02669038
-0.18334429 -0.035125468 -0.032325882 0.0043748445 0.1513127 -0.1709721 0.070937365 0.075890005
0.057179503 -0.058533587 0.11804728 -0.14409624 -0.08196136 -0.0055264244 -0.029984258 -0.20240334
0.10937814 0.1206262 -0.18070213 0.00041973783 -0.17152727 -0.03673131 0.024119142 0.1777206
0.14284457 0.105519794 0.026735378 -0.18834692 -0.06492509 0.1819947 0.016211312 -0.04565623
-0.0706315 0.09843768 0.12851071 -0.017889077 0.060196258 0.14985992 0.13653933 0.10589898
0.13934956 0.07445947 0.055826426 -0.20087749 -0.040051017 -0.061219174 0.045955423 -0.058488794
-0.1861591 0.17090902 -0.088409506 -0.19404297 -0.08470335 0.042772092 -0.06948954 -0.20399892
0.06770211 0.078709066 0.18995325 -0.20397547 -0.038453035 -0.077827215 -0.07080037 0.0043918137
0.19031766 -0.021335578 0.17486353 0.026774446 -0.1060856 -0.01975352 0.10723931 0.120648585
-0.067036055 -0.025073066 -0.17052612 -0.12980641 -0.053941537 0.1217903 0.012725059 0.10770356
-0.17002355 0.042096116 -0.16504876 -0.06115004 0.16655594 0.008608846 -0.15295173 -0.20084669
-0.061536007 -0.08011458 -0.189087 0.11184448 0.0053572366 -0.031537857 0.15762432 -0.1934584
0.06506092 0.14593491 0.04421407 0.109538734 -0.072065294 -0.19246525 0.19333991 -0.20258626
-0.082926124 0.18479803 -0.09796262 -0.039930984 -0.10481064 0.04178851 -0.07456506 0.076026246
0.1982509 -0.15309642 0.13400999 -0.051408004 -0.20290218 0.08914869 -0.13631935 0.12045857
-0.03560704 -0.12330725 -0.17751338 0.043844234 -0.19623007 0.11250043 0.078462 -0.17367278
0.10714255 -0.1603837 0.019061944 -0.05881467 0.13587895 -0.17241931 -0.06405296 -0.07239434
-0.017737644 0.020883666 -0.12771913 0.027990615 0.009068509 -0.10082636 0.048312195 0.15020122
0.10510032 0.06566608 -0.08855139 -0.14781968 0.12202382 0.032241408 0.016034164 0.10376215
-0.09423568 -0.20325063 -0.14031969 -0.19138984 0.12743811 0.124104105 -0.09326326 -0.04789326

bn1.weight f4 [400]
00000000: d8a2 773f 6b3b cb3f 2949 603f 96f3 233f
00000010: d9ae d53f 10f6 ed3e eb61 323f 09ad 823f
00000020: d357 903f 5092 153f 9db7 723f 3c05 523f
00000030: f17c 373f aa71 1c3f 4da5 893f febb 473f
00000040: f343 b23f 91d6 e93f 369b 873f 8e2a 953f
00000050: 1804 863f bf72 643f eab3 283f 87d8 3c3f
00000060: 3112 6c3f 4b0b 483f bb57 0d3f 8edd 0f3f
00000070: 3ec7 273f 2362 7b3f 905a a03f a48c 893f
00000080: a3a8 593f a2e9 ad3f f577 823f 9259 5c3f
00000090: 405d 263f 1981 633f 9d4a c53f e403 6a3f
000000a0: 06a5 623f 76d0 973f a6bc 893f 91ef 493f
000000b0: 7926 fd3e bd0a 0b3f e9d2 0e3f 73bb 6c3f
000000c0: 11a9 f23e d69d 2e3f 3a9b 3e3f ade4 833f
000000d0: 2bde 413f 5db3 393f 53b2 693f bf0c 5e3f
000000e0: 9308 453f 48db 6e3f c737 7f3f 40b2 1b3f
000000f0: f101 503f 428f 4b3f a3e5 8b3f ac3c 4d3f
00000100: 3063 523f 06e6 2e3f ae7b 6e3f a718 7f3f
00000110: 6d98 a33f 41a1 763f 3ac2 853f d3d7 6b3f
00000120: f764 ca3f c3c9 823f ecb5 6b3f 89ef 0e3f
00000130: 943d 343f 320d b43f 1201 f03e 7431 903f
00000140: 5280 9f3f 83d7 743f 39a6 443f 5de8 1f3f
00000150: 4fee 063f 3bce 4f3f 7bfd 3e3f 4789 953f
00000160: ae3d 123f a0a7 a63f 5116 7a3f ebe9 f03e
00000170: e385 b43f 64fa ff3e 16c0 af3f b09e 3a3f
00000180: a228 333f 6241 973f 9db6 3e3f 2c94 8f3f
00000190: abf5 933f 7f91 2c3f ad63 7f3f cfbf 513f
000001a0: 4677 363f 227a 383f 88e3 773f 430e 893f
000001b0: 4e4b 7a3f 2780 5d3f 08b4 953f 1457 ac3f
000001c0: b6ae a73f e0d4 263f 0f93 6f3f d2bb 4b3f
000001d0: 7ad8 2a3f 0a36 793f a850 a13f 85d7 883f
000001e0: fe64 663f 0e06 263f 0901 623f b59e 863f
000001f0: 9657 b33f 8151 6a3f 1151 643f 9ae0 8e3f
00000200: 2615 933f 1119 9d3f 583b 443f a413 2a3f
00000210: 4c8c 8b3f d587 443f 3950 2b3f 4040 8a3f
00000220: b1ae 023f c1ab 8d3f fccd 803f 4d53 613f
00000230: 5717 6c3f 0af5 403f 0714 763f faa5 453f
00000240: 58f9 6c3f 93bf 473f 8dbf 563f a572 6f3f
00000250: 20aa 353f 7d88 0d3f 7d3a 853f 23ad 283f
00000260: e74d 1f3f c93a 393f bd2d 5a3f b06e 3e3f
00000270: 74e3 893f 0284 793f f52a 033f 750c 513f
00000280: e58f 733f 04e6 7d3f 5f2c 513f dff7 973f
00000290: 9d5f 6b3f 580d 5a3f 3e73 743f 9ff8 a23f
000002a0: a0d3 013f e3de a73f 9a12 7f3f 66e4 323f
000002b0: 35fa 663f 81ad ac3f 7519 0a40 3bac 3e3f
000002c0: 0103 903f c02e 303f c9ec 533f 78ae 763f
000002d0: 797f 663f a93a 8e3f dc86 273f 4a9e 3c3f
000002e0: 3721 653f c139 163f 916b 3d3f d844 3c3f
000002f0: d1ad 4b3f e861 683f 4dad 083f a6a4 7e3f
00000300: cf49 683f 619b 873f 53ba ad3f 4ae3 ac3f
00000310: 6a7c c23f 580c 7b3f d769 b23f aafe 343f
00000320: a5ad 2e3f 5430 973f f3bb 723f 7f41 313f
00000330: e95c 073f c3ca 613f baf2 813f f567 853f
00000340: 4fd8 f53e 4e4f 3b3f af3f 313f 1bbc 333f
00000350: 1d79 813f e9f1 a03f fdc0 6f3f f2a5 6f3f
00000360: 179f 283f 62ff 113f e135 7f3f 98ed 7e3f
00000370: ae3f 6f3f 67e5 583f 8b29 943f e133 973f
00000380: 7fe3 933f 7d16 713f aa0d 763f 33d4 6d3f
00000390: f841 4b3f e89c 543f bed3 703f 1954 273f
000003a0: e58d 673f 8b19 903f 46f8 6d3f 5841 933f
000003b0: ee06 653f b123 b63f 7fdb 2b3f 6504 553f
000003c0: ce38 4a3f e851 1f3f 94c1 0240 14b9 673f
000003d0: d787 383f d86f 3e3f f6a8 363f ea61 593f
000003e0: 5573 8c3f 5ecf 3c3f 79b7 323f 2f82 643f
000003f0: 6983 8a3f 7463 443f 0489 743f 7e70 6a3f
0.96732855 1.5877508 0.87611634 0.6404356 1.6693984 0.46476793 0.6968066 1.0209056
1.1276802 0.5842638 0.9481142 0.8203924 0.7167502 0.6111094 1.0753571 0.7802123
1.3926986 1.8268605 1.0594242 1.1653612 1.0469999 0.8923759 0.6589953 0.73767895
0.9221526 0.7814223 0.5521199 0.5619744 0.65538394 0.9819662 1.2527637 1.0746045
0.85022944 1.3586924 1.0192858 0.86074173 0.6498604 0.8886886 1.5413395 0.91412187
0.88533056 1.1860492 1.0760696 0.78881174 0.49443415 0.5431326 0.55790573 0.92473525
0.47394612 0.6820959 0.74455607 1.0304161 0.75729626 0.7253931 0.91287726 0.867382
0.7696621 0.93303347 0.99694484 0.6081886 0.8125296 0.7951547 1.0929455 0.801707
0.821826 0.6831974 0.9315747 0.9964699 1.2780892 0.96339804 1.0449898 0.92126197
1.5812062 1.0217823 0.92074466 0.5583425 0.7040646 1.4066527 0.46875817 1.1265092
1.2461035 0.95641345 0.76816136 0.62463933 0.5270738 0.8117406 0.7460553 1.1682519
0.57125366 1.3019905 0.976903 0.47053465 1.4103359 0.4999572 1.3730495 0.7289839
0.69983876 1.1816828 0.74497396 1.1217093 1.1559347 0.6740951 0.9976147 0.819333
0.71275747 0.7206136 0.9683156 1.0707477 0.97771156 0.8652367 1.1695566 1.3464074
1.3100193 0.6516857 0.9358377 0.79583466 0.6673657 0.9734808 1.2602739 1.0690771
0.8999785 0.6485299 0.8828283 1.0517184 1.4011104 0.91530615 0.891862 1.1162293
1.1490829 1.2273275 0.7665305 0.6643622 1.090219 0.76769763 0.66919285 1.0800858
0.5104781 1.106804 1.0062861 0.8801773 0.92223114 0.753739 0.9612431 0.77206385
0.9256797 0.78026694 0.83886033 0.9353431 0.70962715 0.5528639 1.0408474 0.65889186
0.62228245 0.72355324 0.8522604 0.74387646 1.0772538 0.9746705 0.5123742 0.8165963
0.9514144 0.991791 0.8170833 1.1872519 0.9194277 0.8517661 0.95488346 1.2732123
0.5071354 1.3114895 0.9963776 0.6987976 0.90225536 1.3490449 2.1578038 0.7448155
1.1250917 0.68821335 0.8278318 0.9635997 0.9003826 1.1111652 0.65440154 0.7367903
0.89503807 0.58681875 0.7399226 0.7354255 0.795621 0.90774393 0.53389436 0.99469984
0.9073762 1.0594293 1.3572487 1.3506863 1.5194218 0.9806571 1.393855 0.70701087
0.6823371 1.1811624 0.9481804 0.69240564 0.52876145 0.88200015 1.0152199 1.042235
0.48016593 0.73167884 0.692378 0.702089 1.0115086 1.2573825 0.9365385 0.9361259
0.6586775 0.5703031 0.9969159 0.9958129 0.9345654 0.8472504 1.1575178 1.1812707
1.1553801 0.9417494 0.961146 0.92901915 0.79397535 0.8305192 0.9407309 0.653627
0.9045089 1.1257795 0.9295696 1.1504316 0.894637 1.4229642 0.671318 0.8320983
0.7899293 0.62234354 2.043065 0.9051678 0.72082275 0.7438941 0.71351564 0.8491503
1.0972697 0.7375392 0.6981121 0.89261144 1.0821353 0.76714253 0.9552157 0.915779

bn1.bias f4 [400]
00000000: 6684 7dbf 17c1 f9be 9203 86bf 3219 c6be
00000010: f18b dabf ffac c8be 0a9b b8bf 4d78 3cbf
00000020: 4928 93bf b02b 87bf bc24 83bf 37a0 87bf
00000030: c68b 8bbf 1fc0 67bf 34e1 45bf 51a3 2dbf
00000040: 8d38 053e 8b31 87bf 6964 a3bf 91fc a1bf
00000050: 0bad acbf 3b0c 82bf 8ce0 0bbf 99d4 24bf
00000060: dd18 63bf 9d8f 9dbe 956b 4ebf 4a6b c1bd
00000070: dab1 3dbf 3a74 8ebf c19c a2be 04e0 b2be
00000080: fa56 99bf eca0 b5be 8111 14be e6d2 8abf
00000090: 8474 23bf a40a 58bf bcca 36bf 7a16 e0be
000000a0: fada 80bf bb75 97bf a2f3 61bf ed57 9ebf
000000b0: 75bd d3be 29ec 56be 27b0 34bf b24c fcbe
000000c0: a5ce 2bbf 985e 23bf 412f 1fbf 48ca acbf
000000d0: faa0 55bf 0a71 d2be 3a6c 1cbf 977f 01be
000000e0: b57b 9bbf c81b 01bf ca3d 96bf a356 94bf
000000f0: 0d8f 82bf b6d1 33bf 9e09 92bf ba83 49bf
00000100: ec5e b2bf 0dc9 83be 7ba5 4abf b8a6 31bf
00000110: 0e1e 25bf 531e 43bf 336d 72bf 0fa8 5dbf
00000120: fa44 90bf 77dd 11bf 30f2 4abf d9bd 43bf
00000130: 5c6b 95bf 4f5a ae3e 268d 4fbe 601f 99bf
00000140: 119f aabe ca70 cbbf c996 91be 653c b7be
00000150: 5e20 d4be 3c1f 8fbf 2de8 d0bd 1c4b 16bf
00000160: f81b 9dbf ca11 38bf 68bc 1fbf df67 2fbf
00000170: d9d0 5ebf 9391 10be 17ba acbf 8f61 f9be
00000180: 999c 0bbd a738 debe 3d7d 0ebf 0560 94bf
00000190: b804 63bf 0109 9cbf 7d2f 24bf 281e b6bf
000001a0: d71b 02bf da95 3fbf dd53 49bf 02a2 b3bf
000001b0: 99ec 46bf 1ce8 42bf 25b4 67bf 1994 61bf
000001c0: 3809 4abf 6576 80bf 6019 86bf 84dd a4bf
000001d0: d7c4 41bf 91db 74bf 5ec6 d3bf 2d9c 08bf
000001e0: e5fe 1cbf ed5c 28bf bc9c 7ebf 681e 6dbf
000001f0: 9fb2 1abf 244f 83bf e107 f5be 3710 aebf
00000200: 82d6 47bf 9c4a d5be 255d 35bf 86a5 e13d
00000210: 538a 86bf d7da 4ebf 4f53 acbe 6763 8fbf
00000220: 838e afbe 9b3b 81be c4a1 fdbe b21e 91bf
00000230: 9a8c 87bf 278a 78bf 280e 74be 59f2 2dbf
00000240: 46dd 80be 723c c2be 8e32 85bf 427a 72bf
00000250: d609 a4bf 8d9f 3dbf 1566 d9bf d234 7ebe
00000260: fd18 7dbe a885 1bbf 2df6 56bf f8b0 b2be
00000270: c9b6 f8be 439f 4abf 7869 27bf dccb d4bf
00000280: 07a7 3ebf 63c4 dbbf f7b3 2abf 3834 9dbe
00000290: c0e8 42bf d64e 41bf aebb ccbd 7d0e bdbf
000002a0: cac4 9a3c 2694 bfbf 92a7 5cbf 8bd4 1fbf
000002b0: 94eb 22bf 1aad a0bf 8ddb dfbe fa3a 4bbf
000002c0: 3f25 49bf 5c3f 10bf 0ec9 b2bf 49a4 d3be
000002d0: cebb 2dbf 04c8 65bf 7080 6bbf 8776 1bbf
000002e0: f537 62bf 1968 90be a084 85bf b206 5bbe
000002f0: 0423 93be 3064 8ebf 0932 91bf 46e9 d6bf
00000300: 742b 9cbe c822 61bd 089c 60bf 1da8 a7bc
00000310: 9799 99bf d0d5 95bf d021 ad3e 73f3 8cbe
00000320: cf62 84bf 7b36 93bf a20e c5bd d50b 95bf
00000330: 1d96 5ebe ddb2 7cbf c833 bdbf b2e1 a5bf
00000340: fdd8 90be ed7e 42bf 808f b3bf b741 adbe
00000350: e44c 8fbf 66d8 82bf b3c2 ca3a 4229 4dbf
00000360: e098 57bf 8cfe a5bf 409c afbf d2c9 8bbf
00000370: 426d 75be 786a a9bf 14e4 28bf 9852 edbe
00000380: b20e 29bf 3bd9 4ebf 5f93 c6be 17b8 80bf
00000390: 4b11 ffbe bebd 79bf e008 5bbf 6345 3cbf
000003a0: eb42 0ebf a2a2 83bc 8d00 a0bf dc4f 4bbf
000003b0: b50f dfbe b80c a8bf 04ac 8fbe 6de0 7ebf
000003c0: 09c6 abbf 8e17 76bd 0771 66bf b1aa 85bf
000003d0: f39c a6be cdaa a9bf d077 1dbe cb5f 28bf
000003e0: 9644 82bf 025e a1bf 843a 8cbf 6cd6 1dbf
000003f0: 2bce 56bf 8fa1 f9be bb97 7dbf ae67 acbe
-0.9903015 -0.48780128 -1.046984 -0.38691097 -1.7073957 -0.39194486 -1.4422314 -0.73621064
-1.1496669 -1.0560207 -1.0245585 -1.0595769 -1.090203 -0.9052753 -0.7729676 -0.67827326
0.13009854 -1.0561994 -1.2765018 -1.2655202 -1.3490309 -1.0159982 -0.54639506 -0.643869
-0.88709813 -0.3077363 -0.8063291 -0.09444292 -0.74099505 -1.112922 -0.3176022 -0.34936535
-1.1979668 -0.35474336 -0.14459802 -1.0845611 -0.63849664 -0.84391236 -0.714031 -0.43767148
-1.0066826 -1.1832803 -0.8826238 -1.2370583 -0.41355482 -0.20988525 -0.7058129 -0.49277264
-0.6711219 -0.63816214 -0.6218148 -1.3499231 -0.83448756 -0.41101867 -0.6110264 -0.12646328
-1.2147127 -0.50433016 -1.1737607 -1.158894 -1.0199906 -0.7024187 -1.1409185 -0.78716624
-1.3935218 -0.25739327 -0.79158753 -0.6939502 -0.64498985 -0.76218146 -0.94697875 -0.8658456
-1.127105 -0.56978554 -0.792758 -0.7646156 -1.1673388 0.34053275 -0.20268688 -1.19627
-0.33324483 -1.5893795 -0.28435352 -0.35788265 -0.41430944 -1.1181407 -0.10200534 -0.5870836
-1.227416 -0.71902144 -0.6239686 -0.6851787 -0.87037426 -0.14118032 -1.349429 -0.48707244
-0.03408489 -0.43402597 -0.5565985 -1.1591803 -0.88679075 -1.2190248 -0.6413496 -1.4227953
-0.5082373 -0.7483803 -0.7864359 -1.4033816 -0.7770477 -0.7613542 -0.90509254 -0.88116604
-0.78920317 -1.0036131 -1.0476494 -1.2880101 -0.7569098 -0.9564753 -1.6544912 -0.53363305
-0.6132644 -0.65766793 -0.9945791 -0.9262452 -0.60428804 -1.0258527 -0.47857574 -1.3598698
-0.7806169 -0.41658485 -0.7084525 0.11017899 -1.0510963 -0.80802673 -0.3365731 -1.120221
-0.34288415 -0.25240788 -0.4953748 -1.1337492 -1.0589783 -0.97085804 -0.23833525 -0.6794792
-0.25168818 -0.3793674 -1.0406053 -0.947178 -1.2815502 -0.7407158 -1.6984278 -0.24824837
-0.24716564 -0.6075082 -0.83969384 -0.3490064 -0.48576954 -0.79149264 -0.6539531 -1.6624713
-0.74473614 -1.7169307 -0.66680855 -0.30703902 -0.761364 -0.7551092 -0.099967346 -1.4770046
0.018892664 -1.4967086 -0.8619319 -0.6243369 -0.63640714 -1.2552826 -0.4372219 -0.79386866
-0.7857246 -0.5634668 -1.3967607 -0.41336277 -0.6786469 -0.89758325 -0.91992855 -0.60727733
-0.88366634 -0.2820442 -1.0431099 -0.21389273 -0.28737652 -1.1124325 -1.1343395 -1.6789939
-0.30501902 -0.05496481 -0.87738085 -0.020465905 -1.1999997 -1.1705875 0.3381486 -0.27529487
-1.0342654 -1.1501001 -0.096219316 -1.1644236 -0.21736951 -0.98710424 -1.4781427 -1.2959502
-0.2829055 -0.75974923 -1.4028168 -0.338392 -1.119534 -1.022229 0.0015469402 -0.8014108
-0.84217644 -1.2968307 -1.3719559 -1.0920966 -0.2396746 -1.3235617 -0.6597302 -0.46352077
-0.6603805 -0.8080022 -0.3878431 -1.005618 -0.4981788 -0.9755515 -0.8556042 -0.73543376
-0.5557086 -0.01606876 -1.2500168 -0.7941873 -0.4356667 -1.3128881 -0.28060925 -0.99561197
-1.341981 -0.060081057 -0.90016216 -1.0442716 -0.32541618 -1.3255249 -0.15377736 -0.6577117
-1.0177181 -1.2606814 -1.0955358 -0.61655307 -0.8390834 -0.48756072 -0.9905965 -0.3367285

bn1.running_mean f4 [400]
00000000: c911 8042 9371 5041 7fd7 dcc1 ef61 39c2
00000010: 113a 9241 1081 9bc1 55be 16c2 bae7 00c1
00000020: bcde 3d42 8a5b 39c2 dd14 ea3f 622b a2c1
00000030: d205 2fc2 9e9b 85c2 fa2c 75c1 be80 abc0
00000040: 5cdc 8f41 cc8a 89be 5f3d 27c2 5c32 3342
00000050: 0e7b 2e42 972a 2b42 169b c641 cda4 b8c1
00000060: 322e a341 1b75 9242 dc14 48c2 ce3e a441
00000070: 060f 183e 08f3 23c1 b1a1 0f42 0751 cb41
00000080: 9db5 2741 10b2 f641 edda 4b41 effd dd41
00000090: fac7 f2c1 3e1e f8c0 5d0e e041 3d31 6542
000000a0: 2792 04c1 8186 0f42 e4cb 4e41 6e18 c1c1
000000b0: 7968 8241 5554 1642 e16e a041 3608 5242
000000c0: d88c fcc1 9942 38c2 5e6c 32c2 e24e 88c0
000000d0: 2da5 6ec1 96db 0cc1 02ec 1741 466a 1341
000000e0: c4ef a2c1 cef1 63c1 c636 0cc0 2504 01c1
000000f0: 14a8 8dbf ff21 da40 4a62 b7c0 e498 1940
00000100: 2f9d 35c2 6d3f 8041 0a83 2741 6655 ee41
00000110: 2578 81c1 fc79 6d40 91e7 e5c0 173e 0e42
00000120: 34c4 6142 3c10 8c42 0e55 3d40 3fd5 4240
00000130: c318 76c1 8b07 9241 d2f2 67c0 2d04 2ac1
00000140: 3d34 0d42 097d 0042 726c 1342 5d77 683f
00000150: f12b 15c2 fdc2 1c42 c159 b640 02b9 4f42
00000160: fd05 56c2 e8ae 3842 653e 1842 4eb1 21c2
00000170: 3d89 e440 a4d8 b142 ed72 1442 56e0 c741
00000180: ddab 4841 af52 4240 8b23 bac1 4288 84c0
00000190: c9b5 43c1 f562 d741 2bdf 6442 9220 cbc1
000001a0: 2173 05c1 d9e4 5f42 7f06 7dc1 9b2c 7441
000001b0: dd02 0642 a640 92c1 5558 6cc1 6af7 5d42
000001c0: a1ad 8941 f92c 24c2 500b 4a42 a223 bac1
000001d0: 4e25 b9c1 a454 42c1 bea3 0942 43cd 7b42
000001e0: 2a62 1e42 2b8b 2741 f66e 0341 8f8b 4b42
000001f0: 8225 e840 12fe 57c1 a53e 4042 0a77 3842
00000200: fe30 3042 5dc8 fa41 e32e db41 eb6c 0142
00000210: e815 8641 6fda 8d41 0d6c 96c1 f133 4441
00000220: a30b 5241 8613 8742 854b 4e42 3ade 4fc2
00000230: 916b f5c0 b022 8dc1 62b1 2e41 00bb 2fc1
00000240: 8605 6341 1bb4 19c1 aab8 cec1 9caf f1c1
00000250: 84e9 26c2 21c7 d6c0 4f4b 0541 6d6a e041
00000260: 330d 3d42 5fa7 a441 1e4b 4742 6c3f 94c2
00000270: c22b 0142 0042 b140 e8eb 9341 7d2b 0cc1
00000280: a94f a941 a0ac 8ac1 eb2e edc0 daf9 80c1
00000290: 88ca 3842 cc71 a542 ee61 a742 100b f141
000002a0: 4d4c e9c0 ed0d 4341 c88d efbf 2567 03c1
000002b0: fe21 0741 1771 4141 1115 2040 2272 5bc2
000002c0: 0792 02c1 3a78 6041 d0b9 82c1 4873 3dc1
000002d0: 0691 553f d6cf e341 6339 47c2 2a3a fac0
000002e0: ddd0 2fc0 a0f8 f4c0 5b0e 8ec2 2b32 eac1
000002f0: 0b92 6042 c778 1bc0 d79a 52c2 acb0 e3c1
00000300: 501e 4d41 b435 cc41 2cc5 8041 825f d140
00000310: 68e2 0040 b806 c23d 6b8a b340 3d40 1742
00000320: 7af9 9e41 3459 c141 3a53 4442 46c6 1dc1
00000330: c00e 7042 7eed 0bc1 c84e 91c1 aedc c841
00000340: b483 3fc2 7141 50c1 d612 d8c1 d547 d841
00000350: f483 db41 4e38 11c1 97d2 87c2 70ff 32c1
00000360: 701c 0b42 3497 a7c1 328b 4541 775e 9441
00000370: a0cb acc1 0a68 8340 4f4e 1242 bbfd 0442
00000380: 9b10 84c1 ea32 0fc2 6bf6 1442 fe06 1742
00000390: ca4a 8642 72d8 b041 eabf 8d42 931a 7f42
000003a0: b7b4 b9c1 26ed 123f 1047 acc1 89c8 8a41
000003b0: 78f2 13c1 01cb 18bf 4771 3542 82ef 2ac2
000003c0: 4738 e3c0 c0a9 5d42 cfbf 0541 07c2 11c2
000003d0: aaf1 9540 1165 54c2 2ede 6742 c121 6542
000003e0: db5c 04c2 1a18 6cc2 695b 0741 17b1 4cc1
000003f0: 5acd 8542 2387 5642 4805 f6bf cf58 3142
64.03474 13.027728 -27.605223 -46.34564 18.278353 -19.438019 -37.68587 -8.056574
47.467514 -46.339394 1.8287617 -20.271183 -43.755684 -66.80394 -15.323481 -5.3594656
17.982597 -0.26863706 -41.809933 44.79918 43.62017 42.79159 24.825726 -23.08047
20.397556 73.22872 -50.02037 20.530666 0.14849481 -10.246834 35.9079 25.414564
10.481839 30.836945 12.740949 27.748991 -30.347645 -7.7536917 28.007013 57.298084
-8.285682 35.88135 12.924778 -24.136929 16.301012 37.582355 20.05414 52.50802
-31.568771 -46.065037 -44.605827 -4.2596292 -14.915326 -8.80361 9.495119 9.213446
-20.367073 -14.246534 -2.190843 -8.063512 -1.1066918 6.81665 -5.730748 2.3999567
-45.4035 16.03097 10.469492 29.791698 -16.183664 3.7105703 -7.1845174 35.560635
56.441605 70.03171 2.9583163 3.0442655 -15.381045 18.253683 -3.6241956 -10.6260195
35.301014 32.122105 36.855904 0.90807134 -37.29291 39.19042 5.6984563 51.93067
-53.505848 46.170807 38.060932 -40.42315 7.1417527 88.92313 37.112232 24.984539
12.541959 3.0362966 -23.267355 -4.141633 -12.231881 26.923319 57.217937 -25.390903
-8.340608 55.973484 -15.814086 15.26089 33.502796 -18.281567 -14.771565 55.491615
17.20978 -41.04392 50.511047 -23.267399 -23.143215 -12.145664 34.409904 62.95045
39.595863 10.471477 8.21459 50.886288 7.2545786 -13.499529 48.061176 46.11625
44.047844 31.347834 27.397894 32.356365 16.760696 17.731657 -18.80276 12.262681
13.127841 67.53813 51.57375 -51.96702 -7.6693807 -17.641937 10.918306 -10.983154
14.1888485 -9.606471 -25.840168 -30.210747 -41.728043 -6.7118077 8.330886 28.051966
47.26289 20.581724 49.823357 -74.12387 32.292732 5.5393066 18.490189 -8.760617
21.163897 -17.33429 -7.4119773 -16.121998 46.197784 82.72226 83.69127 30.130402
-7.290564 12.1909 -1.8715143 -8.212682 8.445799 12.09011 2.5012858 -54.861458
-8.160651 14.029352 -16.340729 -11.840645 0.83424413 28.476482 -49.80604 -7.8196
-2.747123 -7.6553497 -71.02804 -29.274496 56.14262 -2.4292467 -52.65121 -28.461266
12.8199005 25.526222 16.096275 6.5429087 2.0138187 0.09473938 5.6106467 37.812733
19.871815 24.168556 49.081276 -9.860907 60.014404 -8.7454815 -18.163467 25.107754
-47.878616 -13.015977 -27.009197 27.035074 27.43943 -9.076246 -67.91131 -11.187363
34.77777 -20.94883 12.346483 18.546125 -21.599426 4.10645 36.576473 33.247784
-16.508108 -35.79972 37.240643 37.75683 67.14607 22.105686 70.87483 63.77595
-23.21324 0.5739311 -21.534698 17.347918 -9.246696 -0.5968476 45.360622 -42.733894
-7.10062 55.41577 8.359328 -36.43948 4.68575 -53.098698 57.966972 57.282963
-33.09068 -59.023537 8.459817 -12.793235 66.90108 53.63197 -1.9220362 44.336727

bn1.running_var f4 [400]
00000000: 3578 1a44 4160 ec41 cfd1 0f44 f628 8344
00000010: 9bb7 5944 bd2c b343 8057 5344 252c 1d44
00000020: b8ba 0944 1bf2 2244 f88d bf43 a8bc 2e44
00000030: efb0 7344 8bcc df43 10fc 9f43 7272 8843
00000040: 906b f542 6697 b442 9873 4644 c3e7 9443
00000050: 0a6a 7343 dc05 4544 56c6 6344 97f5 a543
00000060: 0584 0c44 700c c043 c179 b643 2fd5 4544
00000070: a530 9d43 c3b2 5743 9cc7 1244 47c6 fd42
00000080: 0696 3244 59a4 9942 2c3b b642 09cc bf43
00000090: a196 b344 1d9b 6a44 125b c143 4215 e343
000000a0: 35de 0f44 14be 0d44 5742 af44 8cb6 4444
000000b0: 3294 fe43 d019 fc43 a769 0744 9251 cc43
000000c0: fbb3 aa44 54ae ae43 75a2 1c44 9902 4344
000000d0: d8b7 0244 0c2b a244 fd42 7a43 3775 5444
000000e0: 0d86 3e44 1f21 3145 0d79 2b44 4466 9a43
000000f0: 0a60 7d43 a4b5 d043 355e cf44 2a11 0744
00000100: 28f5 0344 c449 5244 4682 8d44 a338 3244
00000110: 6bf1 1142 f67b 2644 9eb4 7044 ed47 bb43
00000120: 60f0 0244 d85f 2c44 9a30 8c44 bf0c c344
00000130: 22a8 6f44 6dc3 f542 392a 1345 3e73 4043
00000140: ee7d 3043 a947 b543 6a1d 0244 547a 1c44
00000150: 5cff 9c43 eb19 5044 8459 a144 b083 e543
00000160: 1e64 0d44 bbaf a543 28fb cf43 c984 4244
00000170: 1ba9 c643 5532 0c44 b5fd 5144 b258 d943
00000180: de71 9b43 d2fb 1a44 be2b 9a43 b29a e743
00000190: 9461 f943 5b4a 5844 66d8 fb43 4841 cc43
000001a0: e29f 9242 e15e 4244 1cbf 8a43 faeb d043
000001b0: eb43 be43 88c4 3244 4dc3 8f44 203c 8e43
000001c0: e437 4b44 aef2 6944 e911 e643 9769 5e44
000001d0: 227d 1644 eb28 e443 7ac3 e343 32f4 0b44
000001e0: 97bd 6343 b2ac 2243 21ba 0a44 4a95 3c44
000001f0: 82f4 b143 1b8e eb44 0c94 6443 6c83 e943
00000200: 37b2 6d43 5086 8642 8e7f 9544 c32a 9544
00000210: 5436 d343 8714 0f44 57bb 8743 9ca0 9c43
00000220: a372 8444 37c8 6244 e644 c343 c556 d743
00000230: 269e 3d44 9ab9 b844 5b41 7044 4146 c244
00000240: cd8b fb44 805d c043 0e2e 2644 f494 1d44
00000250: 7b13 5344 d83f c444 f850 1244 1391 aa44
00000260: 3657 0b44 7ad8 ca43 a1ad 8e44 10f7 8544
00000270: efb9 9d43 29f1 9044 c2e6 9144 5bd0 1445
00000280: 7057 3144 9294 1b44 5119 9144 304c 5143
00000290: f391 a443 97d5 1a44 c670 d343 df72 a643
000002a0: 27a5 0845 7056 9443 f2dd 0344 ce6c 2a44
000002b0: d225 6745 ef07 7643 ed34 ee43 9466 0d44
000002c0: cf65 2f44 31f3 1644 3809 5f43 c180 c841
000002d0: 6a47 0a44 7d1f 1344 294d da43 6a95 a044
000002e0: 383e 0844 b4d6 b444 13a8 3844 247a 2c44
000002f0: 79cc 9843 be2a 1c44 3c3e 0b44 8788 2944
00000300: 09af 0944 b053 a342 2ab0 5f44 df7d 8542
00000310: 6b3b e543 a2cc d743 5490 b041 caba b844
00000320: ed74 0a44 2476 b443 972d a344 6a64 a043
00000330: f074 2e44 ee02 ed44 ef3a a743 cc5c ce44
00000340: f77b 7d44 12e6 1144 a25e 9644 0abb c344
00000350: c3cf d543 9db9 0244 0e5f 0a44 c08b 5a44
00000360: 51b7 d043 671e d943 251e 7843 1208 0c44
00000370: d2a9 5343 b573 2b44 8971 c443 7911 9043
00000380: 60f0 9743 51c5 7844 243d a843 2edb 8d44
00000390: 7b87 0f44 ee96 3e44 7eb7 3e44 222c 4644
000003a0: 8e92 bc44 568f 2d44 dd7b 0e44 aa43 5a44
000003b0: 8f4f bf43 6ab7 a642 4fe7 a644 3329 9244
000003c0: 0c0d 8444 daa8 1244 3ad1 8d42 72c1 3444
000003d0: 0b49 8e44 aec1 e643 6c7c 4944 e301 c144
000003e0: 6019 f543 c479 2c44 c09e fc43 4bef 5e44
000003f0: 515c 9543 0647 a844 bcc4 d543 4614 6743
617.87823 29.546999 575.27826 1049.28 870.86884 358.34952 845.3672 628.68976
550.9175 651.7829 383.10913 698.94775 974.7646 447.598 319.96924 272.8941
122.71008 90.2957 793.80615 297.81064 243.41422 788.09155 911.099 331.91867
562.0628 384.09717 364.9512 791.331 314.38004 215.69829 587.1189 126.88726
714.3441 76.82099 91.11557 383.59402 1436.7072 938.42365 386.7115 454.16608
575.472 566.97 1402.0731 786.8523 509.15778 504.20166 541.6508 408.63727
1365.6244 349.36194 626.5384 780.0406 522.87256 1297.3452 250.26167 849.8315
762.09454 2834.07 685.8914 308.79895 253.37515 417.41907 1658.944 540.2682
527.83057 841.1526 1132.071 712.88495 36.48576 665.9369 962.82214 374.56192
523.75586 689.49756 1121.5188 1560.3983 958.6271 122.88169 2354.639 192.45016
176.49191 362.55984 520.4596 625.9114 313.995 832.40497 1290.7974 459.0288
565.56433 331.3729 415.96216 778.07477 397.32114 560.78644 839.9642 434.69293
310.8896 619.9347 308.34174 463.20856 498.76233 865.1618 503.6906 408.51
73.31227 777.4825 277.49304 417.84357 380.5306 715.0708 1150.1031 284.46973
812.8733 935.7919 460.13992 889.64984 601.9552 456.31967 455.52716 559.81555
227.74059 162.67459 554.90826 754.33264 355.91022 1884.4408 228.57831 467.02673
237.69615 67.26233 1195.9861 1193.3363 422.42444 572.32074 271.4636 313.25476
1059.5824 907.12836 390.53827 430.6779 758.47107 1477.8 961.0212 1554.1954
2012.3688 384.73047 664.7196 630.3274 844.3044 1569.9951 585.26514 1364.5336
557.3627 405.69122 1141.4259 1071.7207 315.4526 1159.5363 1167.2112 2381.0222
709.3662 622.3214 1160.7911 209.2976 329.14023 619.33734 422.88104 332.89743
2186.322 296.6753 527.4679 681.7001 3698.3638 246.03099 476.41348 565.6028
701.59076 603.79987 223.03601 25.062868 553.11584 588.492 436.6028 1284.6692
544.97217 1446.7095 738.62616 689.90845 305.59744 624.66785 556.9724 678.13324
550.7349 81.66345 894.75256 66.74584 458.4642 431.5987 22.070473 1477.8372
553.82697 360.92297 1305.4247 320.7845 697.82715 1896.0916 334.46042 1650.8999
1013.93695 583.59485 1202.9573 1565.845 427.62314 522.9002 553.4852 874.1836
417.43216 434.23752 248.11775 560.1261 211.66336 685.8079 392.887 288.1365
303.87793 995.08307 336.47766 1134.8494 574.1169 762.3583 762.86707 792.6896
1508.5798 694.2396 569.93536 873.05725 382.62155 83.35823 1335.2284 1169.2875
1056.4077 586.6383 70.908646 723.0226 1138.2826 461.51312 805.9441 1544.059
490.19824 689.9026 505.24023 891.73895 298.72122 1346.2195 427.537 231.0792

fc2.weight f4 [300, 400]
00000000: 1183 773b c36f 2fbd d322 94bd 7616 993c
00000010: d4f2 ef3c 2547 8abb b8cb 0a3d d23a e6bc
00000020: 97fc 333c 4796 0dbd 5d30 48bd 5a00 243d
00000030: 1d70 4dbd 0f21 edbc 8f38 bcbd fc97 8fbd
00000040: dd59 cdbc 7470 283d 83d8 8cbd 6458 bebc
00000050: a02a 5bbd 9b0a cebc eade e93c 2bee abbd
00000060: 2cb3 23bd dd2a 98bc d3e0 7c3c 1463 8abb
00000070: 7f6e debc c271 11bd 6037 c9bc ed29 5e3c
00000080: 81c8 9bbc 6ed7 b8bb 73b6 2e3d a4f0 08bc
00000090: bea6 323d b9aa 7abd 5bd2 cd3c f17d fa3c
000000a0: d2f1 3a3d 0946 8dbd 9e5d 09bd 7c74 70bc
000000b0: faf5 99bd 42e3 c3bd a5d1 0b3d 578a eebb
000000c0: fd2d a33c f093 35bd ac03 5e3c 9355 8fbd
000000d0: 9452 90bd f7ad 0ebc 41c9 f1ba 2a21 61bd
000000e0: 36eb abbd 68df 4dbd b43e 55b7 830e 21bd
000000f0: 907e 38bd 463d 11bc 46ac 1cbd 61ca 89bd
00000100: 6280 f63b c007 0e3d 6aa0 1fb9 aa49 63bc
00000110: 37f6 34ba 28c9 63bd 7bd2 37bb a403 66bd
00000120: 1ef9 413b 1fe5 a2bc 505a b63c 370a 233c
00000130: 45ed 85bb 3f0a 2bbd 1f3e 84bd 2532 cf3c
00000140: 377d ca3b e3ec d9bc 0fcc 033d 21ce 67bc
00000150: e36d 7abb 93cf 87bc 074e 28bd 1688 12bd
00000160: 09bf 30bd adf2 6fbd 632e b8bb f2ae 3abd
00000170: 4f7f c93b 375d 2bbd 14c4 95bc 878f b4bc
00000180: f8eb 39bd fc04 87bd dd70 153b c614 3b3c
00000190: 55cb 86bc 3149 0ebd 7b17 91bd 2997 123d
000001a0: 2e1f ba3c add6 abbb 8ae8 3dbd cdfa 8d3c
000001b0: ad77 48bb 22e3 6d3d a5f6 5ebd 058b 0dbd
000001c0: 1be6 7f3c c91a e33a 533b 17bd 4704 9e3c
000001d0: 132f 44bd 7f5a a9bc db86 213c 12c4 173d
000001e0: b3c8 6b3c 9ad7 e9bc 17be f23c 2e39 ff3c
000001f0: 8b6a 81bc 0179 5b3d f42c 15bd fd66 273c
00000200: 66a1 a3bd e63a e83c bfed 703d f7ad 2cbd
00000210: 52c8 ebbb 4b61 fa3c 25a6 b03b 3db2 4c3d
00000220: f346 db3c 229f 4ebc 6c35 03bd ad0a 6dbd
00000230: 81a7 d33c f507 c6bc 6472 44bd 0127 02bc
00000240: 3cc3 1cbd 29f7 7bbd 8273 94bc ac05 4e3d
00000250: 05c7 123d 350c c73c 59fa f5bc 1dbb 86bd
00000260: 77f5 6dbd 7635 4ebd 8c44 933c 899b cdbc
00000270: 7784 953c 5690 b1bc a633 cabc 63d1 143c
00000280: 84eb 3ebd d732 c0bc d022 2d3c bbd4 4cbd
00000290: 0ba6 bdbb d088 88bd c6a7 16bd 768a 9a3a
000002a0: c489 9a3c 8e58 87bd 7809 483d dca3 3cbd
000002b0: 649d 993c 2a51 13bb d9a0 1ebd 7bf2 e1bd
000002c0: 45ee e03a 2929 1a3d 9d5c e5bc cab5 6ebd
000002d0: d566 483c 616d 1cbc dc14 84bc f656 64b9
000002e0: b0af 67bc 8880 80bd 5938 8cbd 7aae 8dbc
000002f0: 137c b6bc fb0c 09bd aa98 b03c e056 5ebd
00000300: 3717 c2bb 4188 ccbd e250 61bd 3d70 02bd
00000310: 4b94 33bd e0f4 7cbd 7fa9 31bd a77f 193c
00000320: bec6 25bd 96f8 713c 98ef 05bc 4759 91ba
00000330: 08e4 68bc 38f3 1b3d aa86 373c 89d6 17bd
00000340: 528a 08bd e4f5 8abd efdd a93c bedf 9abc
00000350: 1402 32bd 36d5 c83c 0ac2 993c d63d 90bc
00000360: ce05 8b3c caf5 c5bc e2ac 07bd cf24 58bd
00000370: 5c6e 81bd 8396 94bc b9e9 52bd cfaf e13c
00000380: 9e25 a9bd f424 37bc 4ca6 48bc 4140 1abc
00000390: a7db 0bbd 8e1d 1fbd db37 0ebd 608b 93bd
000003a0: 1ecb a9ba 48e9 80bd f2c1 e1bc 43c1 d5bb
000003b0: 7bc9 9ebb ec6f 2a3c 1e41 e0bc 5589 dd3a
000003c0: b71d a6bd 6d2d 35bd 9bfe 8ebd e705 5fbd
000003d0: 7e0a a1bd da83 d7bc 277d 453c 72f2 7bbc
000003e0: d244 07bd 0970 d3bb 53e0 a23c 916f 86ba
000003f0: 1894 893c e9e7 15bd 1434 35bb d6a7 82bd
0.003776733 -0.042831194 -0.07233205 0.018687468 0.029290594 -0.004219907 0.033885688 -0.02810422
0.010985515 -0.034567144 -0.048874248 0.040039398 -0.050155748 -0.028946428 -0.09190475 -0.070114106
-0.025067264 0.04112287 -0.06877234 -0.023235507 -0.053507447 -0.025151541 0.028548677 -0.08395036
-0.039965793 -0.018575126 0.015434462 -0.004223237 -0.027152298 -0.03550888 -0.024562538 0.013559801
-0.019016506 -0.0056409156 0.042654466 -0.008358154 0.04361605 -0.06119797 0.02512472 0.030577632
0.045640774 -0.06898124 -0.033536546 -0.01467621 -0.075176194 -0.0956483 0.03413548 -0.007279675
0.01991939 -0.044330537 0.01355068 -0.06998744 -0.070470005 -0.008708469 -0.0018446819 -0.05496327
-0.08394472 -0.050261885 -1.2710389e-05 -0.03932048 -0.045042574 -0.008864706 -0.03825023 -0.06728054
0.0075226286 0.03467536 -0.0001522318 -0.013872543 -0.0006903144 -0.05561176 -0.002804904 -0.056155816
0.0029597948 -0.019884644 0.022259861 0.009951166 -0.0040871226 -0.04175782 -0.06457161 0.025292465
0.0061794776 -0.026602214 0.032177027 -0.014148266 -0.003821247 -0.016578471 -0.041090038 -0.035774313
-0.043150935 -0.058581043 -0.005620764 -0.045576997 0.0061492096 -0.041836943 -0.018281974 -0.022041095
-0.045391053 -0.065927476 0.0022802867 0.011418527 -0.016454378 -0.03473777 -0.07084557 0.03578869
0.022719946 -0.005244097 -0.046364345 0.017331505 -0.003058891 0.05807794 -0.054434437 -0.034556407
0.015618826 0.0017326708 -0.03692181 0.019289149 -0.047896456 -0.020673035 0.009858812 0.03705222
0.014391112 -0.02854519 0.029631658 0.031155195 -0.015797874 0.053582195 -0.036419824 0.010217425
-0.07989769 0.028348397 0.058820482 -0.042158093 -0.007195511 0.030563971 0.0053908997 0.04997467
0.02676723 -0.012611182 -0.03203337 -0.05787151 0.025836708 -0.024173716 -0.047960654 -0.00794387
-0.038272128 -0.061515007 -0.018121485 0.050298378 0.03583433 0.024297813 -0.030026602 -0.06578658
-0.05809542 -0.050343953 0.017977022 -0.025098579 0.01825164 -0.02167527 -0.024682831 0.009083125
-0.046611324 -0.023461742 0.010567382 -0.050007563 -0.005787616 -0.0666672 -0.036781095 0.0011790532
0.01886452 -0.06608687 0.048837155 -0.046054706 0.018751808 -0.0022478797 -0.038727615 -0.110325776
0.0017160854 0.03763691 -0.027998263 -0.058278836 0.012231548 -0.009547562 -0.016123228 -0.0002177617
-0.014141008 -0.062745154 -0.06846685 -0.017295111 -0.02227596 -0.033459645 0.02155717 -0.05428207
-0.0059231776 -0.09986926 -0.055008776 -0.03184532 -0.043842595 -0.06175697 -0.043374535 0.009368814
-0.04047274 0.01476874 -0.008174799 -0.0011089229 -0.014214523 0.03807375 0.01120154 -0.03706983
-0.033335038 -0.06785181 0.020735709 -0.018905517 -0.043459013 0.02451573 0.018769283 -0.01760761
0.016970541 -0.024165053 -0.03312386 -0.05276948 -0.063198775 -0.018138176 -0.051492427 0.027549652
-0.08259128 -0.011178244 -0.0122466795 -0.009414733 -0.034145024 -0.038846545 -0.034721237 -0.07204318
-0.001295421 -0.06294495 -0.0275583 -0.0065232827 -0.0048457957 0.010402661 -0.0273748 0.001690189
-0.081111364 -0.044232775 -0.06982156 -0.05444899 -0.07863329 -0.026307989 0.012053764 -0.015377628
-0.033024617 -0.0064525646 0.019882357 -0.0010256638 0.01679425 -0.03659812 -0.002764945 -0.063796684

fc2.bias f4 [300]
00000000: dd3f 9ebd 079a c73e 0a3e debe 237b a0bd
00000010: 99c2 b8bd e183 f5bd 9f0c 95be 32ff 1cbe
00000020: 37a7 a3bd 6a46 e1bd f165 8fbd fac1 f0bd
00000030: 2eb5 55bd 3294 98be 507d 8cbd aa51 c8bd
00000040: eb56 b5bd e08b 69bd 8324 9dbd 61b2 87bd
00000050: 82f8 a2bd 2491 00be 8fea 313e 237b dabf
00000060: 8635 af3d ae2e a5bf 42e8 8abf 6b21 ec3e
00000070: f688 89bd 68a5 22bf 37e3 c0bc 65de 8ebd
00000080: 0436 09c0 144d 30be dafd 5f3e fb44 5bbf
00000090: 8a77 99bd 6abf bebd 9ba2 b9bd 7645 b7bf
000000a0: fd63 9bbd e483 84bd ee87 9ebd 1a5d 8dbd
000000b0: 1c13 eabd b11c acbd d05a ccbd 8888 17be
000000c0: 5212 62bf 0550 c1be 0e53 bfbc 5982 6dbd
000000d0: 8d8c 12bf 1291 fabd 67dd 92bf 2496 8abf
000000e0: 8414 05c0 ce37 41bf 6578 acbf ea1e 88bd
000000f0: 0829 b2bd 3b60 c6bd d9c3 a8bd 9241 bcbd
00000100: 9e62 78bf 32aa b7bd bd8d 4fbd c3cd 4abe
00000110: f902 d8bf 5376 ddbd 9321 b3bd 6c3f 97bd
00000120: 0a45 9bbd be2d 7bbe b5e2 54bd c550 c8bf
00000130: 70ed c7bd dcde 80bd dce8 213d 060a 20bf
00000140: 1688 cabd 329a 27be 6efa 02be b3b6 eebd
00000150: 9f9e ccbd 2846 dabd 6f9d 0ec0 17e5 e3bd
00000160: 3e36 cbbd e737 663f 96aa 3fbf a3f7 30bd
00000170: a31d b1bd be52 adbd 40bb 91bf 9321 ccbd
00000180: 2849 98bf 1eb4 20c0 54d3 dcbd 7689 90be
00000190: d162 0fbe a02d f5bd 7455 173f 0923 eabe
000001a0: b38e 25be 08cf dbbd c169 d4bd 98c3 92bf
000001b0: 097e 18bf c653 acbe 3ca3 8fbf 5830 0bbe
000001c0: 6a44 c3bf e2c4 a7bf d3a0 9abd d341 2fbe
000001d0: afa6 b03e 3dc0 5bbf 548b 87bd 2f0c 8fbf
000001e0: e2f3 efbf ecae babe 1b58 dcbd 6604 99bd
000001f0: 14a9 fa3d f7dd b9bd 3233 b3bd 9f74 3dbf
00000200: db3e 34bd 9f81 40c0 667d 27be 275d f2be
00000210: fdfe 763d 9e44 27bf ed0f 033c cee3 81be
00000220: 563e eebc c2f5 0bbe 6eb1 9ebd 36b2 e5bd
00000230: e8e9 4fbd 5112 32bf 6ba2 18be 02f8 91bd
00000240: f459 d4bd db94 29bf 932e 71bd 98b3 dc3e
00000250: 87b8 ddbd 3f24 71bd a663 24bd d337 e6bf
00000260: bcde 12be f221 98bd 87b0 02be 1110 8dbd
00000270: 8190 8bbe 836f 9cbd c966 98bf e49a e0bc
00000280: b586 a9bd 0d7c 92bd 5979 40be 3809 5b3e
00000290: d12c 04bf 3d84 aabd 3400 3fbd a2c5 09be
000002a0: 5227 26bd cddf 51be 4691 83bd fce6 4dbf
000002b0: 28a9 38bf 123f 6ebd d3e4 01be 554f ec3e
000002c0: b634 b1bd 73c1 50be eb0f d53e f866 7f3e
000002d0: 7ebe 77bd 7b8e 09be ee78 eabc dd9a 65bd
000002e0: 8bac 92bd 59c3 f5bc 1059 e2bd 86ce 92bd
000002f0: a646 47be aa0b eebd 9aca 04be 2699 68bf
00000300: 5cd7 81bf d9eb 533e 38d0 943b 7f99 17be
00000310: eef6 12be 163e 2fbe 543f 84bd 4b10 a8bf
00000320: ca6b 983e 4d5a 3fbf 69e6 18bd 1fbf 38bf
00000330: 33d2 9cbd d011 aa3e 2737 59bd 4f83 a7bd
00000340: 3b53 f9bf e339 aebd 2859 3fbf 4e81 b0be
00000350: a61c a7bd 79ed b7bf fa7b abbd 720f d1be
00000360: 05db a73d 897c 7abe e089 66bf d8f8 97be
00000370: 65de 12bf 4904 c7bd 713c fcbd 54b5 a9bd
00000380: 9091 c2bd 7acd 02c0 2450 89bd 262c 94be
00000390: 5e78 c2bf 917e 04bf d48b 95bd 950f f6bf
000003a0: 21ae b4bf 4c13 94bd 2d51 cfbd 4ed1 e9bc
000003b0: 48b1 ebbd d459 cabe 1ef6 44bd a228 bfbd
000003c0: a430 e6be 8ff1 cabd ff87 47bf 1465 5fbf
000003d0: 07c1 c1bd edd9 d8bf d324 80bd 5435 9cbd
000003e0: 7e4c e3bd 347a 15be 3b73 97bd b60b 82bd
000003f0: 8df7 133e 8990 1cc0 dbd7 8dbd 3c7a aabd
-0.07727025 0.389847 -0.43406707 -0.078359865 -0.090214916 -0.119880445 -0.29111192 -0.15331724
-0.07990878 -0.109997585 -0.07001866 -0.11755748 -0.05217474 -0.29800564 -0.06859839 -0.09781201
-0.08854469 -0.05701816 -0.0767298 -0.0662582 -0.07957555 -0.12555367 0.17374633 -1.7068828
0.08555131 -1.290487 -1.085213 0.46119246 -0.06715576 -0.6353364 -0.023545844 -0.06976012
-2.1439219 -0.17216903 0.2187418 -0.8565213 -0.074935034 -0.09313853 -0.09064218 -1.4318073
-0.075874306 -0.06470469 -0.0774077 -0.06902523 -0.11429426 -0.0840391 -0.099782586 -0.14798176
-0.88309205 -0.37756363 -0.023355033 -0.057985637 -0.57245713 -0.12234701 -1.1473817 -1.0827069
-2.0793772 -0.75475776 -1.3474241 -0.066465214 -0.08699232 -0.09686323 -0.0824048 -0.09192194
-0.9702548 -0.08968009 -0.05067228 -0.19805054 -1.6875907 -0.10813584 -0.08746638 -0.07385144
-0.075815275 -0.24529168 -0.051974017 -1.5649649 -0.097620845 -0.06292507 0.039528713 -0.62515295
-0.098892376 -0.16367415 -0.12790844 -0.11655941 -0.09991192 -0.106579125 -2.228359 -0.1112768
-0.09922455 0.8992905 -0.7486967 -0.043204915 -0.08648231 -0.084630474 -1.1385269 -0.09967341
-1.1897326 -2.5109935 -0.10782495 -0.28229874 -0.14002539 -0.11971593 0.59114766 -0.45729855
-0.16167717 -0.107328475 -0.103717335 -1.146594 -0.59567314 -0.33657664 -1.122169 -0.1359266
-1.5255253 -1.3106959 -0.07550206 -0.17114954 0.3450217 -0.8584021 -0.066183716 -1.1175593
-1.8746302 -0.3646158 -0.10758992 -0.07471542 0.1223928 -0.090755396 -0.08749999 -0.74006075
-0.044005256 -3.0079114 -0.1635643 -0.47336695 0.06030177 -0.65339077 0.0079994025 -0.25369114
-0.029082458 -0.13667968 -0.07748686 -0.11215632 -0.05076018 -0.695592 -0.14905708 -0.07127382
-0.1036872 -0.6624276 -0.058882307 0.4310577 -0.108262114 -0.058872458 -0.040134095 -1.7985786
-0.14342779 -0.074283496 -0.12762652 -0.0688783 -0.27258685 -0.07638457 -1.1906368 -0.027417608
-0.082776465 -0.07152567 -0.1879629 0.21390235 -0.51630884 -0.08326004 -0.046631053 -0.13454297
-0.040564843 -0.2049553 -0.06424193 -0.8043058 -0.7213311 -0.058165617 -0.12684946 0.46154276
-0.08652632 -0.20386295 0.41613707 0.24941623 -0.060484402 -0.13433258 -0.028622117 -0.056055892
-0.07161816 -0.030000376 -0.110521436 -0.071682975 -0.19460544 -0.116233185 -0.12967911 -0.90858686
-1.0143847 0.20695437 0.004541423 -0.14804648 -0.14352009 -0.17113528 -0.064573914 -1.3129972
0.29769737 -0.74747163 -0.03732911 -0.7216663 -0.0765728 0.33216715 -0.053031113 -0.08179342
-1.9478525 -0.08507135 -0.74745417 -0.34473652 -0.08159761 -1.4369346 -0.08373256 -0.40832096
0.081960715 -0.24461569 -0.9005413 -0.2968204 -0.573706 -0.09717614 -0.12316216 -0.08286539
-0.0950042 -2.0437913 -0.06704739 -0.28939933 -1.5192983 -0.51755625 -0.07302061 -1.9223505
-1.411564 -0.07230243 -0.10122905 -0.028542187 -0.11508423 -0.39521658 -0.04808628 -0.09333922
-0.44958985 -0.09909355 -0.7794189 -0.8726361 -0.09460645 -1.6941506 -0.06257024 -0.07627359
-0.11098574 -0.14597398 -0.07395025 -0.0634989 0.14449902 -2.4463217 -0.06925937 -0.083240956
