project_3-Collaboration_and_Competition/actor.pth (torch_old, 531772 bytes, 10 tensors)

fc1.weight f4 [400, 24]
-1.6256592 -0.61792374 0.08220233 0.54237604 -0.79774535 3.6706505 0.049771246 0.5923455
-0.91832495 -0.54140985 0.14919795 -0.52263457 0.27833658 4.584308 0.15219247 -0.50399417
-1.1747745 -0.80862576 0.11841111 0.8327141 1.8170282 4.4134245 0.07376888 0.7646859
-1.7282842 -0.48304757 -0.26891178 -0.20655075 0.13413092 -1.6546013 -0.24054007 -0.16039452
-0.8753384 -1.7397951 1.3587965 -1.7380861 0.06362705 -1.9449632 1.3944452 -1.7473577
0.025903046 -1.4258357 0.001221433 0.09698368 0.23597398 -3.282201 0.051820077 0.077613704
2.4388015 0.40084577 0.1552989 1.0190712 0.5972701 1.5280119 0.16909477 1.0284568
2.2872608 0.6584854 -0.4414555 -0.08463972 0.0948328 -0.17829533 -0.51981896 -0.06962496
3.9611542 -0.11158693 0.4760101 -1.9524819 -0.3376524 -2.61342 0.5092849 -1.992159
1.7317924 2.562642 -0.5341053 -0.61588776 -0.14792006 -1.3345906 -0.52711153 -0.6115963
1.5478659 3.1586795 0.054707218 0.92209584 -0.3611518 -0.72461915 0.099259764 0.9452833
0.8776067 3.8802521 0.7391886 1.6317341 -1.1950921 -1.505443 0.75008094 1.6206363
-2.7749372 -0.34535712 -0.13413239 -1.3886695 0.45806697 2.3266132 -0.17845021 -1.3390102
-3.2108746 -0.698492 -0.028559253 -1.4587498 0.70607615 2.4828703 -0.032905184 -1.5014243
-4.162379 -1.5237399 0.35739616 -0.75488704 0.78581804 0.1391803 0.32892403 -0.7840834
0.31393516 -1.6443114 -0.2737606 1.4741381 -0.45763713 -6.0665455 -0.27830672 1.412163
0.14248382 -1.977565 -0.10589407 -0.76030505 0.061068643 -3.673661 -0.15145175 -0.76687586
1.0088917 -2.5829687 -0.44200674 -1.7696358 0.32157582 -0.98131275 -0.43411118 -1.8427635
-2.6808054 -0.03245608 -0.8389747 1.2616695 -0.51433504 0.055098053 -0.8102498 1.318986
-1.2112325 -0.39652833 -0.12859303 -1.3582338 -0.7902959 1.0574385 -0.07419532 -1.372527
-3.1081161 -0.80845803 -1.0137235 -0.60926473 -0.85011417 1.2792779 -0.98973894 -0.6244229
1.8398899 -3.1402621 -0.105778314 1.1861129 -0.8208401 -1.8347872 -0.16623825 1.1306688
2.292366 -2.2494223 -0.2641697 0.19207507 -0.27170616 0.61348736 -0.225484 0.2883837
4.844523 -0.7003269 -0.10987359 2.4368076 0.0537262 1.9129168 -0.12437617 2.4544673
5.1035705 0.72108895 0.45543915 -0.5413875 -1.7983953 -0.7489809 0.44958624 -0.58410645
1.6837285 0.16333348 -0.0046664085 -1.4572066 -1.1192443 0.6062952 -0.015138132 -1.4495618
0.02879331 0.013051829 -0.3069038 -0.52445763 -0.52515024 1.0031351 -0.3044908 -0.4966853
1.0212749 -2.2279775 0.10994961 2.996117 -1.109736 4.025683 0.08588309 2.9595745
1.0533826 -2.435001 0.05240699 -0.549057 -0.18372111 3.0724964 0.045192625 -0.5316512
-0.18130615 -2.3693008 -0.1297563 0.64543957 0.8325004 1.3830489 -0.18533927 0.6656697
1.2454262 -3.4580498 -0.14054057 -0.32249063 -0.76105005 -3.509586 -0.16739434 -0.37879997
1.459118 -3.900405 0.08981618 -0.07041194 -0.27703145 0.48541877 0.046936635 -0.020897187
00000000: 9a15 d0bf 4030 1ebf b259 a83d 28d9 0a3f
00000010: 0a39 4cbf f0eb 6a40 efdc 4b3d f4a3 173f
00000020: 5817 6bbf d699 0abf 59c7 183e 61cb 05bf
00000030: 2282 8e3e a7b2 9240 58d8 1b3e c305 01bf
00000040: 035f 96bf 1902 4fbf 8681 f23d c02c 553f
00000050: 6194 e83f c63a 8d40 2314 973d 75c2 433f
00000060: 6b38 ddbf 0352 f7be ceae 89be 0a82 53be
00000070: 9e59 093e fac9 d3bf 2350 76be 763e 24be
00000080: 2d16 60bf 9bb1 debf 0bed ad3f 9b79 debf
00000090: e64e 823d 8ef4 f8bf 2e7d b23f 6ba9 dfbf
000000a0: a032 d43c c981 b6bf 7e18 a03a 619f c63d
000000b0: 2aa3 713e 950f 52c0 4a41 543d eff3 9e3d
000000c0: 5315 1c40 a83b cd3e ad06 1f3e ed70 823f
000000d0: b1e6 183f e595 c33f 2e27 2d3e 79a4 833f
000000e0: 7b62 1240 8092 283f 7506 e2be 9757 adbd
000000f0: b337 c23d 0d93 36be db12 05bf 8897 8ebd
00000100: 8d83 7d40 b087 e4bd 99b7 f33e edea f9bf
00000110: c6e0 acbe 4642 27c0 7f60 023f 11ff febf
00000120: 60ab dd3f 5402 2440 20bb 08bf d2aa 1dbf
00000130: 5b78 17be ddd3 aabf c8f0 06bf 9391 1cbf
00000140: 7820 c63f ce27 4a40 ad14 603d 790e 6c3f
00000150: e4e8 b8be a480 39bf b448 cb3d 16fe 713f
00000160: d5aa 603f 0d56 7840 773b 3d3f aadc d03f
00000170: c7f8 98bf 5bb2 c0bf 4e05 403f 0371 cf3f
00000180: 9298 31c0 a6d2 b0be 005a 09be ecbf b1bf
00000190: c187 ea3e 3be7 1440 a7bb 36be b064 abbf
000001a0: f87e 4dc0 5fd0 32bf 18f5 e9bc 50b8 babf
000001b0: 68c1 343f 59e7 1e40 96c7 06bd ac2e c0bf
000001c0: 3532 85c0 e909 c3bf a1fc b63e 4740 41bf
000001d0: 5f2b 493f 4885 0e3e bb68 a83e b1b9 48bf
000001e0: 1cbc a03e cc78 d2bf 592a 8cbe 8fb0 bc3f
000001f0: 6a4f eabe 2421 c2c0 387e 8ebe c2c1 b43f
00000200: 47e7 113e da20 fdbf fdde d8bd 5aa3 42bf
00000210: 1d23 7a3d 431d 6bc0 2b16 1bbe fa51 44bf
00000220: 5d23 813f 5c4f 25c0 b54e e2be 6d83 e2bf
00000230: 96a5 a43e 5037 7bbf d243 debe addf ebbf
00000240: 5192 2bc0 abf0 04bd 0cc7 56bf 637e a13f
00000250: 76ab 03bf 7fae 613d 886c 4fbf 89d4 a83f
00000260: ab09 9bbf c305 cbbe e4ad 03be 9bda adbf
00000270: d550 4abf 255a 873f b7f3 97bd f7ae afbf
00000280: 60eb 46c0 1bf7 4ebf b1c1 81bf c6f8 1bbf
00000290: 15a1 59bf 61bf a33f 885f 7dbf 2eda 1fbf
000002a0: 8381 eb3f 0efa 48c0 4da2 d8bd 8cd2 973f
000002b0: 9422 52bf 4fda eabf 5c3a 2abe c1b9 903f
000002c0: 20b6 1240 89f6 0fc0 4041 87be 54af 443e
000002d0: 121d 8bbe 820d 1d3f 47e5 66be 07a7 933e
000002e0: 5506 9b40 a048 33bf 6805 e1bd a8f4 1b40
000002f0: 0110 5c3d 75da f43f efb8 febd fe15 1d40
00000300: 7350 a340 4999 383f 522f e93e 5f98 0abf
00000310: d131 e6bf 36bd 3fbf 2b30 e63e 0088 15bf
00000320: 6a84 d73f e440 273e ace8 98bb bf85 babf
00000330: 6643 8fbf 2a36 1b3f ed05 78bc 3e8b b9bf
00000340: f3df eb3c 57d7 553c 7f22 9dbe db42 06bf
00000350: 3f70 06bf bb66 803f 38e6 9bbe 894d febe
00000360: 23b9 823f 2f97 0ec0 432d e13d 62c0 3f40
00000370: d40b 8ebf 65d2 8040 79e3 af3d ab69 3d40
00000380: 3ed5 863f 0ed7 1bc0 b6a8 563d 008f 0cbf
00000390: 6321 3cbe c8a3 4440 e71b 393d 4b1a 08bf
000003a0: 52a8 39be a0a2 17c0 d6de 04be 873b 253f
000003b0: bf1e 553f bf07 b13f 94c9 3dbe 5469 2a3f
000003c0: 206a 9f3f b050 5dc0 dee9 0fbe 7e1d a5be
000003d0: 2dd4 42bf 0f9d 60c0 6c69 2bbe 12f2 c1be
000003e0: 61c4 ba3f 3ca0 79c0 8cf1 b73d 2334 90bd
000003f0: 11d7 8dbe cf88 f83e a140 403d 9430 abbc

fc1.bias f4 [400]
0.14814878 0.027790712 -0.13833578 0.12854724 0.0046074837 -0.1476016 -0.029405376 -0.100161314
-0.077079825 -0.17702976 -0.12495165 -0.17649074 -0.12460335 0.004587947 -0.026162967 -0.09570509
0.014252097 -0.0748639 -0.1768945 0.16925724 -0.2056557 0.15205966 -0.05788811 -0.224479
-0.23072377 -0.24049307 -0.12981507 0.14968334 0.03756819 -0.13536118 0.11185406 0.1595655
0.08147223 0.20827495 0.21196185 -0.07802217 0.16928245 -0.1104248 -0.077337034 -0.061026674
-0.031262968 -0.15228842 0.16412324 -0.10677194 0.0446297 0.13643317 0.0145846065 -0.0660971
0.16011143 -0.1652356 0.19026479 -0.14199528 0.20618209 0.014922495 -0.11632911 0.007816822
-0.1940347 0.13472666 0.14565887 0.11199715 0.09797242 0.22731926 -0.19146709 0.12962745
0.0044456283 0.13183422 0.07647714 0.015000862 0.08702282 -0.08142682 -0.16087621 -0.16517869
0.18508685 -0.025485124 -0.1803256 0.031158017 -0.04297207 -0.14811221 0.16969314 0.08633458
0.16450097 -0.016217018 -0.036116105 -0.17364426 0.016822068 -0.14494056 0.13293439 -0.22625424
-0.10367996 0.10977652 0.030797906 -0.02054391 -0.046016924 -0.1254342 -0.079862796 0.1177436
-0.28138298 0.03109182 -0.0001955398 0.08500198 0.18051316 -0.23548867 0.05994976 0.0868524
0.077038184 -0.062807515 0.106701985 -0.20439792 -0.122685805 -0.009842796 -0.05961434 -0.20996787
0.12787727 0.10701418 -0.20954226 -0.004593276 -0.20184204 0.03265319 0.023292463 0.18613596
0.121802606 0.13510746 0.029428847 -0.13125631 -0.07254875 0.18973696 0.06523231 -0.044143222
-0.042493597 0.05983362 0.11859841 -0.072379984 0.06282697 0.1393213 0.11044626 0.08396098
0.06918018 0.038219158 0.056562103 -0.2249776 -0.010075755 -0.063595705 -0.09712374 -0.017334424
-0.023920992 0.19118665 -0.14096767 -0.19002151 -0.119290814 0.07975291 -0.12517707 -0.25551826
0.05278691 0.084538266 0.20330513 -0.19481875 -0.05670497 -0.08259431 -0.04164924 -0.017729439
0.24927226 0.004211574 0.15049753 0.039758652 -0.06621643 -0.0061089033 0.09397492 0.120431535
-0.093769126 0.0148683265 -0.21069516 -0.11632515 -0.09334711 0.11296144 0.016128443 0.11772064
-0.30387944 0.023478745 -0.17653327 -0.02578682 0.10353454 0.1651772 -0.064469524 -0.17665647
-0.049332913 -0.054348934 -0.107276574 0.11032454 -0.006575236 0.0040915566 0.2097267 -0.16496997
0.09285472 0.14526783 0.0378061 0.07985086 -0.10885366 -0.20802978 0.18345654 -0.09376966
-0.032934945 0.1750385 -0.12539694 -0.047013655 -0.16930014 0.013548126 -0.07855233 0.08378135
0.18793078 -0.12832126 0.19074205 -0.16316406 -0.19945146 0.104061864 -0.12153694 0.11800228
0.009881876 -0.113555856 -0.15153188 0.0525271 -0.18144041 0.12045225 0.09339067 -0.17476943
0.13871932 -0.18434544 0.028874353 -0.06498296 0.14848506 -0.15303625 -0.0099302335 -0.07467885
-0.021736203 0.06433176 -0.13038503 0.022821797 -0.018387996 -0.10826173 0.020772118 0.14602236
0.093309104 0.075539544 -0.07295124 -0.16113663 0.115487486 0.034230854 0.05784871 0.15225542
-0.06012812 -0.20580731 -0.11690665 -0.17978382 0.14715478 0.10150495 -0.08223434 -0.024675973
00000000: 50b4 173e 59a9 e33c e5a7 0dbe e3a1 033e
00000010: 60fa 963b e024 17be 8be3 f0bc 6021 cdbd
00000020: 07dc 9dbd 4a47 35be a7e6 ffbd fdb9 34be
00000030: 0b30 ffbd 7d56 963b b853 d6bc 0801 c4bd
00000040: a181 693c 3f52 99bd d523 35be c551 2d3e
00000050: 6897 52be 87b5 1b3e 151c 6dbd d3dd 65be
00000060: da42 6cbe d143 76be 3eee 04be 9746 193e
00000070: 1ae1 193d 1f9c 0abe be13 e53d 2365 233e
00000080: eada a63d 0746 553e 870c 593e 16ca 9fbd
00000090: 6158 2d3e 6626 e2bd e162 9ebd 1bf7 79bd
000000a0: 990d 00bd 7ff1 1bbe ec0f 283e 3fab dabd
000000b0: a2cd 363d 23b5 0b3e 46f4 6e3c eb5d 87bd
000000c0: 40f4 233e 8533 29be c6d4 423e 3667 11be
000000d0: 6621 533e 7b7d 743c f53d eebd 2112 003c
000000e0: 08b1 46be c9f5 093e 9927 153e c35e e53d
000000f0: c4a5 c83d 61c6 683e f30f 44be 0fbd 043e
00000100: a2ac 913b 8dff 063e 0ca0 9c3d 2dc6 753c
00000110: 0539 b23d 1bc3 a6bd bcbc 24be 9a24 29be
00000120: 6887 3d3e 2ec6 d0bc 46a7 38be 193f ff3c
00000130: 7b03 30bd baaa 17be 0ac4 2d3e 2fd0 b03d
00000140: f172 283e 8dd9 84bc 7bee 13bd cdcf 31be
00000150: 6fce 893c 4c6b 14be f41f 083e 31af 67be
00000160: 2956 d4bd 83d2 e03d e44b fc3c b44b a8bc
00000170: 3e7c 3cbd d371 00be 1b8f a3bd 8e23 f13d
00000180: 6e11 90be 46b4 fe3c d109 4db9 8515 ae3d
00000190: 71d8 383e f123 71be e18d 753d acdf b13d
000001a0: 32c6 9d3d 3aa1 80bd 9286 da3d b04d 51be
000001b0: b242 fbbd ae43 21bc 2b2e 74bd d101 57be
000001c0: 42f2 023e 402a db3d 3f92 56be 3183 96bb
000001d0: aeaf 4ebe 5abf 053d d6cf be3c 6d9a 3e3e
000001e0: a573 f93d 9c59 0a3e c414 f13c 0e68 06be
000001f0: 7094 94bd 684a 423e 8498 853d 86cf 34bd
00000200: c40d 2ebd 1914 753d b9e3 f23d f53b 94bd
00000210: 6dab 803d 3eaa 0e3e a631 e23d bcf3 ab3d
00000220: 57ae 8d3d b18b 1c3d aaad 673d 8760 66be
00000230: c814 25bc 773e 82bd d0e8 c6bd ec00 8ebc
00000240: f5f5 c3bc 6fc6 433e d459 10be 0095 42be
00000250: be4e f4bd 7e55 a33d 6b2e 00be 4ad3 82be
00000260: 1637 583d 6622 ad3d 382f 503e 917e 47be
00000270: 7843 68bd 3527 a9bd 6598 2abd 543d 91bc
00000280: 3a41 7f3e 3e01 8a3b 061c 1a3e f8d9 223d
00000290: 7b9c 87bd 322d c8bb ec75 c03d cfa4 f63d
000002a0: 070a c0bd 489a 733c 79c0 57be e13b eebd
000002b0: c52c bfbd 5458 e73d cc1f 843c 8517 f13d
000002c0: 1696 9bbe 7f56 c03c 23c5 34be e23e d3bc
000002d0: eb09 d43d 3624 293e 9908 84bd 6fe5 34be
000002e0: 4f11 4abd fd9c 5ebd d2b3 dbbd d5f1 e13d
000002f0: 1475 d7bb 7712 863b 99c2 563e e3ed 28be
00000300: 9e2a be3d 17c1 143e 92da 1a3d d988 a33d
00000310: abee debd c205 55be 08dc 3b3e 4f0a c0bd
00000320: cbe6 06bd 4b3d 333e 0e68 00be 6491 40bd
00000330: 045d 2dbe f6f8 5d3c 0be0 a0bd 8e95 ab3d
00000340: ed70 403e a666 03be e251 433e 7b14 27be
00000350: 013d 4cbe 631e d53d 5ce8 f8bd 2eab f13d
00000360: 98e7 213c f98f e8bd 2c2b 1bbe a826 573d
00000370: 84cb 39be abaf f63d 9c43 bf3d c2f6 32be
00000380: 700c 0e3e 0dc5 3cbe e889 ec3c c915 85bd
00000390: 780c 183e 89b5 1cbe 6bb2 22bc 3af1 98bd
000003a0: 1f10 b2bc 5fc0 833d a783 05be c7f4 ba3c
000003b0: 6ca2 96bc 53b8 ddbd 4a2a aa3c e386 153e
000003c0: d818 bf3d 7ab4 9a3d 7667 95bd 0001 25be
000003d0: b484 ec3d a735 0c3d c5f2 6c3d d8e8 1b3e
000003e0: e748 76bd 27bf 52be c16c efbd 4019 38be
000003f0: beaf 163e d4e1 cf3d 7a6a a8bd 4425 cabc

bn1.weight f4 [400]
1.6159257 0.8063994 0.93316734 0.7781604 1.167374 1.082484 1.0012182 1.0214039
1.3388566 1.207623 1.0875711 1.0367513 1.0465567 0.67854893 1.4867866 0.8865804
1.780648 1.2693394 0.7411632 1.0200211 1.4046111 0.91184676 0.9126321 1.6027641
2.9259992 1.2106438 3.2171524 1.83358 0.93149483 0.9035964 1.7968174 1.0563179
1.2290905 1.4730439 1.2218909 1.317906 2.9555452 0.9127986 1.3621522 1.8509635
0.5335357 0.9777173 0.5310806 1.4833301 0.99588686 1.3524045 0.81518143 1.211544
0.98434 1.016254 0.9001579 2.0004346 1.2890104 0.9424703 1.070851 1.0106052
1.4140557 1.3552834 0.57861286 0.9066042 1.0776283 1.1037606 1.0088674 1.6359977
1.2840207 1.1857934 1.7195611 1.0431137 2.0173361 1.1234229 1.3823835 1.5437841
0.8580323 2.9915626 0.8734181 2.154903 0.8113588 0.9449482 0.9083543 1.820473
0.9873907 0.8522522 1.3745155 1.1417729 1.0014025 1.0015206 0.8484233 0.8369278
0.9099914 1.0613779 0.82065237 1.4074069 0.8492338 2.0746756 1.7433057 1.2123982
0.8067894 0.97668314 2.3063638 1.3293179 1.8490045 1.1890569 0.9962558 0.65807694
0.8932547 1.121152 1.5467817 1.3846834 0.8267382 1.1645985 1.8418945 1.4496454
1.083135 1.1891448 1.0321428 0.99233913 1.1903185 1.2902446 1.1064631 1.2489718
1.5195336 0.83931273 1.2113724 1.6533651 1.1367285 1.0845351 2.0081422 1.2877308
1.9720653 1.3275943 1.1859626 1.5436622 1.0865418 1.3374197 2.4713948 1.1933475
1.43577 1.1409177 1.2179192 1.0409355 1.3784907 1.2506047 1.7134193 1.3415754
0.8693497 0.9713583 1.8441364 1.1991284 1.3958937 0.93155813 1.3148289 0.6510175
1.2885425 0.9026095 1.0770037 0.78608304 0.9429612 1.0538087 1.2376239 0.6344657
1.8289247 1.4323813 1.0031465 1.96992 1.7991576 0.7532477 1.2912815 1.1557548
0.7346723 1.1590545 2.0737925 1.120939 1.6221751 1.2551467 0.93031794 1.261509
1.4702563 1.534264 1.2991663 1.1563128 1.0338305 1.2810432 1.5925204 0.96633387
1.78393 1.149349 1.0190961 1.101161 1.7127212 1.0263461 0.8813493 1.2373555
1.2241706 0.7636326 1.0157983 1.433618 0.9016646 1.076245 0.77570456 1.2157925
1.6761907 0.9797236 0.71533793 1.4038228 1.0872953 1.3397863 0.9170458 1.3453715
1.0446767 0.6931662 0.9594169 0.9850947 1.238505 0.8375036 0.72653294 0.8751381
1.3919913 1.0054376 1.5530813 1.3739474 0.9893655 1.3858129 0.8847543 0.79745764
0.9729331 1.2048585 0.9167086 1.1191467 0.94952744 1.1155415 0.5649927 0.63201237
1.0094998 1.4513481 0.76286805 1.0377457 1.6328156 1.9483926 0.81907976 1.1987175
0.89441305 3.424196 0.8137977 0.8984243 1.3650727 0.8734576 1.1213663 1.4664279
0.83420986 1.2463051 1.1111853 1.2628636 1.1111606 0.9134879 1.1190922 1.1420659
00000000: a7d6 ce3f 3170 4e3f 0ee4 6e3f 8535 473f
00000010: 836c 953f d68e 8a3f eb27 803f 5dbd 823f
00000020: a75f ab3f 6493 9a3f 8835 8b3f 44b4 843f
00000030: 92f5 853f 62b5 2d3f 064f be3f eff6 623f
00000040: 46ec e33f b779 a23f dfbc 3d3f 0d90 823f
00000050: 4cca b33f ca6e 693f 42a2 693f 6027 cd3f
00000060: 9243 3b40 60f6 9a3f d3e5 4d40 c0b2 ea3f
00000070: 7276 6e3f 1852 673f 1dfe e53f 6d35 873f
00000080: d652 9d3f b48c bc3f ec66 9c3f 25b1 a83f
00000090: a727 3d40 2bad 693f 015b ae3f 5fec ec3f
000000a0: cc95 083f ae4b 7a3f e6f4 073f c3dd bd3f
000000b0: 71f2 7e3f 971b ad3f bbaf 503f e013 9b3f
000000c0: b5fd 7b3f 9c14 823f c070 663f 1f07 0040
000000d0: 4bfe a43f bc45 713f a511 893f 835b 813f
000000e0: c7ff b43f ed79 ad3f f91f 143f 3617 683f
000000f0: b9ef 893f 0748 8d3f 9122 813f 5f68 d13f
00000100: ca5a a43f 14c8 973f 941a dc3f c084 853f
00000110: 091c 0140 52cc 8f3f f1f1 b03f b89a c53f
00000120: 01a8 5b3f c375 3f40 5498 5f3f eee9 0940
00000130: 36b5 4f3f 20e8 713f e889 683f 4205 e93f
00000140: a3c5 7c3f 332d 5a3f 20f0 af3f 9d25 923f
00000150: f52d 803f d431 803f 4532 593f e640 563f
00000160: 32f5 683f 3bdb 873f 4616 523f e925 b43f
00000170: 6367 593f 7cc7 0440 a424 df3f dd2f 9b3f
00000180: c089 4e3f e807 7a3f 779b 1340 1727 aa3f
00000190: 2eac ec3f 0433 983f 9f0a 7f3f bb77 283f
000001a0: 57ac 643f e981 8f3f f1fc c53f 4e3d b13f
000001b0: 1da5 533f 9011 953f 33c3 eb3f fb8d b93f
000001c0: 2ba4 8a3f e635 983f 411d 843f f009 7e3f
000001d0: 5b5c 983f bc26 a53f 95a0 8d3f 4fde 9f3f
000001e0: 1480 c23f 33dd 563f 400e 9b3f 78a1 d33f
000001f0: 5280 913f 0cd2 8a3f 6785 0040 5dd4 a43f
00000200: a36c fc3f 9cee a93f 9fcd 973f b996 c53f
00000210: cd13 8b3f 9230 ab3f 552b 1e40 9cbf 983f
00000220: 50c7 b73f 9709 923f c7e4 9b3f 603d 853f
00000230: 6272 b03f d113 a03f 5351 db3f beb8 ab3f
00000240: b48d 5e3f f0aa 783f a90c ec3f 0a7d 993f
00000250: a5ac b23f 987a 6e3f 504c a83f 15a9 263f
00000260: f6ee a43f 6b11 673f 42db 893f bd3c 493f
00000270: e865 713f 34e3 863f 766a 9e3f 586c 223f
00000280: 341a ea3f 4558 b73f 1b67 803f 5726 fc3f
00000290: cc4a e63f d7d4 403f b648 a53f c6ef 933f
000002a0: 7c13 3c3f e65b 943f 04b9 0440 ee7a 8f3f
000002b0: 6fa3 cf3f a6a8 a03f 5129 6e3f 2079 a13f
000002c0: 5c31 bc3f c362 c43f 154b a63f 0f02 943f
000002d0: 8f54 843f 39f9 a33f b5d7 cb3f a861 773f
000002e0: d157 e43f de1d 933f be71 823f d8f2 8c3f
000002f0: 733a db3f 4f5f 833f 1ca0 613f aa61 9e3f
00000300: 9fb1 9c3f 6d7d 433f ae05 823f cb80 b73f
00000310: 7ed3 663f 65c2 893f 9394 463f 179f 9b3f
00000320: 6b8d d63f 2acf 7a3f 6320 373f 77b0 b33f
00000330: 7e2c 8b3f 1e7e ab3f 83c3 6a3f 2235 ac3f
00000340: f7b7 853f 5773 313f 599c 753f 2b2f 7c3f
00000350: 5587 9e3f a366 563f 10fe 393f 0d09 603f
00000360: c52c b23f 2eb2 803f 5ecb c63f 82dd af3f
00000370: 0f47 7d3f 5162 b13f 427f 623f 2f26 4c3f
00000380: 2512 793f ce38 9a3f 6aad 6a3f 3340 8f3f
00000390: 3b14 733f 10ca 8e3f 5da3 103f 90cb 213f
000003a0: 4a37 813f c6c5 b93f 524b 433f dad4 843f
000003b0: 1a00 d13f ee64 f93f 36af 513f 936f 993f
000003c0: 41f8 643f 0726 5b40 0c55 503f 23ff 653f
000003d0: b4ba ae3f eb9a 5f3f ee88 8f3f e9b3 bb3f
000003e0: c78e 553f ed86 9f3f 523b 8e3f 84a5 a13f
000003f0: 833a 8e3f 58da 693f 6a3e 8f3f 372f 923f

bn1.bias f4 [400]
-0.5615817 -0.58841884 -0.6147178 -1.1833538 -0.81902117 -1.4366566 -1.1327994 -1.2802148
-1.4208784 -0.9711119 0.054099724 -0.5195255 -0.56185055 -0.30585444 -1.6076021 -0.58323056
-0.8950611 -0.62402964 -0.85857046 -1.1088742 -1.2584254 -0.9473868 -0.87211907 0.006197283
-1.8015864 -0.9569054 -0.77285963 -1.2249606 -1.0628421 -1.0910218 -1.0062382 -1.6873224
-1.1509318 -1.0619969 -0.76781183 -1.4111205 0.7900793 -0.06954308 -1.023012 -1.365029
-0.30705562 -0.52713317 0.056422856 -0.59574187 -1.2868222 -1.2022009 -0.5974749 -0.75309193
-0.7625792 -1.3453892 -0.7008414 -0.61467505 -1.5546514 -1.3101861 -0.50953776 -0.9337191
-1.3094556 -1.4976567 -0.3336344 -0.7466887 -0.42486548 -1.0740185 -1.2151304 -1.476832
-1.369913 -1.4257905 -1.4007231 -0.4049083 -0.573379 -1.0176141 -1.1570636 -1.6788931
-1.2917355 0.2655474 -0.8381781 0.2704797 -1.1046172 -1.1341151 -0.20720476 -2.1131408
-0.94404006 -0.9429717 -0.9786648 -0.6997221 -1.3612368 -0.6497968 -0.67488045 -0.64067817
-1.4607829 -0.22831361 -0.7989129 -1.6429281 -1.2752392 -1.4465474 -2.081851 -1.2307389
-0.24008363 -0.60058165 -1.3604453 -1.6207033 -0.79921514 -0.67315793 0.021972122 -0.48445636
-0.49587995 -1.375817 -0.71815956 -1.51331 -0.015916817 -1.2318634 -0.7855655 -1.4186962
-1.5347027 -1.1311411 0.3262382 -1.2383939 -1.5886523 -2.1062214 -1.6038634 -1.6474793
-1.2918983 -0.20721036 -0.9700292 -1.9954898 -0.9844051 -1.031105 -0.8963935 -1.7929103
-1.5343125 -0.6443498 -1.053285 -0.97354347 -1.47856 -1.2702069 0.31146201 -1.3821249
-1.4272852 -1.1326969 -0.47539148 -1.1044521 -1.1234578 -1.4245195 -0.61754215 -1.9062077
-0.47603968 -1.0241549 -1.6209332 -1.3259941 0.67216516 -0.80656004 -1.3282677 -0.4763954
-1.2618825 -0.11378584 -0.8306653 -0.86855966 -0.9851867 -1.3154472 -1.1147369 -0.78117627
0.27724048 -0.7724105 -1.0988328 -0.92159367 -0.66554356 -0.31396365 -1.3885634 -1.1821992
-0.96266276 -1.1163121 -0.7491601 -0.7177218 -1.1455293 -1.2630641 -1.0920333 -0.86962354
-0.51611376 -1.7810782 -1.2312574 -1.2850932 -1.4226557 -0.76384336 -1.8055819 -0.032100152
0.11580753 -1.3883941 -1.6500982 -0.7097986 -0.58758247 -0.25509444 -0.115809195 -0.859105
-0.9158838 0.05028168 -1.4870092 0.14415897 -1.0657496 -1.0808134 -0.6385043 -0.8163372
-2.0411713 -0.89258367 -0.079486094 -1.2744015 -0.23941465 -1.1252213 -0.9299709 -1.5264268
-1.1109046 -0.8022846 -1.2566074 -0.6248246 -0.51663756 -0.6325889 -0.53193635 -0.99883544
-1.0752212 -1.0113577 -0.43362722 -1.308821 -1.2703382 -1.2808048 -0.531839 -0.5477774
-0.8748417 -0.43512678 -0.67480403 -1.2557199 -0.34467113 -0.044826925 -0.5714224 -0.20515884
-1.3609123 0.47213975 -0.11604961 -1.4190828 -1.8443155 -0.109575674 -1.1820918 -0.5356752
-1.2647101 0.5545214 -0.34043294 -1.2244381 -1.4102727 -0.9974714 -1.2854844 -0.77484465
-1.080299 -1.0771471 -1.4803194 -1.6904238 -0.87069654 -1.2223392 -0.44797108 -1.6186187
00000000: d1c3 0fbf 9ea2 16bf 255e 1dbf 2378 97bf
00000010: 5fab 51bf 5de4 b7bf 92ff 90bf 14de a3bf
00000020: 58df b5bf ca9a 78bf ac97 5d3d a0ff 04bf
00000030: 70d5 0fbf f498 9cbe e8c5 cdbf 994e 15bf
00000040: b922 65bf 68c0 1fbf 46cb 5bbf 97ef 8dbf
00000050: 1514 a1bf f187 72bf 3243 5fbf 9412 cb3b
00000060: 629a e6bf c1f7 74bf 21da 45bf 82cb 9cbf
00000070: 360b 88bf 9aa6 8bbf 6acc 80bf 2efa d7bf
00000080: bc51 93bf 84ef 87bf 518f 44bf 999f b4bf
00000090: a342 4a3f 9a6c 8ebd 0ff2 82bf 45b9 aebf
000000a0: 6536 9dbe 33f2 06bf a71b 673d 8a82 18bf
000000b0: 97b6 a4bf b8e1 99bf 1df4 18bf a2ca 40bf
000000c0: 6438 43bf b735 acbf 586a 33bf 585b 1dbf
000000d0: d1fe c6bf 2eb4 a7bf 1171 02bf 3708 6fbf
000000e0: 3e9c a7bf 37b3 bfbf 21d2 aabe fe26 3fbf
000000f0: f887 d9be 7079 89bf 6589 9bbf d508 bdbf
00000100: 4f59 afbf 4e80 b6bf e54a b3bf 2450 cfbe
00000110: f7c8 12bf 2e41 82bf a91a 94bf f8e5 d6bf
00000120: 9757 a5bf d4f5 873e d792 56bf 517c 8a3e
00000130: 1964 8dbf af2a 91bf 7c2d 54be b33d 07c0
00000140: 9cac 71bf 9866 71bf c789 7abf fd20 33bf
00000150: 023d aebf 1559 26bf f7c4 2cbf 7c03 24bf
00000160: effa babf 0bcb 69be 8e85 4cbf 784b d2bf
00000170: 0a3b a3bf 7728 b9bf 0c3d 05c0 da88 9dbf
00000180: 7cd8 75be b8bf 19bf 1223 aebf 3573 cfbf
00000190: 5d99 4cbf 1454 2cbf e1fe b33c aa0a f8be
000001a0: fae3 fdbe c51a b0bf 4ed9 37bf 24b4 c1bf
000001b0: fc63 82bc b3ad 9dbf d21a 49bf d697 b5bf
000001c0: 2371 c4bf 3bc9 90bf b108 a73e b183 9ebf
000001d0: f558 cbbf 55cc 06c0 654b cdbf 9ae0 d2bf
000001e0: ec5c a5bf f42e 54be d553 78bf 366c ffbf
000001f0: f901 7cbf 40fb 83bf 0b7a 65bf 167e e5bf
00000200: 5a64 c4bf 1cf4 24bf 0bd2 86bf 253a 79bf
00000210: 7441 bdbf 2496 a2bf f377 9f3e 78e9 b0bf
00000220: 48b1 b6bf 36fc 90bf 8366 f3be b05e 8dbf
00000230: 77cd 8fbf a856 b6bf 3e17 1ebf 9dfe f3bf
00000240: 79bb f3be 8217 83bf bd7a cfbf 2dba a9bf
00000250: 0413 2c3f b87a 4ebf ad04 aabf 19ea f3be
00000260: 5e85 a1bf 8d08 e9bd 7ba6 54bf ed59 5ebf
00000270: 3235 7cbf 9360 a8bf b3af 8ebf 2bfb 47bf
00000280: 77f2 8d3e b2bc 45bf 8ea6 8cbf 90ed 6bbf
00000290: 1061 2abf d8bf a0be 72bc b1bf 4e52 97bf
000002a0: 1171 76bf 51e3 8ebf f5c8 3fbf 9ebc 37bf
000002b0: b4a0 92bf 16ac a1bf bfc7 8bbf a69f 5ebf
000002c0: 0820 04bf 5ffa e3bf d899 9dbf ef7d a4bf
000002d0: 9519 b6bf 3d8b 43bf 4f1d e7bf 737b 03bd
000002e0: 802c ed3d e6b6 b1bf 6b36 d3bf 5cb5 35bf
000002f0: ce6b 16bf bd9b 82be 5f2d edbd 4eee 5bbf
00000300: 5c77 6abf 2af4 4d3d 5156 bebf 699e 133e
00000310: 7c6a 88bf 1858 8abf 0575 23bf 7afb 50bf
00000320: 8da2 02c0 5d80 64bf 9bc9 a2bd 971f a3bf
00000330: 1d29 75be 4007 90bf 9312 6ebf f461 c3bf
00000340: 1f32 8ebf 8662 4dbf 83d8 a0bf 81f4 1fbf
00000350: 5c42 04bf 59f1 21bf fb2c 08bf aeb3 7fbf
00000360: d9a0 89bf 2b74 81bf 6304 debe 7287 a7bf
00000370: 719a a2bf 69f1 a3bf 9a26 08bf 243b 0cbf
00000380: a0f5 5fbf f0c8 debe f5bf 2cbf 6ebb a0bf
00000390: bc78 b0be 709c 37bd bd48 12bf 2915 52be
000003a0: 6032 aebf 4dbc f13e 6bab edbd 81a4 b5bf
000003b0: 8812 ecbf 3669 e0bd c94e 97bf 0322 09bf
000003c0: 05e2 a1bf 1df5 0d3f 3a4d aebe 63ba 9cbf
000003d0: d183 b4bf 495a 7fbf c18a a4bf 385c 46bf
000003e0: 3d47 8abf f5df 89bf 1b7b bdbf cf5f d8bf
000003f0: f8e5 5ebf 9c75 9cbf 775c e5be e62e cfbf

bn1.running_mean f4 [400]
61.46743 7.0959954 -62.498062 -44.05162 86.238075 -36.16836 48.07035 -57.318882
-44.65344 14.293954 -39.276844 0.9232694 83.39386 29.095915 59.42524 24.355825
8.283443 -33.764664 -15.698988 19.613316 30.700945 -38.002422 -29.036741 28.373686
36.0655 23.605679 4.240258 6.183577 -17.286377 0.7779563 42.716133 6.8920197
-18.920542 10.490169 -42.136177 42.768143 8.792637 -22.85158 54.073357 12.003459
29.610134 -2.6362014 -66.548904 14.798066 -59.571495 12.223734 -40.46541 62.391663
36.272926 -10.946464 -10.732606 42.39039 6.9050274 -30.322493 -8.036667 44.51704
50.461823 34.693584 46.05274 12.300533 -12.803179 30.872805 -5.9896975 -7.2841854
-33.27769 11.211402 38.542633 -10.288526 10.496888 -1.6249022 17.019503 35.279755
32.340923 1.9578574 -13.420841 26.280983 -6.4845004 -33.62841 58.57421 -17.004673
-35.946323 -37.222572 12.578816 19.768362 -52.961075 -42.91537 28.56515 26.48573
-60.578594 51.358456 -35.760334 3.2907186 32.77984 48.634396 22.163668 -34.67224
-88.25192 -46.38447 7.698681 -53.297386 28.290876 35.411564 14.154584 -14.497897
-25.995962 -19.649242 -2.2704082 18.174519 1.840986 -0.7620563 11.158384 12.959599
-17.176088 19.825537 52.25605 -50.52878 -43.050068 -76.00502 -27.22898 11.37007
14.065092 21.41398 50.383877 24.373186 -16.306059 -9.60076 1.8184882 -26.344053
-1.883638 9.364265 -13.062598 -15.99206 -24.76326 36.833298 11.731768 56.30437
29.839384 17.0263 -29.36656 34.429955 -3.3612633 17.210108 45.303204 -53.06312
50.757267 -22.273298 19.226961 34.943783 40.99204 -10.638504 60.838337 -50.102882
-22.937466 -43.908882 -5.0990295 3.2471821 -36.785904 -47.577415 21.504986 -11.371572
0.73995596 38.243732 -43.570683 15.205703 21.22008 7.447617 12.881303 34.225285
33.501297 52.52769 23.561646 6.869845 -1.0496975 26.895884 -2.8785665 7.976224
30.872408 11.409481 -24.714104 -25.128633 -52.529564 -50.40375 -60.981556 -30.588476
40.211735 28.234484 -63.511456 -47.310146 -2.888241 -36.8983 33.41517 0.6579017
5.4930053 -4.135592 2.4483838 -16.556465 -49.83365 -10.837974 17.701412 -60.141003
52.52592 -37.95107 -19.238054 -8.96145 -48.391098 54.588352 37.291027 40.420628
16.938087 38.93791 -82.891106 91.87799 4.1027875 -18.812197 44.506638 25.659584
83.97763 39.72655 35.169216 -37.758636 1.5363432 33.34185 -33.17547 -47.35265
-21.488419 48.818905 -6.0523906 -12.241562 10.133095 -35.179333 -58.88224 3.199139
-32.28385 27.49377 -9.348051 43.34353 17.7501 25.801546 -45.5006 35.355724
-46.473866 -2.4935691 47.84929 -16.283106 8.211981 8.805446 2.5397806 65.889114
-31.456076 5.021359 -28.272814 -13.25493 -8.989056 26.495596 -34.72393 -19.782326
00000000: a6de 7542 6512 e340 04fe 79c2 dc34 30c2
00000010: e579 ac42 67ac 10c2 0a48 4042 8946 65c2
00000020: 1f9d 32c2 09b4 6441 7d1b 1dc2 625b 6c3f
00000030: a8c9 a642 6fc4 e841 72b3 6d42 bbd8 c241
00000040: fc88 0441 040f 07c2 0e2f 7bc1 12e8 9c41
00000050: 899b f541 7b02 18c2 3f4b e8c1 4ffd e241
00000060: 1243 1042 6ed8 bc41 32b0 8740 dddf c540
00000070: 804a 8ac1 2528 473f 52dd 2a42 6d8b dc40
00000080: 455d 97c1 bbd7 2741 728b 28c2 9412 2b42
00000090: a4ae 0c41 09d0 b6c1 1e4b 5842 2b0e 4041
000000a0: 8ee1 ec41 86b7 28c0 0a19 85c2 e1c4 6c41
000000b0: 3649 6ec2 6a94 4341 94dc 21c2 1091 7942
000000c0: 7a17 1142 b724 2fc1 c1b8 2bc1 c28f 2942
000000d0: fcf5 dc40 7794 f2c1 3096 00c1 7311 3242
000000e0: e8d8 4942 3bc6 0a42 0136 3842 fcce 4441
000000f0: d2d9 4cc1 81fb f641 9aab bfc0 0c18 e9c0
00000100: 5b1c 05c2 e761 3341 a82b 1a42 cd9d 24c1
00000110: 41f3 2741 ccfc cfbf f127 8841 781e 0d42
00000120: 1b5d 0142 129b fa3f c4bb 56c1 743f d241
00000130: 0781 cfc0 7e83 06c2 fe4b 6a42 9209 88c1
00000140: 09c9 0fc2 eae3 14c2 d542 4941 9b25 9e41
00000150: 24d8 53c2 57a9 2bc2 6d85 e441 c6e2 d341
00000160: 7b50 72c2 0f6f 4d42 950a 0fc2 229b 5240
00000170: 8e1e 0342 9f89 4242 314f b141 60b0 0ac2
00000180: fc80 b0c2 b389 39c2 985b f640 8630 55c2
00000190: b753 e241 71a5 0d42 2d79 6241 63f7 67c1
000001a0: bbf7 cfc1 a631 9dc1 5e4e 11c0 6a65 9141
000001b0: 6ea5 eb3f 1f16 43bf be88 3241 845a 4f41
000001c0: a168 89c1 b39a 9e41 3206 5142 791d 4ac2
000001d0: 4533 2cc2 9202 98c2 f3d4 d9c1 cfeb 3541
000001e0: 9e0a 6141 d54f ab41 1789 4942 49fc c241
000001f0: cf72 82c1 b79c 19c1 39c4 e83f 9fc0 d2c1
00000200: 0d1b f1bf 08d4 1541 6700 51c1 7adf 7fc1
00000210: 281b c6c1 4c55 1342 52b5 3b41 ad37 6142
00000220: 0fb7 ee41 dd35 8841 b7ee eac1 46b8 0942
00000230: f01e 57c0 4dae 8941 7b36 3542 a340 54c2
00000240: 7107 4b42 b72f b2c1 d1d0 9941 6fc6 0b42
00000250: d9f7 2342 5037 2ac1 755a 7342 5a69 48c2
00000260: ee7f b7c1 b2a2 2fc2 402b a3c0 d5d1 4f40
00000270: c424 13c2 464f 3ec2 360a ac41 f5f1 35c1
00000280: c16d 3d3f 95f9 1842 6148 2ec2 8f4a 7341
00000290: b9c2 a941 e152 ee40 d119 4e41 b1e6 0842
000002a0: 5401 0642 5b1c 5242 407e bc41 c5d5 db40
000002b0: 7d5c 86bf c52a d741 6f3a 38c0 3a3d ff40
000002c0: b1fa f641 3c8d 3641 7cb6 c5c1 7107 c9c1
000002d0: 461e 52c2 719d 49c2 1ded 73c2 33b5 f4c1
000002e0: d1d8 2042 39e0 e141 bb0b 7ec2 973d 3dc2
000002f0: f1d8 38c0 dc97 13c2 22a9 0542 3f6c 283f
00000300: b3c6 af40 c556 84c0 52b2 1c40 a473 84c1
00000310: a855 47c2 5768 2dc1 7e9c 8d41 6390 70c2
00000320: 8b1a 5242 e5cd 17c2 89e7 99c1 1962 0fc1
00000330: 7c90 41c2 795a 5a42 032a 1542 b9ae 2142
00000340: 3481 8741 6bc0 1b42 3fc8 a5c2 88c1 b742
00000350: 094a 8340 617f 96c1 cc06 3242 d446 cd41
00000360: 8cf4 a742 fde7 1e42 47ad 0c42 d808 17c2
00000370: e5a6 c43f 0e5e 0542 aeb3 04c2 1d69 3dc2
00000380: 48e8 abc1 8f46 4342 2fad c1c0 70dd 43c1
00000390: 2821 2241 a3b7 0cc2 6a87 6bc2 b2be 4c40
000003a0: aa22 01c2 3ef3 db41 9e91 15c1 c65f 2d42
000003b0: 3400 8e41 9169 ce41 9d00 36c2 436c 0d42
000003c0: 3de5 39c2 a396 1fc0 ac65 3f42 cd43 82c1
000003d0: 4664 0341 1be3 0c41 c48b 2240 3ac7 8342
000003e0: 0ba6 fbc1 f9ae a040 b92e e2c1 3114 54c1
000003f0: 2cd3 0fc1 fbf6 d341 4ee5 0ac2 3442 9ec1

bn1.running_var f4 [400]
571.92126 3906.2556 1885.1957 1723.7745 1637.7408 888.51373 4465.8677 1038.7706
1871.7094 680.96954 531.65857 1450.3385 1087.708 6109.279 719.1333 273.77457
680.6346 1282.8292 974.41174 1229.6807 2147.04 637.167 838.59784 254.65688
714.7965 768.50415 136.87094 1095.81 2221.7605 1711.2544 379.30402 2064.4575
1162.4711 644.6013 1371.5105 1331.5938 178.89108 6832.7627 1593.9543 214.1823
1735.753 1569.9827 2631.0513 432.3291 1535.9957 867.7583 1195.3037 851.60583
520.2232 1093.3154 4309.3438 469.59973 3096.2664 1502.3828 888.9808 990.37976
879.9722 1249.0038 1693.1349 2596.1777 775.39856 2244.8384 3470.38 1490.8479
767.4604 1839.7318 1320.8993 1223.3601 207.07011 706.1964 244.30667 765.6178
1099.4675 65.49551 598.2975 536.96796 825.93384 2884.1318 865.7316 3402.5671
1968.4557 2236.1436 227.54875 1598.7013 3476.793 1296.377 2045.515 2423.009
897.8689 754.66547 442.26315 998.47424 1158.837 728.9913 1745.3027 248.88182
1142.0431 960.28827 165.73851 1334.2013 385.9384 1267.838 1601.5742 4386.8726
657.17053 1400.659 54.055645 153.52058 111.2423 1967.2328 338.2863 985.8532
631.95 613.9812 591.25 2733.307 2920.895 1957.221 2948.8352 1639.1555
772.178 1219.2618 1872.6494 990.65015 980.0226 1821.9279 343.33908 1329.1865
903.47375 706.8167 3343.4092 1061.9508 1391.9001 849.39954 441.2818 1979.7003
604.5502 516.894 1353.8762 2033.6699 1501.1737 661.66345 371.64807 813.5132
1680.7783 2224.9495 585.4277 1214.5588 346.7149 1564.4768 2089.0798 1389.791
1797.7494 1399.2218 3903.2646 1448.0592 1342.3423 947.1854 1391.3823 1786.5228
39.412933 959.87775 1562.866 154.08961 640.23755 1274.0212 4476.8877 1133.0651
1624.082 924.7427 121.895546 966.79846 1061.6371 1111.5809 1297.3511 917.10144
263.903 769.12787 933.16693 1910.3113 1418.0026 822.67664 1215.2073 1033.7343
438.64246 1218.5923 604.3723 1216.9944 673.19116 879.89465 799.0544 1545.5294
726.0944 1638.2485 1469.9276 423.41476 889.26196 1270.0757 786.2055 978.32587
879.51215 1995.6556 3279.5715 723.57587 1380.3347 1516.6361 1538.8668 3873.359
1168.4326 1276.0459 958.3905 1753.5815 85.266685 523.94354 1079.3882 2603.5337
1242.2368 2251.518 649.6821 1530.4352 2142.618 830.9809 1293.173 3803.9294
702.43976 1789.5282 2179.6482 1897.2275 3505.8252 738.48755 2281.4246 3325.1382
1168.4178 693.3831 3762.359 4917.3403 802.0431 583.9027 1658.6688 957.1366
932.9508 41.994175 983.50977 819.5395 2156.3594 3738.0444 573.804 583.0794
1331.7305 718.08 3065.1904 2742.6787 3676.3494 1265.5039 954.5398 1152.0273
00000000: f6fa 0e44 1724 7445 43a6 eb44 c978 d744
00000010: b5b7 cc44 e120 5e44 f18e 8b45 a9d8 8144
00000020: b3f6 e944 0d3e 2a44 26ea 0444 d54a b544
00000030: a8f6 8744 3bea be45 88c8 3344 25e3 8843
00000040: 9d28 2a44 895a a044 5a9a 7344 c8b5 9944
00000050: a430 0645 b04a 1f44 43a6 5144 29a8 7e43
00000060: fab2 3244 4420 4044 f6de 0843 ecf9 8844
00000070: 2bdc 0a45 24e8 d544 eaa6 bd43 5207 0145
00000080: 134f 9144 7c26 2144 5670 ab44 0073 a644
00000090: 1ee4 3243 1a86 d545 8a3e c744 ab2e 5643
000000a0: 19f8 d844 723f c444 d270 2445 202a d843
000000b0: ddff bf44 88f0 5844 b869 9544 c6e6 5444
000000c0: 490e 0244 18aa 8844 c0aa 8645 c4cc ea43
000000d0: 4384 4145 40cc bb44 c53e 5e44 4e98 7744
000000e0: 39fe 5b44 1f20 9c44 51a4 d344 d842 2245
000000f0: 82d9 4144 6a4d 0c45 14e6 5845 225b ba44
00000100: 77dd 3f44 6bf7 e544 c71c a544 86eb 9844
00000110: f311 4f43 928c 3044 824e 7443 8a67 3f44
00000120: f66e 8944 b3fd 8242 0a93 1544 f33d 0644
00000130: c47b 4e44 1c42 3445 d36e 5844 13a9 5445
00000140: 950e f644 4cc2 0b45 7b8c 6343 71d6 c744
00000150: b04c 5945 100c a244 7bb0 ff44 2570 1745
00000160: 9c77 6044 97aa 3c44 af21 dd43 5a9e 7944
00000170: c9da 9044 713f 3644 b029 da44 bfe1 7843
00000180: 61c1 8e44 7312 7044 0fbd 2543 71c6 a644
00000190: 1df8 c043 d17a 9e44 6032 c844 fb16 8945
000001a0: ea4a 2444 1715 af44 fb38 5842 4585 1943
000001b0: 0f7c de42 73e7 f544 a524 a943 9b76 7644
000001c0: cdfc 1d44 cc7e 1944 00d0 1344 e9d4 2a45
000001d0: 528e 3645 12a7 f444 5d4d 3845 fae4 cc44
000001e0: 640b 4144 6168 9844 c814 ea44 9ca9 7744
000001f0: 7201 7544 b1bd e344 67ab ab43 f825 a644
00000200: 52de 6144 45b4 3044 8cf6 5045 6dbe 8444
00000210: cefc ad44 9259 5444 12a4 dc43 6976 f744
00000220: 3623 1744 3739 0144 0a3c a944 7035 fe44
00000230: 8fa5 bb44 766a 2544 f4d2 b943 d860 4b44
00000240: e818 d244 310f 0b45 5f5b 1244 e2d1 9744
00000250: 825b ad43 428f c344 4791 0245 50b9 ad44
00000260: fbb7 e044 19e7 ae44 3cf4 7345 e501 b544
00000270: f4ca a744 decb 6c44 3cec ad44 bb50 df44
00000280: d8a6 1d42 2df8 6f44 b65b c344 f116 1a43
00000290: 340f 2044 ae40 9f44 1ae7 8b45 15a2 8d44
000002a0: a002 cb44 882f 6744 85ca f342 1ab3 7144
000002b0: 63b4 8444 97f2 8a44 3c2b a244 7e46 6544
000002c0: 96f3 8343 2f48 4044 af4a 6944 f6c9 ee44
000002d0: 1540 b144 4eab 4d44 a2e6 9744 7f37 8144
000002e0: 3c52 db43 f452 9844 d417 1744 d21f 9844
000002f0: 3c4c 2844 42f9 5b44 7bc3 4744 f130 c144
00000300: 0b86 3544 f4c7 cc44 afbd b744 17b5 d343
00000310: c450 5e44 6cc2 9e44 278d 4444 db94 7444
00000320: c7e0 5b44 fb74 f944 25f9 4c45 dbe4 3444
00000330: b68a ac44 5b94 bd44 bd5b c044 be15 7245
00000340: d80d 9244 7881 9f44 fe98 6f44 9c32 db44
00000350: 8b88 aa42 63fc 0244 6cec 8644 8ab8 2245
00000360: 9447 9b44 4ab8 0c45 a86b 2244 ed4d bf44
00000370: e3e9 0545 c7be 4f44 89a5 a144 dfbe 6d45
00000380: 259c 2f44 e7b0 df44 5f3a 0845 4827 ed44
00000390: 341d 5b45 349f 3844 cb96 0e45 36d2 4f45
000003a0: 5f0d 9244 8558 2d44 be25 6b45 b9aa 9945
000003b0: c282 4844 c6f9 1144 6755 cf44 be48 6f44
000003c0: da3c 6944 09fa 2742 a0e0 7544 87e2 4c44
000003d0: c0c5 0645 b6a0 6945 7573 0f44 15c5 1144
000003e0: 6077 a644 1f85 3344 0c93 3f45 dc6a 2b45
000003f0: 97c5 6545 2030 9e44 8ca2 6e44 e000 9044

fc2.weight f4 [300, 400]
-0.84536976 0.36564755 -1.0135396 1.2537326 -0.46414924 -1.4455659 0.5789613 -2.4537144
0.27870095 1.6726224 -1.4093419 -0.31896904 -2.1423132 0.79012114 -1.5829744 -1.6394308
-0.35665172 -1.5842441 0.7947021 -0.0824493 0.5854308 1.2569367 0.954436 -1.1021963
-0.86359376 -1.2151134 -1.162535 1.5915214 0.6076322 -0.425432 0.19373071 -0.36267534
-0.22675501 0.54893893 -0.5458401 1.241854 -0.22589114 -1.1867449 -1.5084101 0.3799131
-0.28607115 0.2535251 -0.34219545 -1.2301996 -0.369653 0.88668054 0.55559987 0.55000275
-0.6474743 -1.2054421 -2.5257967 0.5443346 -1.0963125 -0.788093 1.667738 1.0061574
-0.4783926 -2.5610955 0.28278285 0.46980405 -0.15650891 -0.18648757 -1.9609272 -0.94193006
1.4762174 -1.6852387 -1.3014394 0.10218772 0.29383844 -1.472841 -0.6207756 -1.7597619
-1.5636972 -1.9843948 -1.1666249 -1.0655849 0.3500335 -0.37333664 -1.3855517 -0.51130766
-2.4826667 -1.3141824 -1.0028151 0.15613504 2.5495584 -1.6952353 1.7101024 -1.5299581
-1.1735002 -2.3740015 -2.2216437 -2.015652 -1.331809 -1.0280025 0.4165256 1.53204
-0.4595419 0.42028072 0.7073629 0.09932343 -2.040096 1.805818 -0.42621022 -0.6035458
0.80838716 0.2587483 -0.5964828 -2.0150576 -0.06498788 1.1453356 -0.8693206 0.47484198
-3.3694813 -3.4689176 0.58852756 -0.8311242 0.1342039 -2.0162308 -0.6915885 -1.0381334
0.2593835 -0.32657337 -1.1397686 0.7339972 -0.6317032 -1.3994265 -1.6341097 0.28176445
1.3711708 0.68248945 -0.2978731 -0.6634984 1.5378956 -0.937639 0.0046132244 -0.7077915
-0.4252616 -1.5420859 0.36914513 -0.90260804 1.6110119 1.3171113 -1.5596135 -3.6299992
-0.5890435 0.50492066 -1.2310269 -0.2920256 -1.1577817 -1.4752387 -1.2663646 0.059509773
-3.2111611 0.39015305 -0.22971505 -0.3145425 1.5931528 -0.7558899 2.4109662 0.12348596
-1.9334236 0.9209793 -0.88007396 0.9623195 -0.28179145 0.01046035 -0.0502693 0.04912568
1.0570706 0.693438 -0.091454774 -0.33019707 -1.9066885 1.3164757 0.8035731 -0.15272546
1.0099323 -0.17845513 0.2789168 3.044669 -0.5589207 -0.20804328 -2.7228112 -0.8541578
-1.221541 -0.16352995 -1.673565 -0.8922824 1.5118054 0.07474553 0.06609881 -0.94103426
-1.7392739 -0.68886906 -1.8699788 0.6404767 0.82487863 0.31077862 0.82828474 1.1255926
0.7744275 -1.9736518 -1.53994 -0.43433574 -1.9418775 0.6349316 -1.4279163 0.1962182
-1.4844916 -3.2348905 0.07785568 0.89893436 1.3820741 -2.7290351 -1.3666015 -0.7675952
-1.305294 -1.2216498 -0.23085283 -1.3316134 1.0240973 0.81796366 -0.41900146 0.41885024
-4.7309885 -0.025820214 -2.7744255 -0.29007238 -0.04831229 0.86901945 -0.5340112 0.33085158
-4.5194783 0.71769536 -0.7719981 -0.038087472 -0.5437324 -0.32719123 1.2789415 -0.5620281
-1.2221575 -1.2485573 0.15672807 0.18045959 -1.5526993 -0.43534702 -0.48407662 0.63113654
-2.5833395 -0.39327326 -3.1678112 -1.3075314 -2.1238542 -0.36453852 0.19499119 0.9962006
00000000: 276a 58bf 2836 bb3e aabb 81bf 4f7a a03f
00000010: f8a4 edbe 4e08 b9bf cf36 143f a809 1dc0
00000020: e4b1 8e3e 7e18 d63f 5165 b4bf e94f a3be
00000030: a91b 09c0 6145 4a3f e89e cabf ded8 d1bf
00000040: 0e9b b6be 83c8 cabf 9971 4b3f 2edb a8bd
00000050: cbde 153f 4de3 a03f eb55 743f c514 8dbf
00000060: 7b14 5dbf d688 9bbf f2cd 94bf f9b6 cb3f
00000070: c98d 1b3f 39d2 d9be 5861 463e 95b0 b9be
00000080: 7732 68be 4387 0c3f 2dbc 0bbf 12f5 9e3f
00000090: 0250 67be 42e7 97bf 9513 c1bf f883 c23e
000000a0: eb77 92be 0bce 813e 3e34 afbe 2e77 9dbf
000000b0: 2843 bdbe 7ffd 623f cb3b 0e3f fbcc 0c3f
000000c0: e0c0 25bf ed4b 9abf a7a6 21c0 8359 0b3f
000000d0: f853 8cbf 76c0 49bf 7078 d53f c4c9 803f
000000e0: e0ef f4be fde8 23c0 eac8 903e 288a f03e
000000f0: df43 20be 99f6 3ebe aaff fabf 5422 71bf
00000100: b1f4 bc3f e7b5 d7bf 9195 a6bf cc47 d13d
00000110: fe71 963e 0e86 bcbf 26eb 1ebf e13f e1bf
00000120: 3b27 c8bf a600 febf f753 95bf 1665 88bf
00000130: 9737 b33e fb25 bfbe c259 b1bf 0fe5 02bf
00000140: 03e4 1ec0 2137 a8bf 3f5c 80bf dde1 1f3e
00000150: f72b 2340 78fd d8bf a3e4 da3f abd5 c3bf
00000160: 4135 96bf a4ef 17c0 692f 0ec0 7100 01c0
00000170: b878 aabf 9695 83bf d842 d53e e319 c43f
00000180: 1349 ebbe 092f d73e bc15 353f 156a cb3d
00000190: ef90 02c0 0b25 e73f 3a38 dabe fa81 1abf
000001a0: 76f2 4e3f a87a 843e 19b3 18bf b4f6 00c0
000001b0: 5e18 85bd 5b9a 923f cb8b 5ebf 7d1e f33e
000001c0: 95a5 57c0 bf02 5ec0 bea9 163f 8ec4 54bf
000001d0: bf6c 093e ed09 01c0 f20b 31bf 8ee1 84bf
000001e0: eacd 843e a034 a7be f0e3 91bf 3ee7 3b3f
000001f0: 4db7 21bf 6820 b3bf 822a d1bf 6e43 903e
00000200: 8682 af3f a1b7 2e3f d382 98be 08db 29bf
00000210: c3d9 c43f 1c09 70bf 882a 973b d331 35bf
00000220: e3bb d9be 1263 c5bf 9700 bd3e 5211 67bf
00000230: a335 ce3f 1a97 a83f 6aa1 c7bf e851 68c0
00000240: 8ecb 16bf 7b42 013f 4a92 9dbf 6184 95be
00000250: 3132 94bf 9fd4 bcbf 3c18 a2bf 85c0 733d
00000260: aa83 4dc0 24c2 c73e 6c3a 6bbe b70b a1be
00000270: 6eec cb3f 0082 41bf 454d 1a40 35e6 fc3d
00000280: 6d7a f7bf 4dc5 6b3f 874c 61bf 925a 763f
00000290: f846 90be e361 2b3c 2ee7 4dbd 0238 493d
000002a0: 174e 873f 2785 313f a44c bbbd 970f a9be
000002b0: 5e0e f4bf 4782 a83f f7b6 4d3f 1064 1cbe
000002c0: 7645 813f f1bc 36be 2fce 8e3e dbdb 4240
000002d0: 6d15 0fbf 4c09 55be 8a42 2ec0 16aa 5abf
000002e0: 755b 9cbf 6574 27be 6137 d6bf 9f6c 64bf
000002f0: d782 c13f 2f14 993d d05e 873d 9fe7 70bf
00000300: 87a0 debf b959 30bf 775b efbf 48f6 233f
00000310: 3f2b 533f 601e 9f3e 780a 543f 6b13 903f
00000320: e140 463f 9fa0 fcbf c11c c5bf 4161 debe
00000330: 718f f8bf e18a 223f f6c5 b6bf 6ced 483e
00000340: d203 bebf 7208 4fc0 cc72 9f3d 9020 663f
00000350: cee7 b03f 83a8 2ec0 ccec aebf 1e81 44bf
00000360: e013 a7bf 055f 9cbf af64 6cbe 4f72 aabf
00000370: 9f15 833f 1166 513f 5c87 d6be 8a73 d63e
00000380: 4264 97c0 ea84 d3bc 3090 31c0 5e84 94be
00000390: 1ce3 45bd 0f78 5e3f f5b4 08bf 6165 a93e
000003a0: 919f 90c0 e2ba 373f aba1 45bf 9c01 1cbd
000003b0: 0c32 0bbf 9c85 a7be 5bb4 a33f 13e1 0fbf
000003c0: a86f 9cbf bad0 9fbf 537d 203e 66ca 383e
000003d0: dabe c6bf cee5 debe e4d8 f7be 2a92 213f
000003e0: 6f55 25c0 1d5b c9be 6bbd 4ac0 305d a7bf
000003f0: 3aed 07c0 cba4 babe c5ab 473e 0107 7f3f

fc2.bias f4 [300]
-1.2706815 -0.041616313 -0.19773987 -0.09539635 -0.25298983 -0.18776505 -0.1579416 -0.1934525
-0.09589179 -0.14771786 -0.13541363 -0.16755126 -0.098556116 -0.7358895 -0.6854758 -0.13935116
-0.069214724 -2.0034711 -0.22718793 -1.5690476 -0.07685757 -0.09543754 -0.13861142 -0.12702538
-0.0729281 -0.047625992 -0.08325235 -0.09617412 -0.12525992 -0.28770185 -0.09399104 -1.903061
-0.40407866 -0.06818089 -0.096076034 -0.1549352 -0.17621294 0.1676448 -0.15214348 -1.0710801
-0.13066721 -0.2528667 0.11927751 -0.42324853 -0.09399791 -0.09890133 -0.11691538 -1.0100348
-0.06641096 -0.18594007 -0.095140524 0.13454345 -0.06115369 -0.13026047 0.7293649 -0.339989
-0.07102364 -0.15467791 -0.11689737 -0.090225294 -0.06119666 -0.08199685 -0.10698535 -0.112512104
-0.09017411 -0.07357373 0.47702646 -0.09156448 -0.04567803 -0.06355253 -0.14429843 -0.21127401
-0.92709506 -0.07674268 -0.078296155 -0.052503806 -0.076834634 -0.18730779 -0.09504099 -0.120228596
-0.07550701 0.13852525 -0.20456025 -0.101575956 -0.10986517 -0.08941927 -0.11568505 -0.11389021
-0.10891316 -0.08869949 -0.06589704 -0.07807807 -0.13572885 -0.116846226 -0.04289302 -0.09098839
-1.1546791 -0.11203314 -0.13694654 -0.09687845 0.61768436 -0.12668222 -1.8081347 -0.10634244
-1.781402 -0.06562515 -0.11263186 -1.8453447 -1.0639726 -0.09888061 -0.09309118 -0.07327899
-0.040079076 -0.8475062 -0.13434358 0.3837207 -1.1595085 -0.1236486 -0.10413037 -0.09538489
-0.09255757 0.0032009175 -0.6962088 -0.3408353 -0.12656632 -1.3423108 -0.10028238 -0.99948525
-0.173481 -0.048466906 -0.0955052 -0.11089508 0.116788454 -0.11415837 0.16899699 -0.027451765
0.493779 -0.17326923 -0.21574052 -0.565371 -0.14782879 -0.66611433 -0.16959172 -0.17055698
-0.10761738 -0.91480607 -1.521241 -0.08873169 -0.064417005 -0.72354066 -0.18447731 -0.061943058
-0.111496076 -0.19373964 -0.17539223 -0.5312335 -0.11747588 -0.06318653 -1.6588583 0.011151181
-1.7655221 -0.7490289 -0.18830475 -0.089484155 -1.0053478 -0.6214704 -0.10461042 -0.13077296
0.026094992 -0.07329026 -0.07997426 -0.66136223 -0.21839742 -1.1798885 -0.1535944 -1.2216592
-0.0863162 -0.122252755 -1.3872741 -0.14304644 -0.14763442 -0.08581858 -0.122735806 -0.6249409
-0.06549718 -0.05734711 -0.14334577 -0.16323765 -1.048496 -0.10191403 -0.15972131 -0.05643326
-0.06510044 -0.19380665 -0.10454058 -0.073469095 -0.7822485 -0.2401036 -0.08616343 -0.03865605
-0.09627103 -0.15868556 -0.081771016 -0.30776793 -1.1344129 -0.07279214 -0.10079126 -0.86694676
-0.077722184 -0.13189282 -0.07284095 -0.7287894 -0.06350213 0.7379691 -0.5734742 -0.5087392
-1.1089818 -1.55172 -0.1503426 0.16267142 -0.10001053 -0.8751861 -0.62653744 -0.07414821
-0.8318656 -0.16274619 -0.1671222 -0.13598725 -1.455013 -0.15112261 -0.08859374 -0.094141066
-0.08722206 -0.035217304 -0.64376044 -0.09657387 -0.09721454 -0.10211891 -0.1633799 -0.09119362
-0.09490554 -0.26022962 0.13982849 -0.2525732 -0.21394616 -0.47827533 -1.140679 -0.21654972
-0.19464959 -0.09311512 0.09487157 -1.0711725 0.4140837 -0.074090466 -0.5872406 -1.5373088
00000000: b1a5 a2bf de75 2abd 527c 4abe 295f c3bd
00000010: e287 81be 7b45 40be 71bb 21be 6a18 46be
00000020: ea62 c4bd 5a43 17be dfa9 0abe 8f92 2bbe
00000030: cad7 c9bd 4163 3cbf 587b 2fbf 12b2 0ebe
00000040: 73c0 8dbd df38 00c0 f4a3 68be 8dd6 c8bf
00000050: 8067 9dbd c274 c3bd 27f0 0dbe f112 02be
00000060: 545b 95bd 7913 43bd 3580 aabd f0f6 c4bd
00000070: 2344 00be a84d 93be 607e c0bd 8197 f3bf
00000080: 66e3 cebe 6ca2 8bbd 83c3 c4bd 55a7 1ebe
00000090: 2a71 34be 14ab 2b3e 80cb 1bbe 2719 89bf
000000a0: a0cd 05be be77 81be c447 f43d 08b4 d8be
000000b0: fa81 c0bd c88c cabd 5571 efbd d248 81bf
000000c0: 7802 88bd 1367 3ebe 09d9 c2bd c2c5 093e
000000d0: 4b7c 7abd 0063 05be a8b7 3a3f 0a13 aebe
000000e0: d874 91bd e363 1ebe e367 efbd 0ac8 b8bd
000000f0: 59a9 7abd f7ed a7bd 231b dbbd bf6c e6bd
00000100: 34ad b8bd d3ad 96bd d03c f43e 2886 bbbd
00000110: e318 3bbd d427 82bd f8c2 13be 3758 58be
00000120: 1a56 6dbf 442b 9dbd bc59 a0bd 3b0e 57bd
00000130: 7a5b 9dbd 9dcd 3fbe daa4 c2bd 693a f6bd
00000140: 6ba3 9abd 90d9 0d3e 3e78 51be 0e07 d0bd
00000150: fe00 e1bd 7321 b7bd 49ec ecbd 453f e9bd
00000160: dd0d dfbd 14a8 b5bd 07f5 86bd 65e7 9fbd
00000170: 81fc 0abe 134d efbd 97b0 2fbd 1f58 babd
00000180: 86cc 93bf a271 e5bd b73b 0cbe 3568 c6bd
00000190: 9020 1e3f fcb8 01be f570 e7bf 11ca d9bd
000001a0: fb04 e4bf 7b66 86bd 88ab e6bd 4134 ecbf
000001b0: 4130 88bf eb81 cabd 97a6 bebd 4c13 96bd
000001c0: f529 24bd 2bf6 58bf 5d91 09be 0a77 c43e
000001d0: c66a 94bf 7a3b fdbd 4e42 d5bd 2759 c3bd
000001e0: d38e bdbd 7cc6 513b bd3a 32bf f781 aebe
000001f0: 9a9a 01be d7d0 abbf d960 cdbd 44de 7fbf
00000200: 01a5 31be 3c85 46bd 3b98 c3bd f61c e3bd
00000210: c92e ef3d ddcb e9bd 8c0d 2d3e 86e2 e0bc
00000220: 9ad0 fc3e 7d6d 31be 15eb 5cbe 27bc 10bf
00000230: 6e60 17be 7886 2abf 74a9 2dbe 7da6 2ebe
00000240: 8066 dcbd bb30 6abf 06b8 c2bf f6b8 b5bd
00000250: 10ed 83bd f639 39bf 9fe7 3cbe 01b8 7dbd
00000260: 0e58 e4bd af63 46be 059a 33be ebfe 07bf
00000270: 3297 f0bd f067 81bd 7855 d4bf 71b3 363c
00000280: a1fc e1bf 5cc0 3fbf f6d2 40be 7843 b7bd
00000290: 3daf 80bf af18 1fbf fd3d d6bd 59e9 05be
000002a0: 2ac5 d53c 3419 96bd 8bc9 a3bd 094f 29bf
000002b0: 93a3 5fbe 9606 97bf da47 1dbe 545f 9cbf
000002c0: 8cc6 b0bd a75f fabd 3392 b1bf c47a 12be
000002d0: 7a2d 17be a7c1 afbd e95c fbbd 20fc 1fbf
000002e0: 6323 86bd cee4 6abd 3cc9 12be c527 27be
000002f0: 1e35 86bf 4eb8 d0bd fc8d 23be 9026 67bd
00000300: 6153 85bd 4075 46be 5f19 d6bd f776 96bd
00000310: 7041 48bf b8dd 75be 7476 b0bd ce55 1ebd
00000320: bf29 c5bd 787e 22be 9077 a7bd c293 9dbe
00000330: 7134 91bf 0c14 95bd a66b cebd 39f0 5dbf
00000340: cf2c 9fbd e90e 07be a32d 95bd f191 3abf
00000350: 680d 82bd 8beb 3c3f 35cf 12bf bb3c 02bf
00000360: 1ef3 8dbf c39e c6bf 69f3 19be 5693 263e
00000370: 52d2 ccbd 320c 60bf c264 20bf 04db 97bd
00000380: 25f5 54bf f0a6 26be 1522 2bbe 3e40 0bbe
00000390: de3d babf e3bf 1abe a270 b5bd 08cd c0bd
000003a0: 7ba1 b2bd 0540 10bd 7ccd 24bf 85c8 c5bd
000003b0: 6b18 c7bd b823 d1bd 0f4d 27be b8c3 babd
000003c0: d65d c2bd d13c 85be 332f 0f3e 4651 81be
000003d0: b414 5bbe 81e0 f4be c501 92bf 36bf 5dbe
000003e0: 3952 47be 24b3 bebd 074c c23d 2e1c 89bf
000003f0: c702 d43e bebc 97bd 6655 16bf 89c6 c4bf
