project_3-Collaboration_and_Competition/checkpoint_actor.pth (torch, 69540 bytes, 12 tensors)

fc1.weight f4 [100, 24]
000000 b8 61 2b bd 01 6c 53 bb 60 db a9 3d 05 c0 21 bd
       -0.04184124 -0.003226042 0.082937956 -0.039489765
000010 d5 1c 32 bd 88 4b 87 bd 66 9a 17 ba 49 ae 56 3d
       -0.043484528 -0.06606203 -0.00057832 0.052412305
000020 c7 65 9b 3c b7 7d 85 3a af 80 f1 3d 44 64 8d 3c
       0.01896943 0.0010184561 0.117921226 0.017259724
000030 14 c2 26 3d b3 8a e6 bc 9a 23 6f 3d a4 46 8a 3d
       0.04071243 -0.028142309 0.05838356 0.06751755
000040 21 2a a6 bd 04 f5 02 be 66 0d 15 3d 0d ca 95 3d
       -0.08113504 -0.12788779 0.03638973 0.07313929
000050 78 56 f8 3d 41 0b 58 bd b7 e9 cd 3d 9b be 2a bc
       0.121258676 -0.052745108 0.10054343 -0.01042142
000060 86 08 5d bc 01 8c 4a bd 9e e1 80 bd 63 98 d6 3c
       -0.013490802 -0.049449924 -0.06293033 0.02619571
000070 41 2a df bc 21 b7 ba 3d 87 57 a7 3c ba b3 ae bd
       -0.027241828 0.0911696 0.020427478 -0.08530374
000080 cd bd 9e bd c0 17 93 3d 80 55 0e 3e c5 57 71 bd
       -0.077510454 0.07182264 0.13899803 -0.058921594
000090 87 45 fc 3d d4 dd 96 3d b9 8b 60 3d 54 34 c4 bc
       0.12317949 0.07366529 0.05482075 -0.023950733
0000a0 b3 18 06 be a8 0a ac bd 97 67 d8 bc 96 b6 4c bd
       -0.1309536 -0.0840047 -0.026416583 -0.049978815
0000b0 18 1c a0 bd d5 cb 6e 3d a1 36 ac bd 0e 66 02 3e
       -0.078178585 0.058299858 -0.08408857 0.12734243
0000c0 ab c2 b1 bd 22 2a fc bd a1 b8 d9 bc 74 32 06 3d
       -0.08679708 -0.12312724 -0.026577296 0.03276296
0000d0 2a 0a e7 bd 10 f0 c7 3d 57 29 8b bd 94 82 d4 3c
       -0.112812355 0.09762585 -0.06794994 0.02594117
0000e0 7b f5 19 bd 0d 75 67 bd 1d f5 57 bd 7f 24 47 bc
       -0.037587624 -0.056508113 -0.052723993 -0.012154697
0000f0 4a a1 14 be 4a 59 36 3d fd a5 66 bd b6 92 12 bd
       -0.14514652 0.044518746 -0.056310643 -0.035784446
000100 d7 00 e5 bd 5d fb 03 3d 92 c2 6b 3c a0 25 a2 bd
       -0.11181801 0.03222214 0.014389651 -0.07917333
000110 c0 02 f9 bc c7 fe a6 bd 09 45 e6 bb d1 99 89 bd
       -0.03039682 -0.08154064 -0.0070272726 -0.06718791
000120 e9 2c 61 3c 56 86 13 bd 5b 0d 76 3c a8 15 aa bd
       0.013743618 -0.036016785 0.015017833 -0.08304912
000130 d9 c7 39 3d e0 e2 cc 3d db 75 b4 3c 23 3b 2a be
       0.045356605 0.100042105 0.022028854 -0.16624121
000140 05 e3 88 bd 9a 9e bc bd 17 28 bb bd f6 10 6e 3c
       -0.066839255 -0.09209938 -0.09138506 0.014530411
000150 2c 66 80 3d 06 40 3f ba 2a 1e b1 bd 54 81 37 3d
       0.06269488 -0.0007295612 -0.086483315 0.04480107
000160 de 74 71 3d 83 03 80 3d 3e a5 a8 bd a9 ed 16 be
       0.058949344 0.0625067 -0.082346424 -0.14739098
000170 30 f2 0d 3b c4 d6 8e 3d 7d 3c ea bc 95 98 cd bd
       0.0021659248 0.06974557 -0.028593296 -0.10038868
000180 e8 2e 02 be 22 be 36 bd c6 a8 fa 3c 96 07 ec 3c
       -0.12713206 -0.04461492 0.030598056 0.028812211
000190 eb d5 77 bd 8d ae 86 3d 81 f8 8b 3c 9d 0b 30 3b
       -0.060506742 0.06576262 0.01708627 0.002686239
0001a0 c0 0a 36 3c 6f 89 0c 3d 89 d9 84 bd a6 29 93 3d
       0.011110961 0.034310754 -0.06486804 0.07185678
0001b0 6d 0e 16 3d 6d 8c 16 3e 07 1a d0 bd 61 c9 d6 bc
       0.03663485 0.14702006 -0.10161214 -0.026219072
0001c0 4f 65 19 be 45 2a 36 3d d1 63 d7 3c 92 e2 6d 3d
       -0.14980052 0.044473905 0.026292713 0.058077402
0001d0 53 c9 e4 3b 68 09 f1 3d 0c 1a 8c 3d df 35 ab 3d
       0.0069820075 0.11769372 0.068409055 0.083598845
0001e0 b6 2f 47 3d fd 58 f8 3d 8a 82 97 bc a5 77 2a 3c
       0.048629485 0.12126348 -0.018494863 0.010404502
0001f0 01 27 fb 3c bb 0f ce bd fc a7 17 3d cc 78 3a bd
       0.030658247 -0.10061594 0.037025437 -0.045525357
000200 de f8 28 3d 40 95 b5 3d 30 3d 13 be 4f 5c 83 3d
       0.041252963 0.08866358 -0.1437881 0.06414091
000210 1e e3 b0 3d f4 12 9e 3d 36 0c ad bd 1e dc 98 bd
       0.08637069 0.07718459 -0.08449595 -0.07463859
000220 33 97 74 3c 0c 0b 93 3c b4 e2 02 be 9c 58 83 3d
       0.014928627 0.017949603 -0.12781793 0.06413385
000230 ad 4a 47 bd 10 49 8d 3d 19 30 b2 bd ad 68 d8 bc
       -0.0486552 0.06898701 -0.0870058 -0.0264171
000240 ea c1 58 bd a4 1c d4 3d 07 7c a9 bd 33 6b d0 bd
       -0.052919306 0.10357025 -0.082756095 -0.10176697
000250 45 fd a4 bc 7f e9 87 bc 6b db a4 bd ca 16 9d 3b
       -0.0201403 -0.016590832 -0.08049663 0.0047939764
000260 63 34 b3 bd 33 25 d5 3d 65 6b c0 bc 54 5e 64 bd
       -0.08750226 0.10407486 -0.02348871 -0.05575402
000270 47 da 50 bd 2c 0f b2 3d 1f f7 cb 3c 5d e1 93 3d
       -0.050989415 0.086943 0.02489811 0.07220719
000280 ab 0a 11 3d d4 18 b3 3d 8c fc 6a bd bd 94 d8 bc
       0.035410564 0.0874497 -0.057369754 -0.026438111
000290 26 d4 c0 bc cc ae aa 3c 20 7e 81 3d e8 7a 73 bd
       -0.02353866 0.020835303 0.063228846 -0.059443384
0002a0 e9 29 a1 bc cf 3a 4a 3d 12 79 8c 3d ca 77 47 3d
       -0.019673305 0.04937249 0.0685903 0.048698224
0002b0 83 fe bb 3d df e1 4e 3c bc 1e 44 3d 3c 95 b6 bd
       0.09179404 0.012627094 0.047880873 -0.08915183
0002c0 d1 5c 24 bd 68 ec cf bd 6a 73 9f 3d 91 95 52 bd
       -0.04012758 -0.10152513 0.07785685 -0.05141217
0002d0 a5 e6 de 3d c4 02 15 bd 89 fe 54 3d 62 13 da 3b
       0.10883836 -0.03637959 0.052000556 0.0066551426
0002e0 dd d2 a1 bc 59 15 f4 bd f2 0d 04 bd b7 02 e4 3d
       -0.019753868 -0.11918134 -0.03223986 0.1113333
0002f0 69 a9 88 3d e1 51 92 bc 31 3a 99 3d 43 26 bb 3d
       0.066729374 -0.017861309 0.07481802 0.09138157
000300 33 e7 6f bc 61 17 46 bd 99 ee 8f 3c f8 97 12 be
       -0.0146425245 -0.04836214 0.017569827 -0.14315784
000310 18 e2 20 3d 84 fd ed bc e4 bf b0 bd 00 9e 7b bd
       0.03927812 -0.02905155 -0.0863035 -0.061429977
000320 69 71 ee bd cc b0 83 bd f7 10 64 bc fd ff c2 3a
       -0.11642725 -0.06430206 -0.01392006 0.0014877316
000330 0b 1d 25 bd 2a a2 c3 3d 0f 72 c8 bc 7b a4 7a 3d
       -0.0403109 0.09552415 -0.02446845 0.061192017
000340 11 3a 53 bd 59 39 ff bc 02 5b 08 3e 4f c6 6e 3d
       -0.05156905 -0.031155275 0.13315967 0.05829459
000350 9a 46 c1 bd dc 67 66 3d 02 53 eb 3d 01 b2 b6 3b
       -0.09437294 0.05625139 0.11490442 0.005575419
000360 5d 3b 42 3d 2b ea a9 3c 60 49 a8 3d 6a 3c 9f bd
       0.047419894 0.020741543 0.0821712 -0.07775195
000370 a1 a5 bd bd 2d f2 61 3c 06 61 3d 3c 1f f9 c6 bd
       -0.09260107 0.013790649 0.011558777 -0.09715485
000380 f6 05 a8 bd d4 bb 8c 3d 30 ba f0 bd bd d7 18 3c
       -0.08204262 0.06871763 -0.117542624 0.00932878
000390 bd 2d 6e 3d e9 99 fc bc 66 f2 b1 bd ce 64 9c bd
       0.05814909 -0.030835109 -0.08688812 -0.076364145
0003a0 47 54 9a 3d a7 dd 62 3d d9 93 a0 bd ec aa a2 bd
       0.07535606 0.055387165 -0.078407 -0.07942757
0003b0 4e 97 01 3d 2a b4 a4 bd 8d 78 88 bc 87 8e 8e bc
       0.031638436 -0.08042176 -0.016659046 -0.017401947
0003c0 59 f1 d5 3d 6e 0f 57 bd 2f 8e 08 bd 5c 9b f5 3d
       0.10446424 -0.05250495 -0.03333872 0.11992523
0003d0 99 f9 89 3d 77 9a ab bd 92 b4 c2 bd 9b 41 ba 3d
       0.0673706 -0.08379071 -0.09507097 0.090945445
0003e0 66 c4 9b bc b3 44 c8 3d 15 41 70 bc c3 e2 e7 3d
       -0.019014549 0.09778728 -0.014663954 0.11322548
0003f0 99 db 43 bd 47 bf 04 3d 03 f1 ee bd 1c 30 37 bd
       -0.047816847 0.03240898 -0.11667063 -0.044723615

fc1.bias f4 [100]
000000 96 46 7b 3e 0a 7b b7 3c 4d af ab bd d6 4a ae 3d
       0.24538645 0.022397537 -0.08383045 0.085103676
000010 41 60 27 bd 51 54 89 bd e3 c4 16 be 6f 7c 06 be
       -0.04086328 -0.06705535 -0.14723544 -0.13133405
000020 75 b9 da bd 29 2f ac bc 2c af 29 be 11 4d 47 3e
       -0.10679904 -0.021018581 -0.16570729 0.19462992
000030 c6 93 14 3d 8b 2c 0f be d6 0e b5 3d be ef 3d be
       0.03627374 -0.13981836 0.0884072 -0.18548486
000040 0c 0d e5 bd 84 af 5f 3d 2d 1a 7a be d4 4b 39 3e
       -0.11184129 0.054610744 -0.24424048 0.18095332
000050 7b 1b 12 bd 04 ac 0e be 44 8f 32 be f9 33 18 3d
       -0.03567074 -0.13932806 -0.17437464 0.03715894
000060 fa 36 57 3d 09 53 4e bc 7b 16 01 be be 00 81 bd
       0.052542664 -0.012593039 -0.12606232 -0.0629897
000070 43 8a 66 3d fc b7 f7 bc 44 2a b1 3d 88 ca bf 3d
       0.0562842 -0.030239098 0.0865064 0.09364802
000080 bb 8f 9a 3c ef 1e 10 3e 5c 07 55 3e 3f 64 38 3e
       0.018867364 0.140743 0.20803589 0.18006991
000090 99 c7 34 3e 6a 5d 0e bd 29 00 e2 bd cf bf 10 bd
       0.17654265 -0.034757055 -0.11035187 -0.035339173
0000a0 a7 9d 94 3d 13 1d ec 3d 7d cc 02 3d fa 3f da bd
       0.07256632 0.11528983 0.031933296 -0.10656734
0000b0 0f 3e 25 be 4b 59 50 3e 4b 67 3d bd dc b3 73 bd
       -0.16136955 0.20346563 -0.046241086 -0.0594977
0000c0 a7 e3 3b bd 36 13 e2 bd 3f 75 d7 3c 2f 9c bf 3c
       -0.045871403 -0.110388204 0.026301024 0.023389904
0000d0 b2 1d 28 be bc a3 5f bd c1 e8 9c 3d aa 3b 0d be
       -0.16417578 -0.05459951 0.07661582 -0.13792291
0000e0 07 57 75 bd 30 18 ab 3c d8 38 30 3e 03 43 22 3d
       -0.05989745 0.020885557 0.17209184 0.03961469
0000f0 bd 37 8b 3d 4d 77 7d bd 5c e8 ad 3d ee 78 8b bd
       0.067977406 -0.061881352 0.08491585 -0.06810175
000100 e8 b7 52 3e 11 bc e7 3d cf 9c 2d 3d 57 27 27 3d
       0.20577967 0.11315168 0.042385872 0.040809
000110 a0 9a c7 bd 75 8a 47 3e 2b 1b 25 3e 29 b2 d7 bd
       -0.09746289 0.19486411 0.16123645 -0.10532028
000120 1c 4b 4c be de c7 59 bd 20 8e 01 3e fa 50 17 be
       -0.19950527 -0.053169124 0.12651873 -0.14776984
000130 ba 31 88 3e 7a 94 04 be be c1 1b be 98 15 07 3e
       0.26600438 -0.12947264 -0.15210626 0.13191831
000140 49 e8 b0 bd f8 bc 1e bd 24 75 d4 bd f6 c7 0d bc
       -0.08638055 -0.038754433 -0.10373905 -0.008653631
000150 8d c9 48 be b1 74 22 be a9 c9 f7 3c 1e 95 c3 bd
       -0.19608136 -0.15864827 0.030247526 -0.09549926
000160 d2 2e e3 bd a6 b6 62 bd 2f 10 40 be 00 42 ac 3d
       -0.11092915 -0.05534997 -0.18756174 0.08411026
000170 fc 50 c5 3d 20 34 11 3e d8 35 3f be 48 e9 9d bc
       0.09634587 0.1418004 -0.18672884 -0.019276276
000180 cc 12 0d 3e c1 38 7e 3d dd 76 df bd 57 d9 c3 3d
       0.13776702 0.062065843 -0.10911343 0.09562939

bn1.weight f4 [100]
000000 d0 63 86 3f a7 85 80 3f 96 90 88 3f ef a4 7e 3f
       1.049921 1.0040787 1.0669124 0.9947042
000010 3a 5c 7f 3f 66 ae 85 3f 2e 1d 86 3f 60 45 8a 3f
       0.997501 1.0443847 1.0477655 1.0802422
000020 be be 84 3f 2e 73 88 3f 21 59 83 3f be dd 83 3f
       1.037071 1.066015 1.0261575 1.0302045
000030 ba ca 8e 3f 91 37 85 3f 7c ef 85 3f 4a 50 7c 3f
       1.1155617 1.0407583 1.046371 0.9856001
000040 4c 5e 85 3f 73 bd 7f 3f 4c ab 82 3f 60 71 87 3f
       1.0419402 0.9989845 1.0208526 1.0581474
000050 84 f8 85 3f 6e f9 88 3f 8e 89 84 3f ca db 85 3f
       1.0466466 1.070112 1.0354478 1.0457699
000060 b4 9a 82 3f 60 6d 86 3f cc 68 86 3f cd ba 8d 3f
       1.0203462 1.0502129 1.0500731 1.1072632
000070 91 e1 8d 3f e3 f0 84 3f c3 c4 86 3f 90 53 87 3f
       1.1084462 1.0386013 1.0528797 1.0572376
000080 70 ff 83 3f f7 a0 85 3f c1 16 80 3f 6f fa 83 3f
       1.0312328 1.0439748 1.0006944 1.0310801
000090 d6 d1 86 3f a2 eb 8c 3f bc fd 85 3f 33 15 87 3f
       1.0532787 1.100941 1.0468059 1.0553344
0000a0 da df 86 3f 5e 4f 89 3f d2 59 88 3f 87 b2 82 3f
       1.0537064 1.0727346 1.0652411 1.0210732
0000b0 40 9f 85 3f 19 c0 89 3f 3f a3 7c 3f b0 97 87 3f
       1.0439224 1.0761749 0.98686594 1.0593166
0000c0 ae 0e 89 3f db bb 8a 3f 6c 61 85 3f 8a 93 87 3f
       1.0707605 1.0838579 1.0420356 1.05919
0000d0 9f 4c 87 3f 55 78 7e 3f 81 0f 84 3f 6b 3b 86 3f
       1.0570258 0.9940236 1.0317231 1.0486883
0000e0 a1 15 8e 3f cc 00 80 3f 23 4b 87 3f dc 63 86 3f
       1.1100351 1.0000243 1.0569805 1.0499225
0000f0 73 bb 86 3f 63 d4 86 3f 8d ea 80 3f 1c 20 89 3f
       1.0525955 1.0533565 1.0071579 1.0712924
000100 30 12 87 3f 32 28 82 3f e0 72 83 3f 39 ba 7c 3f
       1.0552425 1.0168517 1.0269432 0.98721653
000110 b0 84 84 3f b5 6c 83 3f 9c 87 8d 3f e1 78 86 3f
       1.0352993 1.026755 1.105701 1.0505639
000120 68 f2 85 3f 26 b7 87 3f 74 96 8a 3f d3 7e 83 3f
       1.0464602 1.0602767 1.0827165 1.0273079
000130 fa 92 8a 3f 41 c0 85 3f a6 8b 86 3f e3 d4 8b 3f
       1.0826104 1.0449296 1.0511367 1.0924343
000140 2c 70 8b 3f 38 d6 84 3f cb 8a 88 3f 46 23 80 3f
       1.0893607 1.0377874 1.0667356 1.0010765
000150 23 4c 85 3f 13 08 88 3f 61 f8 8e 3f 9e 75 88 3f
       1.041386 1.0627464 1.1169549 1.0660894
000160 70 aa 8d 3f c3 b6 86 3f 7e 72 89 3f 00 48 86 3f
       1.1067638 1.0524524 1.0738065 1.0490723
000170 fc 7f 86 3f 2c 8d 81 3f 32 a4 84 3f 08 00 88 3f
       1.0507808 1.0121207 1.0362608 1.062501
000180 cc 46 81 3f 38 cb 89 3f a6 e7 8a 3f 26 b2 85 3f
       1.009973 1.0765142 1.0851943 1.0444992

bn1.bias f4 [100]
000000 9c 21 da 3d 39 13 ef bd 22 87 84 3c 53 50 cc bd
       0.10650942 -0.11673588 0.016177718 -0.09976258
000010 9e bb b7 bd 8b 4e d4 bd b7 83 e5 bd ce 93 ae bb
       -0.08971332 -0.103665434 -0.11206763 -0.0053276783
000020 2f 02 ce bd 3c 0b 5f bd 8b 75 77 bd 8e 4e 62 3d
       -0.1005901 -0.054454073 -0.060414832 0.055250697
000030 64 18 b3 3d 9a fa bd bd 89 41 7a 3d 41 49 e2 3d
       0.087448865 -0.09276314 0.061097655 0.11049128
000040 44 0e 65 3b 6b 27 cb bd 3a 2e 10 bc 41 e7 1d 3c
       0.003495113 -0.09919628 -0.008800084 0.009637655
000050 7c 58 bf bd bb fa e5 3b 98 7d 23 bd 0d a0 58 bd
       -0.09343049 0.007018415 -0.039914697 -0.05288701
000060 16 63 bd bd 1a 8c 89 bd 31 ef 8e 3d 6c 73 aa 3c
       -0.09247415 -0.067161754 0.06979216 0.02080699
000070 a6 c1 b9 3d 37 e9 c4 bd 35 de 99 3d d3 76 5d 3c
       0.09070139 -0.09614795 0.07513086 0.013517099
000080 35 4f a9 3d b4 67 15 bd cd 44 ae bd dc ca ce bd
       0.08267061 -0.036475852 -0.085092165 -0.10097286
000090 40 a8 e0 3c 58 f5 73 3d 82 f6 b2 bd 09 eb d3 3c
       0.027423978 0.05956015 -0.08738424 0.02586891
0000a0 25 c6 ae 3d 1a 52 55 3d e3 f8 90 3d 5a 5a a6 3d
       0.08533887 0.05208025 0.070787214 0.08122702
0000b0 e9 54 83 3c 09 60 27 3d e2 38 d6 bd 59 5b 58 3d
       0.0160317 0.04086307 -0.10460068 0.05282149
0000c0 1e e9 96 3d 41 20 19 3c 09 9a 74 bd 3f 33 c5 bd
       0.07368682 0.009346069 -0.059717212 -0.09628915
0000d0 83 33 88 bd a2 91 a6 3d f1 90 5a bc 90 84 ae 3d
       -0.0665045 0.08133246 -0.013340221 0.08521378
0000e0 92 42 e2 bd 2c 61 a5 3d 2a 27 71 bd 71 05 15 bd
       -0.110478535 0.08075175 -0.05887524 -0.036382142
0000f0 25 a7 92 3d 07 1d 96 bc 9e 3d ef bd 0c 54 dd 3d
       0.071607865 -0.018324388 -0.116816744 0.10807046
000100 47 81 24 3d 87 f4 bf 3b 44 6f 49 bd 35 f8 bf bd
       0.04016235 0.0058580074 -0.049178377 -0.093735136
000110 13 3f a3 3d 56 c1 9d 3d 23 8c bd 3c c5 d2 57 3d
       0.07971015 0.077028915 0.023138111 0.05269124
000120 0d c1 b3 bd b0 b8 36 bd e1 38 8b bd 28 95 b1 3d
       -0.08777056 -0.044609725 -0.06797958 0.086710274
000130 25 41 52 bb e9 3d 34 3d 50 50 02 ba bc 04 9c 3d
       -0.0032082286 0.044004355 -0.0004971074 0.076180905
000140 68 ac 74 bb 4b 9c 87 bd 13 90 92 bd f9 17 a7 3d
       -0.0037334207 -0.066216074 -0.07156386 0.08158869
000150 84 d8 e5 bc 94 c3 b0 3d 89 c6 8e bd 63 dd 17 bd
       -0.028057344 0.086310536 -0.06971461 -0.037076365
000160 a8 5d 80 3d c2 d5 a6 bd 99 e1 85 bd 37 a9 47 3d
       0.062678635 -0.0814624 -0.0653717 0.04874536
000170 29 7f b0 bc a6 80 fb bd 04 b1 e8 bc a2 01 6f 3d
       -0.02154501 -0.12280397 -0.02840472 0.058351167
000180 70 90 41 bd 43 0d 5d 3b 3d 91 d7 bd 3f f9 6f 3d
       -0.047256887 0.0033729828 -0.10525749 0.05858731

bn1.running_mean f4 [100]
000000 da 1a b9 3f 59 4b 46 40 ea d9 23 40 ee ce 89 3f
       1.446132 3.0983489 2.5601754 1.0766275
000010 3a e5 5b 40 9d de 76 3f e0 23 96 3f f8 f8 aa 3f
       3.4358659 0.9643343 1.1729698 1.3357229
000020 40 b0 25 40 71 1e 4b 3f 42 36 1c 3f 40 59 13 40
       2.5888824 0.79343325 0.6102029 2.3023224
000030 33 d1 96 3f 52 09 39 3e 69 6f c6 3f 1e 11 d8 3d
       1.1782593 0.18069962 1.550275 0.1055014
000040 3c ae d8 3d d7 a8 84 3f 91 13 09 3f 56 16 01 40
       0.105801076 1.0364026 0.5354548 2.0169883
000050 59 3e 7c 3f 6a 8d d0 3f e0 2e 03 40 18 b2 10 3d
       0.98532635 1.6293156 2.049736 0.035326093
000060 62 1e 22 40 83 f1 f1 3f 44 99 dd 3f 81 bc b9 3f
       2.5331044 1.8901829 1.7312398 1.4510652
000070 19 88 85 3f ac a8 11 3f 4e 27 a3 3f 87 69 11 40
       1.0432159 0.56898 1.274637 2.2720659
000080 70 25 ea 3f fe 1b e8 3f 1b 7d 36 40 13 9e 06 40
       1.8292675 1.8133543 2.8513858 2.103398
000090 9f 98 df 3e 65 41 dd 3f 42 cd a1 3f 7d b2 9f 3e
       0.43671128 1.7285582 1.2640765 0.31190863
0000a0 9b f4 0a 40 6b d2 c1 3f b3 52 f8 3f 07 3b 9b 3f
       2.1711795 1.514234 1.9400238 1.2127389
0000b0 65 9e a7 3f ba 46 c3 3f 14 6f 53 40 5e 02 83 3c
       1.3095213 1.5255959 3.3036547 0.01599234
0000c0 d4 5d 98 3f 14 dd 46 3f ed 27 1d 40 fa 2f ab 3f
       1.1903634 0.7768109 2.4555619 1.3374016
0000d0 1b a7 14 3f 2d 15 c5 3f f8 ca 9e 3f 7a 0e 04 3f
       0.5806748 1.5397087 1.2405691 0.5158459
0000e0 40 60 07 40 06 58 8d 3f 1f e3 e6 3e fa db 8d 3f
       2.1152496 1.1042488 0.45095155 1.1082757
0000f0 24 a7 08 40 54 aa c4 3d 08 20 c4 3f d7 99 82 3f
       2.1352015 0.096028 1.5322275 1.0203198
000100 9d 30 2a 40 f5 d3 8a 3e 6f 6b 1f 40 09 84 9e 3d
       2.6592171 0.27114835 2.4909322 0.077400275
000110 f6 58 ed 3f 42 f2 19 40 57 f4 a3 3f 88 34 0b 40
       1.8542774 2.4054112 1.2808942 2.1750813
000120 ef 70 aa 3f 05 32 d9 3f 4d bb d7 3f e1 fe 44 3f
       1.3315715 1.696839 1.6854035 0.76951414
000130 dc 9e 82 3f 59 94 b3 3e 99 4f a6 3f b0 b3 d0 3f
       1.020473 0.35074118 1.2993041 1.6304836
000140 98 04 bb 3f 5f a0 a3 3f 03 2b 16 3f 8d aa f6 3f
       1.4610777 1.2783316 0.5865938 1.9270798
000150 ac 83 c0 3f 99 18 94 3f a7 30 91 3e 89 fa ea 3f
       1.5040183 1.1570007 0.2835743 1.8357707
000160 53 4e c2 3f 77 b8 93 3f 40 05 80 3f 76 d4 66 3f
       1.5180153 1.1540669 1.0001602 0.9016794
000170 d7 89 d2 3f 8c 93 c5 3d 51 f0 8c 3c ec b5 12 40
       1.6448315 0.09647283 0.017204436 2.2923536
000180 5e 9a 70 40 2c ae 88 3f 05 1b 79 3f 6b cc 84 3f
       3.7594218 1.0678153 0.97306854 1.0374883

bn1.running_var f4 [100]
000000 6f cc 3a 40 94 58 17 41 8e 37 cf 40 a2 41 74 40
       2.9187276 9.4591255 6.4755316 3.816506
000010 37 76 07 41 d6 6b 9a 40 95 81 55 40 64 60 42 40
       8.466361 4.8256636 3.336034 3.0371332
000020 f0 14 dd 40 f8 52 87 40 82 f4 9e 3f ee 63 b0 40
       6.908806 4.228878 1.2418368 5.5121984
000030 fc 2e 10 40 18 a2 8d 3e 85 f0 ad 40 1a 05 51 3e
       2.2528677 0.2766273 5.4356103 0.20412102
000040 3d e2 3c 3e 6e cd 41 40 9f f5 b1 3f 8f 8d 80 40
       0.18445678 3.0281634 1.3903083 4.01728
000050 db d6 e8 3f 45 70 44 40 90 6f 5f 40 87 c6 85 3c
       1.8190569 3.0693524 3.4911842 0.016330017
000060 4d 6a ca 40 56 f3 8d 40 a5 c7 5d 40 b3 6d 65 40
       6.325476 4.435954 3.4653103 3.5848205
000070 af 8f 07 40 ec d9 74 3f ae 15 16 40 20 e7 9a 40
       2.1181448 0.9564502 2.3450732 4.8407135
000080 8b aa 93 40 99 aa 0e 40 5c 24 b9 40 66 cc 88 40
       4.614568 2.2291625 5.7856884 4.274951
000090 0c 93 4a 3f b6 0d 97 40 fb da 50 40 fa 09 20 3f
       0.79130626 4.7204237 3.2633655 0.62515223
0000a0 d7 3a e5 40 71 fd 7a 40 28 ff 86 40 ca f5 dc 40
       7.1634326 3.9217188 4.218647 6.9050035
0000b0 01 74 04 40 4e 76 32 40 dc 22 c1 40 aa 84 db 3b
       2.0695803 2.7884707 6.0355053 0.0066991644
0000c0 43 3b e5 3f b9 2d a0 3f 7d d9 f2 40 62 21 64 40
       1.790871 1.2513953 7.589049 3.5645375
0000d0 e2 cd 9f 3f f7 20 5e 40 c3 1d 36 40 5f 05 ce 3f
       1.2484705 3.470762 2.8455665 1.6095389
0000e0 36 4b 56 40 52 01 d6 3f 10 6d a2 3f 9c 40 23 40
       3.3483405 1.6719153 1.2689533 2.5508184
0000f0 e0 49 90 40 df ad 55 3e f3 9c bc 40 a0 f7 10 40
       4.509018 0.20867108 5.894159 2.2651138
000100 ae cd d4 40 52 56 c6 3e 95 06 bd 40 74 c2 18 3d
       6.6501074 0.38737732 5.9070535 0.03729482
000110 3a 74 05 40 95 5c c9 40 d9 80 1e 40 18 3b e8 40
       2.085219 6.2925515 2.4766142 7.2572136
000120 b7 bf 91 40 51 f1 7c 40 64 69 65 40 28 31 62 40
       4.5546527 3.9522288 3.5845575 3.5342503
000130 cb 26 f4 3f 54 b9 8f 3f ae 21 62 40 a9 64 7a 40
       1.9074339 1.1228433 3.5333056 3.9123938
000140 46 0d 2b 40 da e9 51 40 06 d8 f1 3f 46 56 86 40
       2.6726851 3.2798982 1.889405 4.1980314
000150 9c ef 1f 40 bc 86 4a 40 a4 0b 52 3f 08 18 6d 40
       2.4989996 3.1644735 0.8204901 3.7045918
000160 16 8e 59 40 5d 10 5c 40 b0 7f c1 40 78 bb ab 3f
       3.3992972 3.4384987 6.046837 1.3416586
000170 e5 62 5e 40 e6 4d 07 3e 45 a4 f2 3b 42 79 de 40
       3.474786 0.1321331 0.0074048364 6.952302
000180 40 a6 e5 40 9f d9 11 40 8d 88 f0 3f e7 8c 1f 40
       7.176544 2.2789075 1.8791672 2.492975

fc2.weight f4 [75, 100]
000000 f6 44 2d 3e ce 21 2e bd e7 fd 3c 3c 60 84 ad 3d
       0.16920838 -0.042512707 0.011535144 0.08472514
000010 8c 9f bd 3d 74 b3 a0 bd 9c d0 ba bd 45 af 1d bd
       0.09258947 -0.07846728 -0.0912182 -0.03849723
000020 bf 25 ac 3b 72 b8 50 bd 92 ef 37 bc 13 c0 c7 bd
       0.005253523 -0.05095715 -0.011226552 -0.09753432
000030 d9 04 3f 3e 0b 2c 05 be c8 c3 c8 3d c7 d7 c2 3d
       0.18654193 -0.13005082 0.09802967 0.095138125
000040 61 f3 f7 bc 07 93 d0 3d 16 8f 19 be 26 86 50 3d
       -0.03026742 0.10184293 -0.14995989 0.050909184
000050 69 ee b0 3d a9 52 e9 bd 1c 73 ad 3d 56 fd fc bd
       0.08639223 -0.11392719 0.08469221 -0.123530075
000060 bc 37 a7 bd 7d 17 0e 3e d0 a4 79 3b 4e 92 14 3e
       -0.08164927 0.13876148 0.003809262 0.14508936
000070 37 d2 df 3d fb a2 36 39 23 ea 12 bb dc fa a2 3d
       0.10928767 0.00017417588 -0.0022417388 0.07958004
000080 bb dd b7 bd db 59 f8 3b 36 d4 95 3b b1 1e ec 3c
       -0.089778386 0.007579071 0.0045724167 0.028823229
000090 47 82 c1 bd d9 55 e3 3b 7b e6 07 be b0 e6 0e be
       -0.094486766 0.006937724 -0.13271515 -0.13955188
0000a0 78 ca 0a 3e b0 6c 86 3d a8 e2 f6 bd da de c4 bd
       0.13553798 0.06563699 -0.1205495 -0.09612818
0000b0 d1 26 c2 bd 91 86 3a 3d 8a 45 8e bd 9f 6b c8 3d
       -0.0948006 0.04553849 -0.06946857 0.09786152
0000c0 d0 2c 06 3e d7 07 09 be 9b 73 88 bd 1f 71 ab 3c
       0.13103032 -0.13381897 -0.06662675 0.020927964
0000d0 05 78 81 3d 9b 66 08 bd 6a e1 ff bd d2 2f 39 bd
       0.0632172 -0.033300977 -0.12494166 -0.04521162
0000e0 6b 3a 1f be 66 68 fd bd 63 1a 45 bd e2 e0 ea 3d
       -0.15549628 -0.12373428 -0.048120867 0.11468674
0000f0 0d 23 0c be 2f 77 83 bc 6d d0 8d bd 8d 47 cf bc
       -0.13685246 -0.016048042 -0.0692452 -0.025302673
000100 61 62 56 3d 53 ae 5b bc b7 60 bf 3d c0 9d 66 bd
       0.052339915 -0.013408261 0.09344619 -0.056302786
000110 3d 07 00 bd 41 21 ad bd d6 f0 e7 3d fe 30 0f be
       -0.031256903 -0.08453608 0.11325233 -0.13983533
000120 fc e1 7a 3d 77 08 da bc 4a 8e 15 bc ea 4e c7 bd
       0.06125067 -0.026615364 -0.009128163 -0.097318485
000130 7c 72 80 3d 77 de 0e be b5 f5 67 bc cd 94 b6 3d
       0.06271836 -0.13952051 -0.014157702 0.089151
000140 f2 8f 07 bb 06 17 4e 3d 7d 89 06 be 5f c4 b0 bd
       -0.0020685163 0.050314926 -0.13138385 -0.08631205
000150 9a 41 ab 3d d7 26 13 3e cb 12 94 bd 22 87 cd 3c
       0.08362122 0.14370285 -0.07230147 0.02508885
000160 48 31 a5 bd 03 42 1d be 8f c9 b1 bd 47 9b 10 be
       -0.0806604 -0.15357213 -0.086810224 -0.14121734
000170 15 79 24 3c 7f 17 8e 3d 4d 12 62 bd 55 7c b6 bd
       0.010038634 0.06938075 -0.055193234 -0.08910433
000180 6b b0 a3 bd 0f cc a7 3b 93 ac ce bd 50 67 d5 bd
       -0.079926334 0.005120761 -0.1009151 -0.10420096
000190 a6 14 39 3d d2 58 c5 bd d7 e2 f9 bd 1b 46 3c bd
       0.045185708 -0.09636082 -0.122014694 -0.045965295
0001a0 2e 01 e4 bc 8c 4c c3 3d 81 6e 17 be 26 8d 3a 3c
       -0.027832594 0.095360845 -0.14788248 0.0113861915
0001b0 b0 2e be bd a9 57 0b bc e5 2f 9e 3d 44 08 c6 bb
       -0.09286249 -0.0085047865 0.07723979 -0.006043466
0001c0 6e 7c 75 3d 44 73 57 bd 83 94 2a bd 47 0c f8 3d
       0.05993312 -0.05260016 -0.041645538 0.12111717
0001d0 8b 59 ad 3b 44 41 e7 3d 97 59 f4 bd e1 e9 2a be
       0.0052902154 0.11291745 -0.119311504 -0.1669078
0001e0 c7 b1 7e bd fa cd ee bd 77 52 fc 3d fd bc 89 3c
       -0.06218126 -0.11660381 0.123204164 0.01681375
0001f0 2b dc 23 bb 56 85 14 3d dc b7 ae 3c a8 76 00 be
       -0.0025003057 0.03625997 0.021327905 -0.12545264
000200 5f 2f 70 bc ee 0b 69 bc 51 e6 f2 bd e7 b9 01 3c
       -0.014659732 -0.014224036 -0.118603356 0.007917858
000210 11 cf cd bc c2 81 ed bd 96 6d 0c 3e b6 01 86 3d
       -0.025123151 -0.11597015 0.13713679 0.06543295
000220 3e d8 65 3d da 3b bb 3b 64 df 4e 3d 4b 9b fd 3d
       0.056114428 0.005713922 0.05050601 0.123831354
000230 5f 2a c2 3c de d5 42 3c 9b 52 0e bd 7c 9c 0e be
       0.023701845 0.01189181 -0.034746747 -0.13926882
000240 95 a8 3c be a6 18 93 bd 38 3f aa bd a9 ac 99 3d
       -0.18423684 -0.07182436 -0.08312839 0.075036354
000250 dc 20 aa bc a1 6c 2b bd 85 f3 cc 3d 2b b2 41 bd
       -0.020767622 -0.041851643 0.10007385 -0.047289055
000260 fa 0e 02 bc 7f 66 09 be d2 f3 15 bd 29 6b e8 3d
       -0.007938141 -0.13418005 -0.03660948 0.11348564
000270 bc 93 f4 bc ae aa a0 3d 61 8f 6a bd 91 2f 94 bd
       -0.029855601 0.078450546 -0.057265643 -0.07235635
000280 0f 6c d2 bd ac d9 a3 bc f0 74 c8 3d f6 ac d1 bd
       -0.10274517 -0.020001255 0.09787929 -0.10238068
000290 d6 ec e5 3c a0 f7 64 bd 6c bd 33 3d bd b5 b0 bc
       0.028067034 -0.055900216 0.04388182 -0.021571035
0002a0 80 79 c8 3c 34 6f be 3c c0 94 9b bd 5e 42 63 3d
       0.024471998 0.023246385 -0.07596731 0.055483215
0002b0 87 bb aa 3d cb 3c 18 3e 7a b7 bc 3a 05 2b 85 bd
       0.08336549 0.1486694 0.0014397942 -0.06502346
0002c0 4c b9 51 3d ae 21 49 3d 1a 5a 00 3e 9c f4 ef bd
       0.051202103 0.049104385 0.12534371 -0.117165774
0002d0 f0 f2 61 bd f3 1c 0b be 4b b3 34 bc 9c 69 e7 bd
       -0.055163324 -0.13585262 -0.011029075 -0.1129944
0002e0 60 e1 ba 3d ad 6d 08 be f5 c7 c4 bd 24 d7 5d bd
       0.09125018 -0.13323088 -0.09608451 -0.054160252
0002f0 00 6a 60 bd fa d2 21 3e e2 ae d7 bd 97 5b 3e 3d
       -0.05478859 0.15803137 -0.10531403 0.046474066
000300 c0 b5 8c bd 0a 7e 21 be 8a 6f fa bc d9 86 c9 bd
       -0.068706036 -0.15770736 -0.030570764 -0.09840173
000310 6b de 2b 3b 80 25 b8 bc 9e 8f 94 bd 93 13 d2 3d
       0.00262251 -0.022478819 -0.07253955 0.1025764
000320 86 24 87 3d 0d 9c 01 bd 55 b1 c7 3c 45 a3 41 3c
       0.06598763 -0.031642962 0.02437655 0.011818712
000330 19 22 8b bd af b6 71 3a 26 9f 74 bd 1f 60 fb bd
       -0.06793613 0.00092206424 -0.05972209 -0.12274193
000340 83 84 12 3d f4 7b e1 3d 7d f9 12 3e 3f 1e 6b bc
       0.035770904 0.1100997 0.14352985 -0.014350473
000350 e1 1f 20 3d 38 76 f7 bd 01 7e 60 bd 8d 73 9a 3d
       0.039092902 -0.12083095 -0.054807667 0.07541571
000360 fd cf 62 bd 3f 84 65 3c 8d e3 8e 3d 79 30 06 3e
       -0.055374134 0.014008581 0.069769956 0.13104428
000370 92 fb a1 bd 47 06 26 3d 92 dd 6e bd dd f3 1c bd
       -0.07909311 0.04053333 -0.058316775 -0.038318504
000380 b8 3d 0d be 0c 3e 8e bd 22 b3 e0 3c 81 b8 9b 3d
       -0.13793075 -0.06945428 0.027429167 0.07603551
000390 f7 c3 e5 3d 28 8a 44 bd 89 bc 70 bc d9 c9 6c 3d
       0.11219018 -0.04798332 -0.014693388 0.057809684
0003a0 76 c4 0a 3d 61 b6 99 bb 2d ec b0 bd f2 5a 2b 3d
       0.033878766 -0.0046909307 -0.08638797 0.04183478
0003b0 2f 8b 92 3d ce d9 de 3d 8e da 1e bc b2 e2 0e be
       0.071554534 0.10881387 -0.009695662 -0.13953665
0003c0 62 56 22 3e ce af a5 3d aa 28 02 3e 8e 43 91 3d
       0.15853265 0.08090173 0.12710825 0.07092963
0003d0 dc 51 83 3d d9 bd d1 3d 80 05 0c bd 0e 6a f4 bd
       0.06412098 0.10241289 -0.034184933 -0.11934291
0003e0 53 88 1b bd d4 a8 e2 bc 07 ad 98 3d 18 b7 14 be
       -0.037971806 -0.027668394 0.07454877 -0.1452297
0003f0 d3 b4 c4 bd 37 42 9b 3d 8b 2a e5 3d 25 82 23 3e
       -0.09604802 0.07580989 0.11189755 0.15967615

fc2.bias f4 [75]
000000 c1 54 fc 3d c0 df 08 3d 44 45 f0 ba 7d f9 4f bb
       0.12320853 0.03341651 -0.001833119 -0.00317344
000010 dc c3 8b 3d 19 ba 19 3d 60 a6 cb bc 8a fa d2 3d
       0.068244666 0.037530992 -0.024859607 0.10301693
000020 39 9f b0 3d b5 44 f5 3c c8 e8 84 3c d4 67 f5 3b
       0.08624119 0.029939989 0.01622428 0.007489184
000030 c7 7a 98 3d fd fd 16 3d 18 02 09 3e e1 e1 09 3e
       0.07445293 0.036863316 0.13379705 0.13465072
000040 55 9b d0 3c 6d 94 3a 3e cc 39 72 3d df 79 f7 3d
       0.025464693 0.18220682 0.05913715 0.12083792
000050 3b 1c f7 3d 3a 18 83 3c 64 21 99 3d 84 ca be bc
       0.120659314 0.016002763 0.07477072 -0.023289926
000060 5b 4c 67 bd 72 29 f0 bb e7 c4 bf 3c 6d ed 89 3c
       -0.056469303 -0.0073291594 0.02340932 0.016836846
000070 05 70 c9 3d 50 b5 9d 3d 1c b3 63 3d e6 4b 1f bd
       0.09835819 0.07700598 0.055590734 -0.03889074
000080 87 be 16 3d a2 af 19 3c 51 8a ff 3c de 90 9b bd
       0.036802795 0.009380253 0.031193884 -0.075959906
000090 05 47 fc 3c 87 73 4a 3d 92 2f 37 3d 1f dc 95 3d
       0.030795584 0.04942658 0.0447231 0.073173754
0000a0 6f 4c 02 3d f1 ed 24 3d 63 c8 9a bc 05 44 09 3e
       0.031811174 0.04026598 -0.01889438 0.13404854
0000b0 19 4a 7c 37 f1 10 8b 3d e7 de cb bb 5a d3 be 3d
       1.5037623e-05 0.06790341 -0.0062216404 0.09317656
0000c0 17 c9 57 3d b3 2a fc bc 4a b3 a3 3d 2f 2f 35 bd
       0.05268201 -0.03078208 0.07993181 -0.04423445
0000d0 60 41 e5 3d f0 b3 db 3d fb 07 37 3d 63 91 96 3d
       0.1119411 0.1072768 0.044685345 0.07351949
0000e0 fd 0c 42 3d a1 9c 13 3d 02 2d 5d bd 0d 7e 3d 3e
       0.047375668 0.036038045 -0.053998 0.18505116
0000f0 a2 75 6b 3d 99 1e ab 3d 39 37 cb 3d f1 e8 e4 bc
       0.05748523 0.083554454 0.09922642 -0.027943106
000100 9d d4 c8 bd 41 21 ab 3d cb 5a 78 3b d1 9f e5 3d
       -0.09806178 0.08355952 0.0037895914 0.11212123
000110 c1 6e 88 3d df 78 03 bd 0e 88 34 3d 5b a7 b5 bc
       0.0666175 -0.032097694 0.044075064 -0.022174528
000120 7a d0 a0 3d d3 aa 06 3e a0 60 f2 3d
       0.07852264 0.13151102 0.11834836

fc3.weight f4 [75, 75]
000000 32 c0 99 3d ac 60 b6 3c e9 92 28 3e e8 71 1b 3e
       0.075073615 0.022262894 0.16462292 0.1518017
000010 c8 1d a2 3d 34 4b c2 bb b0 30 cb 3d fa 48 08 bd
       0.079158366 -0.005929375 0.09921396 -0.03327272
000020 ee 62 37 3d d3 7c 5e bd ff 45 2b 3e f6 dd cd 3d
       0.04477208 -0.05431826 0.1672592 0.10052101
000030 d3 36 55 3c 38 0c e4 3d 94 1f e0 3d d3 af a8 bd
       0.013013559 0.11135143 0.10943523 -0.08236661
000040 09 10 43 3c a7 2f 3a 3e 5b cf b8 bb d0 14 90 3d
       0.011905679 0.1818224 -0.005639953 0.0703522
000050 80 ff b4 3d 0b ca b1 bc 41 40 b6 3d 1a e4 7b 3c
       0.08837795 -0.021702787 0.08898974 0.015374208
000060 96 b3 df 3c 7e f8 6c bc 35 6f 8b bc 4b c6 3a 3d
       0.027307313 -0.014463542 -0.017020801 0.045599263
000070 34 3a ac 3b a8 72 09 3e ca 6a 43 3d 9a 13 18 bd
       0.005255962 0.13422644 0.047709264 -0.03712807
000080 26 a3 2d 3e 30 16 8c bd 97 7f 02 3e 01 47 72 bd
       0.16956767 -0.068401694 0.12743984 -0.059149746
000090 32 3d 96 3d de 92 a4 3d 46 ee 3c 3b 77 89 07 3e
       0.07335891 0.08035825 0.0028828545 0.13236032
0000a0 f7 fe a2 3d 85 c4 5f 3d a1 2a b7 3d ea 14 85 3c
       0.07958787 0.054630775 0.08943678 0.016245324
0000b0 c2 80 ce 3b a9 a4 9c bd 2f 5a 41 3e b8 f7 36 3d
       0.00630197 -0.07648594 0.18882059 0.044669837
0000c0 c4 af 4a ba 4e 42 92 3d b8 4a 07 3e 00 20 11 3e
       -0.00077318796 0.07141553 0.13212097 0.14172363
0000d0 04 ab 19 3e 59 11 ab bb 9d 85 70 3d 36 c5 10 3e
       0.15006644 -0.005220574 0.058721174 0.1413773
0000e0 ee 7a 00 3e 6d 27 16 bd 33 58 2b 3d fe 26 17 3e
       0.12546894 -0.036658693 0.04183216 0.14760968
0000f0 42 8c 26 3e 1c 97 37 3e 54 bc ad 3d 12 79 f1 3d
       0.16264442 0.17928737 0.08483186 0.117906705
000100 c5 13 70 3d 47 4b e5 3d ad 11 02 3d bd 82 e0 3d
       0.058612604 0.11195999 0.03175514 0.10962436
000110 8a 30 3d 3d 04 65 0a 3e fa 94 0d 3e fd 18 12 3e
       0.04618887 0.13515097 0.13826361 0.14267345
000120 58 8b 35 bd c5 11 2e 3e ef e8 b6 bd 1b 5d a7 3d
       -0.04432234 0.16998966 -0.08931147 0.08172055
000130 45 57 db bc b9 71 0e 3d 31 e6 19 3e 6f 43 00 bd
       -0.026775012 0.034776423 0.15029217 -0.03131431
000140 3f f2 bf bc bf 9b e9 3d 8b f1 e8 3d 83 1a 05 3e
       -0.023430942 0.11406659 0.11374196 0.12998395
000150 34 5f ae 3d 52 ab ca 3d df 51 ca 3d a4 25 d5 bc
       0.08514252 0.09895958 0.09878897 -0.026018925
000160 38 c4 4d 3c fa da 90 bd 2f 4b a8 3d b7 ca 94 3d
       0.012558989 -0.070730165 0.08217465 0.07265227
000170 b8 87 91 3c 9b d8 05 3d ee 71 5a 3d 56 c7 0f 3d
       0.017764911 0.032677274 0.053331308 0.03510221
000180 0d 5f 00 bd ea 07 28 3e 01 98 e0 bd 57 6b 85 bd
       -0.031340647 0.16409269 -0.109664924 -0.06514614
000190 1b 55 73 bd 6d 4c 06 bc 92 be df 3d 7b c4 94 bd
       -0.059407335 -0.008196932 0.1092502 -0.07264038
0001a0 a3 19 bc 3d 82 d7 4b 3d 71 b6 91 39 46 a4 2a 3e
       0.09184577 0.04976607 0.00027792485 0.16664228
0001b0 fb 2e c6 bd 70 a1 03 3d 27 24 ee 3d 88 cd a5 3d
       -0.096769296 0.03213638 0.11627989 0.080958426
0001c0 1b c4 23 3e 6b d6 04 3e 74 4a 2e 3e 15 db 03 bd
       0.15992777 0.12972419 0.17020589 -0.032191355
0001d0 0d 62 07 3d ba 87 00 3d db c6 fb 3b 05 b3 46 3d
       0.033052493 0.03137944 0.0076836175 0.04851057
0001e0 2f 20 8a bc 87 06 76 3d 58 d0 01 3e f8 62 9e 3d
       -0.01686105 0.06006482 0.12677133 0.077337205
0001f0 ef 04 f5 37 22 14 a5 3d 51 50 e6 bc ee 21 79 3d
       2.9208573e-05 0.08060481 -0.02811447 0.060823373
000200 20 81 48 3d be f6 97 3c 00 47 11 bd b4 44 68 3d
       0.04895127 0.018550273 -0.0354681 0.056706145
000210 4a 25 15 3d 8d 6c dc 3d 1e 9a d0 3d 9b b1 16 bd
       0.036412515 0.10762892 0.101856455 -0.03679047
000220 eb 75 47 3e 41 2c a2 bd cc 1f a9 3d 2d 1e 65 3d
       0.19478576 -0.07918597 0.08258018 0.05593698
000230 2d 33 58 3c 46 25 75 3d d9 46 4f 3d 51 5e 51 bd
       0.013195795 0.05985 0.050604675 -0.051115338
000240 69 ee 19 3e 04 aa da 3d 96 38 bd 3d 07 d8 c5 bc
       0.15032353 0.10676959 0.092393085 -0.024150861
000250 07 e7 0d 3e 92 6e 65 bd c2 ae 47 3c 2f 28 7e bd
       0.13857661 -0.05601365 0.012187662 -0.06205004
000260 54 cf a6 bd 0f 2c af 3c 13 08 10 bd 25 ae 35 bc
       -0.081450135 0.021383313 -0.03516395 -0.011088883
000270 22 f3 98 3d 18 db 0b be eb 5d 43 3c 20 03 6a 3c
       0.07468249 -0.13657796 0.011924247 0.014282972
000280 20 af 8c 3c e2 5e 11 3d 5b 84 ee 3d 0a aa 46 3d
       0.01717335 0.035490878 0.116463386 0.048502006
000290 25 e0 eb 3c 1b e6 93 bd 37 4d 31 3d bc 7e 89 bd
       0.028793404 -0.072216235 0.04328653 -0.06713626
0002a0 8d 44 ce 3a 9a 56 85 3b 47 0a e8 3c dd 6b c7 3d
       0.0015736982 0.0040691616 0.028325213 0.0973737
0002b0 4f 02 b2 3d 36 36 24 bd 52 e7 d2 bd 15 b5 02 be
       0.086918466 -0.040090762 -0.10298027 -0.1276439
0002c0 ba f9 13 3e 93 a3 02 be d0 23 fa bd 20 ef 0b bd
       0.14450732 -0.12757711 -0.12213862 -0.034163594
0002d0 b9 10 f5 bc 10 4f 3e bd ca c7 dc bd 4c 77 dd 3d
       -0.0299152 -0.04646212 -0.10780294 0.1081377
0002e0 c9 2d b5 3d fe a6 ae 3d dd 35 ac 3c 49 a0 1a bd
       0.088466235 0.08527945 0.021021778 -0.037750516
0002f0 48 e6 f9 ba db a3 11 3e ff d4 ee bb fc 3a 88 3d
       -0.0019065822 0.14222662 -0.0072885747 0.066518754
000300 ac 53 46 3d ea d5 99 3d 87 ee 07 3e f4 09 79 3d
       0.04841964 0.07511504 0.13274585 0.060800508
000310 b7 76 d3 bc 96 5d 04 3d a3 2b 0d be 53 07 9b 3d
       -0.025813444 0.032315813 -0.13786177 0.07569756
000320 b0 8e 04 be 79 47 46 bd 79 8a 6a 3d 01 d6 fb 3b
       -0.12945056 -0.048408005 0.057260964 0.0076854234
000330 4f b7 33 3d 7f 17 c9 3d 95 fb 1d be 5d a6 cc bd
       0.04387599 0.09818935 -0.15428002 -0.09992669
000340 2c 6f 0b be 9a 23 57 3d 2c 07 b4 bd fe 8e cb bd
       -0.13616627 0.052524187 -0.087904304 -0.09939383
000350 54 eb 24 bd bc 9e 22 bd 13 71 07 3d f1 3f ae bd
       -0.04026349 -0.039702162 0.03306682 -0.085082896
000360 2b 43 e3 b9 40 f0 89 3d bc 78 68 bd de 7f c4 3c
       -0.00043346858 0.06735277 -0.056755766 0.023986753
000370 ae c2 58 3d ab 48 6d bd 09 af 6e bd f4 fe 0f be
       0.052920036 -0.05793063 -0.058272395 -0.140621
000380 91 10 53 bc 4a d6 2e be 82 eb 4f 3c 7f 5f 1c be
       -0.012882368 -0.17073932 0.012690427 -0.15270804
000390 88 db f3 bd c1 19 1f 3e 77 cd 10 bd 6c 25 9b 3d
       -0.11907107 0.15537168 -0.035352197 0.07575497
0003a0 d2 91 05 be 8d 92 3d be d4 11 2b bd 45 8e ed bd
       -0.13043907 -0.18512936 -0.04176505 -0.115994014
0003b0 f7 e4 ad bd b1 78 ed bb 0e 50 08 bc 00 49 b2 bd
       -0.08490937 -0.0072470536 -0.008319868 -0.0870533
0003c0 1b 9e 03 3d d9 26 93 bd ef 2f 47 be 77 ad 55 3d
       0.032133203 -0.07185144 -0.19451879 0.052167382
0003d0 ea b4 ec 3d 9b 39 00 be bf 35 ae 3d 07 3a 1c be
       0.11557944 -0.12521975 0.08506345 -0.1525651
0003e0 ff e0 b1 3d 10 1d 7a bb f4 71 77 3d 0a 64 b3 bd
       0.08685493 -0.0038164295 0.06041141 -0.08759315
0003f0 a9 2d 02 3e 99 bd 0a bd d4 fd 7b bd 32 e4 3b 3b
       0.1271273 -0.03387222 -0.061521366 0.002866995

fc3.bias f4 [75]
000000 98 08 d1 3c 42 99 4f 3d 25 e1 8e 3d fa ee 8e 3d
       0.025516793 0.050683267 0.06976537 0.06979175
000010 cf 66 71 bd e9 e1 33 bd 2f 0a bb 3d 5c fb 15 be
       -0.058935937 -0.043916617 0.09132802 -0.14646667
000020 64 7d ec 3d fa 31 bc bc c1 fe a6 bd 13 cb 80 3d
       0.11547354 -0.02297305 -0.08154059 0.06288733
000030 5d f9 89 bd 5c 06 0c bd 13 d2 1a 3e 5e ad b4 bc
       -0.067370154 -0.034185752 0.151192 -0.022055324
000040 b9 77 32 3b 37 49 8d 3c 5b fe 35 3d f1 35 6b 3d
       0.0027232005 0.017246826 0.044432025 0.05742449
000050 ec 1b 14 3e 02 5d ab bd 16 0d 9d 3d 6b 08 f7 3c
       0.14463776 -0.08367349 0.076685116 0.030155381
000060 90 d3 96 3d 00 2b 81 bd 10 94 13 3e 79 cb a7 3a
       0.07364571 -0.0630703 0.1441195 0.0012801728
000070 c2 5f 56 bd 5b 05 c7 3d b2 f7 f2 3c b3 b0 25 bd
       -0.052337416 0.09717818 0.029659126 -0.040451717
000080 c6 8b 70 ba dc 2f 46 bd 22 e7 4e bd fa 02 b7 bd
       -0.00091761013 -0.048385486 -0.050513394 -0.089361146
000090 ae 46 1c bd aa b2 df bc 2e 61 1c 3d 40 86 87 b9
       -0.038153343 -0.027306873 0.038178615 -0.0002584923
0000a0 f6 29 57 3d df cf 07 3e 64 48 3c 3c b9 28 25 3e
       0.05253025 0.1326289 0.011491869 0.16128816
0000b0 56 98 a3 3c a4 0b 33 bd 55 16 50 bd 0a 10 a5 3c
       0.0199701 -0.043712273 -0.050802547 0.02014925
0000c0 8e df 7f 3d e6 bd dd 3d 6a c4 d7 3d 9b 6d 05 3e
       0.062469058 0.10827236 0.1053551 0.13030092
0000d0 a9 95 86 3d 1f 3b c6 ba f9 7d 36 bd ed 9f d4 bc
       0.06571514 -0.0015123821 -0.04455373 -0.025955165
0000e0 3b 59 b7 3d bb 54 21 bd 4a a3 9e 3d 01 49 34 3d
       0.08952566 -0.039387446 0.07745989 0.044014934
0000f0 2f 3a 31 3e 20 0e 93 bd 1e 42 aa 3c bd 1f 28 3e
       0.17307352 -0.071804285 0.02078348 0.16418357
000100 2a 65 4f bd 9a ea a5 3d 47 aa 59 bd a7 5d b3 bc
       -0.050633587 0.08101387 -0.053140905 -0.021895243
000110 43 9d 67 3c be 52 85 3d ca fa 69 bc a3 02 19 3e
       0.014136615 0.065099224 -0.014280984 0.14942412
000120 ba cc 07 3d 1e 52 20 bb 8a b7 13 bc
       0.033154227 -0.0024463008 -0.009015927

fc4.weight f4 [2, 75]
000000 00 12 5a bd 71 12 0f bd 1e 0c 17 3d 4c 6e 2a 3d
       -0.053239822 -0.034929696 0.03687679 0.041609094
000010 5d 59 39 bd 55 12 84 bd 71 79 31 bd 9d f4 8c 3c
       -0.04525124 -0.06448809 -0.043328706 0.017206484
000020 78 dc 1d bd fd 3c 5c bd cb 57 22 bd de 35 a1 bb
       -0.038540334 -0.0537691 -0.039634507 -0.0049197515
000030 7b 45 79 3b 8c 28 25 bd 60 96 5f bd f6 3f 49 bd
       0.0038035798 -0.04032187 -0.05458677 -0.049133264
000040 cf 7a 8d bb 51 95 d9 3d 6b 8a 62 bd 57 b8 dd bc
       -0.0043176184 0.10624183 -0.055307787 -0.02706544
000050 b9 c3 43 bd cb 21 48 39 fc 73 70 bd 89 67 20 bc
       -0.047794078 0.00019086075 -0.05870436 -0.00979031
000060 cc 73 0e 3d 7d cc 2a bd 53 67 1c bd f1 da 93 3c
       0.0347784 -0.04169892 -0.038184475 0.018048735
000070 b5 0d 24 bd 20 49 78 bd db 3b 59 3d 60 fc 43 bd
       -0.040052135 -0.060616612 0.0530356 -0.047848105
000080 fb 60 39 bc 42 e2 4a bd d4 b2 2d bd d2 18 cf ba
       -0.011314626 -0.049532183 -0.042406872 -0.0015800244
000090 d1 bf e2 bc 6a cd 0c 3c 24 92 29 bd 2b fd a2 bb
       -0.027679356 0.008593896 -0.041399136 -0.0049740276
0000a0 81 84 bd bb e8 fc 51 bd 31 96 46 bd 78 54 4a bd
       -0.005783618 -0.05126658 -0.048483077 -0.049396962
0000b0 bc b9 5f bd 38 3d 60 bd ab 18 43 bc 81 16 c3 3d
       -0.05462049 -0.054745883 -0.011907737 0.09525777
0000c0 05 ae 5d bd 3d 4a db bc f9 ef 2f 3d aa 1f 59 bd
       -0.054121036 -0.026768798 0.042953465 -0.053008713
0000d0 01 9e 4f bd fa e3 37 bc 48 05 25 3d 34 17 a4 3d
       -0.050687794 -0.011223787 0.04028824 0.08012238
0000e0 8b a1 9c bc a6 00 4a bd 9e e7 66 bd 65 05 0b 3d
       -0.019119998 -0.049317025 -0.05637323 0.03394069
0000f0 1a f7 52 bd 99 3f 3e bd 5b d5 7d bd cc 6c 44 3d
       -0.051505186 -0.04644737 -0.06197105 0.04795532
000100 ac 9d 37 3d df 8d 23 bd 85 41 38 bd 0c bb 35 3d
       0.044828102 -0.03993022 -0.04498436 0.044367835
000110 fd 8c 0b 3d b2 f1 7f bd 84 7d 34 bd 43 b0 3b bd
       0.034070004 -0.062486358 -0.044065014 -0.045822393
000120 f4 0c 52 3b f3 f1 2b 3d 03 9e 7e bd bb 2b 6b bd
       0.0032051178 0.041978788 -0.06216241 -0.05741475
000130 6c 67 52 bd c8 5e bd bc 9f 10 7b 3d 12 19 43 bd
       -0.051368162 -0.023116484 0.061295148 -0.04763133
000140 22 f4 aa bd 42 e6 30 bd 69 ed cd bb 96 9a 0e bd
       -0.08347346 -0.04318834 -0.006284405 -0.034815393
000150 eb e7 c0 bd a3 bf 38 bd bf 33 21 3c 1f 7f 88 bc
       -0.09419235 -0.045104634 0.009838997 -0.016662179
000160 1c 5d 2a bd ab db 5e bd ec 4b 7d bd fe 3f 6b b9
       -0.041592702 -0.05440871 -0.061839983 -0.00022435185
000170 4c 62 44 bd 22 7d 77 bd 67 b0 d9 ba ea 1a 61 bd
       -0.047945306 -0.06042207 -0.0016608358 -0.054957308
000180 2d e8 b0 bb 8f 19 c5 bd 73 5d d2 3b b4 f6 86 3d
       -0.0053987713 -0.096240155 0.0064198314 0.06590024
000190 9c 49 29 bd c7 59 42 bd ea a7 85 3a c9 d3 29 bd
       -0.041329965 -0.0474489 0.0010197137 -0.04146174
0001a0 b9 ef 88 bd fa 79 73 3d 5d 65 5e bd 81 39 3d bc
       -0.066863485 0.059442498 -0.054295886 -0.0115493545
0001b0 b5 7e 43 bd e3 30 0d bd 65 d5 da bc 71 5b 87 bc
       -0.04772826 -0.03447045 -0.026713083 -0.016523095
0001c0 82 b8 3d 3a 08 0f 3a bd 02 d7 9e 3b d9 77 e6 bb
       0.00072372716 -0.04542449 0.0048474083 -0.00703333
0001d0 aa 7a 71 bd d0 3c 79 bd ac 7a 48 bd cb fc 9d bd
       -0.058954872 -0.06084901 -0.048945114 -0.07714232
0001e0 63 7a 70 bd 6a 8e e2 3c 9d cb ba 3c f0 14 78 bd
       -0.058710467 0.027655799 0.022802169 -0.060566843
0001f0 d6 43 b9 bc b9 ef 89 3d 3c c4 67 bd 29 0a 3a bd
       -0.022615355 0.067351766 -0.056583628 -0.045419846
000200 92 a2 8b bb 75 e6 1f bc a0 74 87 bd 01 92 8a bd
       -0.0042613233 -0.009759535 -0.06614041 -0.06766129
000210 63 51 73 bd 50 0e ae bd 9e d2 8a 3d ef ac 82 bd
       -0.05940379 -0.08498824 0.06778453 -0.06380641
000220 95 d2 52 bd c4 14 98 bd 6d 33 8b 3d 80 14 8a 3d
       -0.051470358 -0.07425836 0.06796918 0.06742191
000230 65 b2 65 bd 3a 3b 5a bd 4a ab 53 3d 6b 21 7a 3d
       -0.056078333 -0.05327914 0.051677026 0.061067026
000240 5b d7 a6 bd 05 b4 3c bd 51 4b 61 bd 92 2c c3 ba
       -0.081465445 -0.046070118 -0.055003468 -0.0014890602
000250 4c 59 77 bd 53 42 ab bd
       -0.060387895 -0.0836226

fc4.bias f4 [2]
000000 93 31 5e 3d f2 e2 d3 3c
       0.054246496 0.025865052
