project_3-Collaboration_and_Competition/checkpoint_critic.pth (torch, 56914 bytes, 9 tensors)

fcs1.weight f4 [100, 24]
0.07774789 -0.0022378766 0.07202815 -0.13435712 0.0146218445 -6.0337534e-05 0.0044877883 0.004175912
0.032274164 0.09682613 -0.027785834 -0.013513907 0.048144523 -0.09690882 -0.010057043 -0.111466646
-0.04358824 -0.059505686 0.09544912 -0.07412302 0.03055505 -0.04745424 0.0836489 -0.02665535
-0.06095844 -0.03411109 -0.063865066 -0.030337133 0.07552282 -0.016266761 0.02483395 -0.14169198
0.01551435 0.044093594 -0.018319478 -0.13538669 -0.07506773 -0.14631337 -0.0062085288 -0.005576796
0.056464907 0.06091883 -0.072975196 0.018283682 0.08504648 -0.08526215 -0.10584059 -0.040693976
-0.043621898 0.07564205 0.08957525 0.08433006 0.07028334 -0.025031455 -0.039111085 0.008746534
-0.021399548 -0.046452653 -0.08067317 0.06933645 -0.09110737 -0.054233868 0.031065328 -0.07457351
-0.014361168 -0.0849969 0.020788172 0.05617606 0.031718984 -0.05192271 0.06950194 0.04585233
0.10016885 -0.0117760105 0.02424599 0.010837492 0.0055722687 0.08582236 -0.052183513 -0.08334967
0.048215244 0.045815535 -0.0667102 0.048913658 -0.0281042 0.09904746 -0.09733743 -0.05774129
0.051212892 -0.032575708 0.011791602 -0.031562306 0.051483072 -0.080176055 -0.055913635 -0.09150064
-0.02646756 -0.04313568 -0.027099945 -0.089831576 0.07127327 -0.08482188 -0.04704409 -0.030575415
-0.11205513 -0.051242404 0.02122222 0.036727823 0.014982127 0.065058306 -0.0092146825 0.02020855
-0.0702162 -0.03989127 0.08088204 0.053429265 0.00018780635 -0.08530422 -0.0326779 -0.09437178
0.06458469 0.06366874 0.041234326 -0.058225878 0.11491155 -0.028453365 0.03400955 -0.06713286
0.09341834 -0.0039551407 -0.11006535 0.09725087 0.07075913 0.044497263 0.08828106 0.024377897
-0.03912456 -0.056079354 0.039110053 -0.05368543 0.07281519 -0.04920027 0.06947657 -0.017913751
0.09572235 -0.06088309 0.037936702 0.07604165 0.019486012 -0.041548133 -0.052061122 -0.041819077
0.05497943 0.08089023 -0.064895906 -0.020543674 -0.058985904 -0.017570868 -0.052057624 0.06250226
-0.03501999 -0.035899032 0.036057916 -0.026382316 -0.0934301 0.0013883531 -0.12872975 -0.0075409794
-0.07393003 -0.10341215 0.030064255 0.038526576 0.017664779 -0.07806911 -0.06061728 -0.0134634
0.049214102 -0.06369675 0.040941216 0.013415783 0.13957305 0.061123952 0.01422533 -0.05933139
0.0027615665 0.04254587 0.05008883 -0.06160113 0.13869958 0.0641541 -0.041999273 0.011671482
0.034496885 0.06548869 -0.043495115 -0.0010558745 0.051232994 0.0060828305 -0.07638727 0.07625561
0.05322995 -0.02643365 -0.053862832 -0.056527153 -0.09244303 0.0013468813 -0.05100333 -0.082868375
0.008412923 -0.023726152 -0.0015962835 -0.01921618 0.026138267 0.09416691 -0.0012544377 -0.040076483
-0.090458296 -0.10068906 -0.03282773 0.06932684 0.04685141 0.054128777 0.088913925 0.0012945594
-0.059219033 0.06803412 -0.01915667 -0.010636123 -0.0633635 0.082036644 0.08027521 -0.041117802
0.09518516 0.060227133 0.038944487 -0.061448403 -0.06798543 0.025132941 0.055024758 -0.079332605
0.08332925 0.07041536 0.017607182 -0.07326923 -0.08322325 0.08305835 0.025469415 0.01025078
-0.073550805 -0.047977336 0.07784871 0.06386227 0.0025048854 0.09209011 -0.06408844 -0.017501954
00000000: 493a 9f3d 57a9 12bb 7f83 933d ea94 09be
00000010: 7690 6f3c ef12 7db8 4c0e 933b 17d6 883b
00000020: ea31 043d c74c c63d 1e9f e3bc 6f69 5dbc
00000030: 3133 453d 2278 c6bd 4cc6 24bc a048 e4bd
00000040: 9589 32bd 3cbc 73bd d47a c33d cfcd 97bd
00000050: 964e fa3c 615f 42bd 1d50 ab3d 525c dabc
00000060: 8faf 79bd 12b8 0bbd b0cb 82bd 9485 f8bc
00000070: b5ab 9a3d df41 85bc 9170 cb3c b417 11be
00000080: e62f 7e3c 7c9b 343d bb12 96bc cfa2 0abe
00000090: 1cbd 99bd 2cd3 15be ea70 cbbb 8ebd b6bb
000000a0: bf47 673d 0686 793d 0574 95bd a9c7 953c
000000b0: d92c ae3d ec9d aebd f4c2 d8bd baae 26bd
000000c0: e0ac 32bd 38ea 9a3d 3b73 b73d 3db5 ac3d
000000d0: b6f0 8f3d c40e cdbc f232 20bd 9f4d 0f3c
000000e0: 1b4e afbc 2345 3ebd fa37 a5bd 4500 8e3d
000000f0: 8096 babd 5524 5ebd b77c fe3c ffb9 98bd
00000100: 1b4b 6bbc db12 aebd f54b aa3c de18 663d
00000110: c4eb 013d e8ac 54bd 0857 8e3d a7cf 3b3d
00000120: 5325 cd3d 2bf0 40bc 879f c63c bc8f 313c
00000130: 9497 b63b a2c3 af3d 61be 55bd 3bb3 aabd
00000140: 597d 453d 12a9 3b3d 5b9f 88bd b059 483d
00000150: c73a e6bc 65d9 ca3d d958 c7bd 2282 6cbd
00000160: 9cc4 513d 1b6e 05bd 9031 413c 7a47 01bd
00000170: eadf 523d 5833 a4bd b205 65bd b064 bbbd
00000180: 7fd2 d8bc 0aaf 30bd b400 debc 9ef9 b7bd
00000190: b8f7 913d 18b7 adbd 4eb1 40bd 4b79 fabc
000001a0: 297d e5bd 8ee3 51bd 39da ad3c ea6f 163d
000001b0: 9877 753c 4a3d 853d 2ef9 16bc 678c a53c
000001c0: 83cd 8fbd 0765 23bd 7ca5 a53d a5d8 5a3d
000001d0: e2ed 4439 fbb3 aebd 43d9 05bd fe45 c1bd
000001e0: fa44 843d c264 823d 53e5 283d 427e 6ebd
000001f0: bf56 eb3d 0817 e9bc 994d 0b3d f47c 89bd
00000200: 1d52 bf3d 209a 81bb f169 e1bd 772b c73d
00000210: 2aea 903d c342 363d b3cc b43d 28b4 c73c
00000220: 1341 20bd 77b3 65bd dd31 203d 41e5 5bbd
00000230: 2120 953d 3986 49bd bb49 8e3d dcbf 92bc
00000240: 140a c43d 8c60 79bd 8463 1b3d b9bb 9b3d
00000250: 21a1 9f3c 602e 2abd 0b3e 55bd 7b4a 2bbd
00000260: 1c32 613d c7a9 a53d 25e8 84bd 354b a8bc
00000270: 349b 71bd c8f0 8fbc 603a 55bd 2f01 803d
00000280: 1f71 0fbd dd0a 13bd 77b1 133d ba1f d8bc
00000290: 4858 bfbd 66f9 b53a bbd1 03be 521a f7bb
000002a0: a168 97bd c0c9 d3bd 5049 f63c 0bce 1d3d
000002b0: bab5 903c b3e2 9fbd d349 78bd 9895 5cbc
000002c0: ba94 493d 7173 82bd fab1 273d dfcd 5b3c
000002d0: 3dec 0e3e 1c5d 7a3d 5c11 693c 7905 73bd
000002e0: 66fb 343b 9444 2e3d f229 4d3d 7751 7cbd
000002f0: 4307 0e3e 3a63 833d 6e07 2cbd be39 3f3c
00000300: 9b4c 0d3d ef1e 863d ef27 32bd 4565 8aba
00000310: b0d9 513d 7b52 c73b ee70 9cbd e72b 9c3d
00000320: a607 5a3d 628b d8bc 469f 5cbd 0489 67bd
00000330: c552 bdbd d689 b03a dee8 50bd e5b6 a9bd
00000340: 5bd6 093c 595d c2bc 633a d1ba 406b 9dbc
00000350: eb1f d63c 95da c03d f26b a4ba 3d27 24bd
00000360: 3342 b9bd 1136 cebd 5f76 06bd 3bfb 8d3d
00000370: 44e7 3f3d 23b6 5d3d 8118 b63d 35ae a93a
00000380: a88f 72bd 7955 8b3d 73ee 9cbc 2243 2ebc
00000390: b9c4 81bd d402 a83d 5467 a43d 246b 28bd
000003a0: 70f0 c23d bab0 763d 4184 1f3d 52b1 7bbd
000003b0: f23b 8bbd 99e3 cd3c a461 613d 2279 a2bd
000003c0: 87a8 aa3d ee35 903d f03c 903c 2e0e 96bd
000003d0: f470 aabd 7f1a aa3d 3ca5 d03c e3f2 273c
000003e0: cea1 96bd e283 44bd 256f 9f3d 39ca 823d
000003f0: 0129 243b bd99 bc3d cd40 83bd 4260 8fbc

fcs1.bias f4 [100]
0.20557272 0.0016799934 -0.12470897 0.097704865 -0.010312464 0.010606542 -0.091187455 -0.16225718
-0.11212198 -0.023753444 -0.13043453 0.19999161 0.03343455 -0.0632692 0.06835626 -0.17682864
-0.11549104 0.06313948 -0.15513507 0.13201997 0.025720956 -0.15106648 -0.21917717 0.10740619
0.13208425 -0.023639003 -0.16197279 -0.090187445 0.022064308 -0.03461581 0.051162206 0.03320345
0.03125521 0.099265754 0.20496075 0.18998925 0.19277212 -0.073574126 -0.06459384 -0.019238144
0.069099925 0.08867839 -0.048161175 -0.119302474 -0.18015124 0.1791997 -0.04722899 -0.030925892
-0.124934375 -0.073074296 0.07443674 0.08491904 -0.08615266 -0.09001593 0.1770451 -0.11451221
-0.16474566 -0.042073548 0.19620216 0.056341622 -0.014925332 -0.014804442 0.108876444 -0.07938774
0.12143972 0.038102716 0.0035973312 0.025666967 -0.13686784 0.15201843 0.15392627 -0.15609418
-0.17379723 -0.021827783 0.17714462 -0.0689235 0.22611494 -0.122521654 -0.17183031 0.103533305
-0.10545802 -0.01155251 -0.078569636 -0.021194095 -0.16949551 -0.18994024 0.08226447 -0.020805443
-0.08719379 -0.015252785 -0.23150091 0.05293787 0.10890473 0.20010327 -0.15782401 -0.020671124
0.10724451 0.22388299 -0.13919608 0.07055111
00000000: a881 523e 3933 dc3a 6b67 ffbd 7d19 c83d
00000010: 9cf5 28bc 10c7 2d3c 7dc0 babd bf26 26be
00000020: 35a0 e5bd 9596 c2bc a190 05be 9aca 4c3e
00000030: abf2 083d 4893 81bd 5efe 8b3d 9112 35be
00000040: 9186 ecbd 464f 813d badb 1ebe 3e30 073e
00000050: c1b4 d23c 2cb1 1abe fb6f 60be c7f7 db3d
00000060: 1841 073e 95a6 c1bc 32dc 25be 32b4 b8bd
00000070: 35c0 b43c 4fc9 0dbd 768f 513d 5700 083d
00000080: 7705 003d d84b cb3d 3be1 513e 8b8c 423e
00000090: 0e66 453e 08ae 96bd c649 84bd 5099 9dbc
000000a0: 4384 8d3d 049d b53d a744 45bd db54 f4bd
000000b0: 9179 38be 2080 373e 2f73 41bd 4c58 fdbc
000000c0: 98dd ffbd faa7 95bd 4a72 983d 09ea ad3d
000000d0: ce70 b0bd 465a b8bd 504b 353e 6185 eabd
000000e0: 16b3 28be 5055 2cbd 38e9 483e 79c6 663d
000000f0: 6189 74bc 558e 72bc 9dfa de3d 0a96 a2bd
00000100: 63b5 f83d 9811 1c3d 34c1 6b3b 8843 d23c
00000110: 1527 0cbe b8aa 1b3e d99e 1d3e 27d7 1fbe
00000120: e7f7 31be 2ed0 b2bc 6665 353e c427 8dbd
00000130: ad8a 673e a2ec fabd 49f4 2fbe 4509 d43d
00000140: 60fa d7bd bd46 3dbc 1ee9 a0bd 3d9f adbc
00000150: 3b90 2dbe b27f 42be 467a a83d 2d70 aabc
00000160: a892 b2bd d1e6 79bc 930e 6dbe 61d5 583d
00000170: 7109 df3d dfe7 4c3e 9e9c 21be 7d56 a9bc
00000180: 02a3 db3d 9541 653e 6b89 0ebe 1a7d 903d

bn1.weight f4 [100]
0.95707834 1.0071253 0.971572 0.9589146 0.96527666 0.9702659 0.9737419 0.95836765
0.9618235 0.9646474 0.9752187 0.94518745 0.98779416 0.9782296 0.969689 0.9763116
0.96737975 0.97464675 0.9414138 0.94945437 0.9649123 0.9713732 0.9446866 0.9568126
0.9947745 0.9541044 0.9727265 0.93616325 0.9434624 0.9448692 0.96694666 0.95846885
0.9814409 0.99635434 0.98865926 0.96906984 0.9516332 0.9602863 0.96844506 0.95966154
0.96660244 0.96074486 0.99259603 0.96998006 0.9863358 0.9957141 0.96977943 1.0066042
0.9554676 0.9719118 0.963749 0.922181 0.96766174 0.9202276 0.97413445 0.96195537
0.9798554 1.0092918 0.9665759 0.9802154 1.0537609 0.98516923 0.96297777 0.98439544
0.96687484 0.96143085 0.9657876 0.96355975 0.95220286 1.012725 0.979487 0.98225516
0.97250783 0.9632207 0.9502905 0.9682148 0.9739418 0.96839404 0.951062 0.94050694
0.96694547 0.9652907 0.9487593 0.991609 0.9512672 1.0191225 0.9600789 0.96598154
0.97090876 0.9563368 1.0029546 0.9447003 0.9655143 0.9538304 0.9550731 0.9510216
0.9840873 0.96822125 0.98762554 0.97299707
00000000: 1603 753f 7be9 803f f1b8 783f 6d7b 753f
00000010: 5f1c 773f 5963 783f 2647 793f 9557 753f
00000020: 113a 763f 22f3 763f efa7 793f cef7 713f
00000030: 14e0 7c3f 416d 7a3f 8a3d 783f 8fef 793f
00000040: 33a6 773f 7382 793f 7f00 713f 710f 733f
00000050: 7e04 773f eaab 783f fbd6 713f acf1 743f
00000060: 8ba9 7e3f 3040 743f 9b04 793f 65a8 6f3f
00000070: c086 713f f3e2 713f d189 773f 375e 753f
00000080: b63f 7b3f 1411 7f3f c618 7d3f f614 783f
00000090: 3c9e 733f 53d5 753f 04ec 773f 61ac 753f
000000a0: 4273 773f 60f3 753f c61a 7e3f 9d50 783f
000000b0: 8180 7c3f 1fe7 7e3f 7743 783f 68d8 803f
000000c0: 8699 743f 36cf 783f 41b8 763f 0e14 6c3f
000000d0: aeb8 773f 0994 6b3f e060 793f b542 763f
000000e0: ced7 7a3f 7930 813f 8571 773f 65ef 7a3f
000000f0: a3e1 863f 0d34 7c3f b685 763f 5701 7c3f
00000100: 1c85 773f 5520 763f db3d 773f daab 763f
00000110: 91c3 733f f9a0 813f a9bf 7a3f 1375 7b3f
00000120: 46f6 783f a295 763f 3d46 733f eddc 773f
00000130: 4054 793f ace8 773f cd78 733f 10c5 703f
00000140: bd89 773f 4b1d 773f e4e1 723f 16da 7d3f
00000150: 3f86 733f 9b72 823f bbc7 753f 914a 773f
00000160: 7a8d 783f 7dd2 743f d160 803f e1d7 713f
00000170: f22b 773f 3b2e 743f ac7f 743f 2776 733f
00000180: 25ed 7b3f 59dd 773f 07d5 7c3f 5616 793f

bn1.bias f4 [100]
0.04356133 -0.012013053 -0.026681494 -0.0069741975 -0.02221663 0.015591693 0.024577761 -0.020403296
0.018970482 0.0151687 0.0755307 0.018492505 0.038592484 -0.09572255 0.010482097 0.084311485
-0.03013954 0.002309903 -0.028995553 -0.017528793 0.021989867 0.012208014 0.013960684 0.023471134
0.019115647 -0.021099405 -0.041997954 -0.023589026 0.049056813 0.017135369 0.0137315905 0.058841962
-0.00862725 -0.051719707 0.017377539 -0.0021343343 -0.054214634 -0.040128805 0.050606787 0.05314775
-0.03806092 0.02418753 0.02266159 0.017941492 0.022124154 0.049919322 0.009781311 -0.01391505
0.012079548 0.022722535 -0.017169284 0.01870368 -0.028633177 -0.057658512 0.04683236 0.009113068
0.036197096 0.052005187 -0.012694692 -0.01637364 -0.010455659 0.021581354 0.026231332 0.010766727
0.064123 -0.020749845 0.0012350584 -0.022658493 0.0001605199 -0.0025296572 -0.0031356884 0.026454372
0.004821222 -0.025028648 -0.002945348 0.003919794 0.02852249 -0.01670064 -0.036524333 -0.007012372
0.055503275 0.027736945 -0.017891545 -0.004701283 -0.016859028 0.016804766 0.051104482 -0.011089401
-0.025624523 -0.005306479 0.00072020764 -0.0297225 -0.039259344 0.05101694 0.03672178 0.04075345
0.03033518 -0.001681531 -0.025344683 -0.009338938
00000000: 5d6d 323d 65d2 44bc 2693 dabc cf87 e4bb
00000010: a6ff b5bc 4d74 7f3c 4d57 c93c d024 a7bc
00000020: fc67 9b3c 2486 783c d7af 9a3d 987d 973c
00000030: 2713 1e3d 2f0a c4bd 1abd 2b3c 80ab ac3d
00000040: 32e7 f6bc be61 173b 1588 edbc 8b98 8fbc
00000050: 1824 b43c 1f04 483c 5abb 643c 8946 c03c
00000060: 6b98 9c3c a9d8 acbc 0c06 2cbd c63d c1bc
00000070: ccef 483d 795f 8c3c 77fa 603c 4504 713d
00000080: 4f59 0dbc 0bd8 53bd 575b 8e3c 30e0 0bbb
00000090: 2a10 5ebd 1a5e 24bd 1049 4f3d 75b1 593d
000000a0: c4e5 1bbd ed24 c63c cca4 b93c 09fa 923c
000000b0: b73d b53c 3478 4c3d cb41 203c f3fb 63bc
000000c0: 4ce9 453c 9c24 ba3c 99a6 8cbc 7638 993c
000000d0: 2090 eabc 552b 6cbd 4ad3 3f3d fa4e 153c
000000e0: 6843 143d 6403 553d 66fd 4fbc 0322 86bc
000000f0: 364e 2bbc 61cb b03c 17e3 d63c ed66 303c
00000100: eb52 833d 94fb a9bc afe1 a13a 4e9e b9bc
00000110: 3c51 2839 9bc8 25bb 1f80 4dbb d7b6 d83c
00000120: 57fb 9d3b e108 cdbc bd06 41bb 9e71 803b
00000130: ffa7 e93c c8cf 88bc 8a9a 15bd 0ac8 e5bb
00000140: 6757 633d 9738 e33c 4a91 92bc 380d 9abb
00000150: f21b 8abc 26aa 893c ef52 513d 52b0 35bc
00000160: 85ea d1bc f9e1 adbb 51cc 3c3a 9a7c f3bc
00000170: 68ce 20bd 24f7 503d 9469 163d 17ed 263d
00000180: 7c81 f83c d166 dcba a79f cfbc 5802 19bc

bn1.running_mean f4 [100]
0.6610891 0.52941257 0.8273752 0.338651 1.6698128 0.65443933 0.363978 1.1423576
0.5410386 0.9215436 0.74679846 0.6873772 1.4092212 0.6998775 0.32290253 1.0197504
0.015500109 0.05603051 1.0264133 1.8641759 0.9276249 1.5848384 0.7249148 1.7707738
2.5060902 0.8707476 1.2272484 1.3661518 0.030166045 0.7360772 0.37636784 0.7943232
1.4868896 0.31227058 0.8527404 1.3785989 0.7587629 1.2834033 1.1824586 0.8650568
0.020519098 1.6916187 0.7597916 1.1835798 0.2726337 0.3184502 0.6566586 0.036912344
0.60004413 1.4265591 0.840685 0.050070267 0.8844445 0.089729935 0.8391355 0.99571455
1.2785118 0.13198148 1.3110186 0.25734043 0.05570732 1.3850918 1.330685 2.3480442
0.71604997 1.1462725 0.050546143 1.2617447 0.61802673 0.059313186 1.4850566 0.7838765
1.3447965 0.8804108 1.6436641 1.0202073 1.1117154 1.574575 1.3254184 0.19221471
1.4458529 1.601284 1.1847057 0.031752087 1.0149469 1.174302 0.59893143 0.8897796
1.1981101 0.9533495 0.038106248 0.7815468 0.5441427 1.2185841 1.0611995 0.6940311
0.35974133 0.04981063 0.47115684 0.061961118
00000000: 233d 293f 9587 073f dcce 533f aa63 ad3e
00000010: 6dbc d53f 5689 273f 535b ba3e c638 923f
00000020: 8181 0a3f 48ea 6b3f 2f2e 3f3f f4f7 2f3f
00000030: 5c61 b43f 2c2b 333f 7b53 a53e 2e87 823f
00000040: 2bf4 7d3c 4080 653d 8361 833f 519d ee3f
00000050: d378 6d3f fcdb ca3f 0494 393f b7a8 e23f
00000060: c863 2040 51e9 5e3f 7a16 9d3f 10de ae3f
00000070: c81e f73c 8e6f 3c3f 49b3 c03e c458 4b3f
00000080: 6652 be3f eee1 9f3e 324d 5a3f ee75 b03f
00000090: 493e 423f 8f46 a43f ce5a 973f 5d74 5d3f
000000a0: ab17 a83c f686 d83f b481 423f 8b7f 973f
000000b0: a596 8b3e e80b a33e c71a 283f 6631 173d
000000c0: 7e9c 193f 7d99 b63f 2237 573f 7b16 4d3d
000000d0: f46a 623f 54c4 b73d 96d1 563f 26e7 7e3f
000000e0: 46a6 a33f 2726 073e 75cf a73f 20c2 833e
000000f0: 5c2d 643d b04a b13f e353 aa3f 5b46 1640
00000100: 0d4f 373f 0fb9 923f 7909 4f3d da80 a13f
00000110: 0037 1e3f 62f2 723d 5616 be3f 21ac 483f
00000120: 4b22 ac3f 9a62 613f 9663 d23f 2796 823f
00000130: b14c 8e3f ac8b c93f 4fa7 a93f efd3 443e
00000140: b511 b93f e0f6 cc3f 70a4 973f 7a0e 023d
00000150: c8e9 813f 874f 963f 9253 193f 99c8 633f
00000160: ac5b 993f b60e 743f 4c15 1c3d 7313 483f
00000170: f04c 0b3f 90fa 9b3f 63d5 873f 06ac 313f
00000180: 0430 b83e 3b06 4c3d 783b f13e f1ca 7d3d

bn1.running_var f4 [100]
1.6461883 1.6600721 1.674911 0.9172703 1.8843915 1.1613419 0.7267683 1.6972332
1.127095 1.3575084 1.9866977 1.4735278 2.7527912 0.811495 0.80613905 2.745818
0.004574667 0.056315612 1.6851506 4.070766 1.6599791 0.8385424 1.4209003 1.6484457
5.070613 2.3219178 2.9693263 1.4112681 0.024983019 1.0061343 0.77996105 1.4145101
1.0834845 0.78277725 0.8916048 2.4983683 1.2770015 1.7954825 2.154681 1.0426277
0.010961916 3.4988675 2.0999618 2.541259 0.4724438 0.59084016 1.0256178 0.04250032
1.2982836 1.3556224 3.4204092 0.031370096 1.2305503 0.13765962 1.0926037 0.8009126
2.2134137 0.22901864 3.0615244 0.3932732 0.040294856 3.743105 2.687672 1.813823
3.0324526 3.1687837 0.060896877 1.0556045 1.9498109 0.041015595 3.4433742 1.9925483
2.348761 1.0136856 4.343043 3.6360378 1.7032644 4.179884 3.6855767 0.25651956
2.2959843 3.9332645 2.7769034 0.017195687 2.773081 3.8217258 1.8958646 1.48908
3.6536725 2.0028613 0.014234508 2.509563 0.9714291 3.214823 2.0032756 1.6506408
0.9195136 0.030110013 1.3590115 0.11045384
00000000: 4cb6 d23f 3e7d d43f 7c63 d63f 3ad2 6a3f
00000010: be33 f13f daa6 943f 7d0d 3a3f f03e d93f
00000020: a644 903f d6c2 ad3f 1c4c fe3f 8f9c bc3f
00000030: bb2d 3040 23be 4f3f 215f 4e3f 7bbb 2f40
00000040: 17e7 953b 33ab 663d 04b3 d73f b743 8240
00000050: 327a d43f b7aa 563f 10e0 b53f 4500 d33f
00000060: 7642 a240 4d9a 1440 7109 3e40 6fa4 b43f
00000070: 30a9 cc3c 02c9 803f 87ab 473f ab0e b53f
00000080: 9faf 8a3f 1764 483f 3640 643f 44e5 1f40
00000090: c974 a33f 5fd2 e53f 4be6 0940 d374 853f
000000a0: 9c99 333c 72ed 5f40 c665 0640 fda3 2240
000000b0: 27e4 f13e 4d41 173f 7247 833f d114 2e3d
000000c0: 282e a63f 0985 ad3f fce7 5a40 ee7d 003d
000000d0: ac82 9d3f a5f6 0c3e 70da 8b3f 9c08 4d3f
000000e0: 92a8 0d40 dd83 6a3e 04f0 4340 1b5b c93e
000000f0: 380c 253d 088f 6f40 d102 2c40 5a2b e83f
00000100: b413 4240 5acd 4a40 016f 793d 0c1e 873f
00000110: 6793 f93f f8ff 273d 3e60 5c40 d30b ff3f
00000120: 1a52 1640 73c0 813f 35fa 8a40 d8b4 6840
00000130: 9104 da3f 9cc1 8540 7de0 6b40 8856 833e
00000140: 68f1 1240 9bba 7b40 c9b8 3140 f8dd 8c3c
00000150: 297a 3140 2897 7440 b1ab f23f 2c9a be3f
00000160: c5d5 6940 e12e 0040 db37 693c ae9c 2040
00000170: 94af 783f a9bf 4d40 ab35 0040 3348 d33f
00000180: 3e65 6b3f 46a9 f63c 17f4 ad3f 9f35 e23d

fc2.weight f4 [100, 102]
-0.056915477 0.08386936 0.032102127 -0.034988806 -0.05070268 -0.013665386 -0.07278159 0.08825306
-0.078427404 0.045286007 -0.08518395 -0.072796136 -0.1008126 -0.03550738 -0.084845975 -0.05765546
-0.029767158 0.037933 -0.036000904 0.05416226 -0.07819153 -0.09360989 -0.062121194 -0.09025922
0.04164986 0.06398664 0.022297665 0.0048303115 0.061823763 -0.025713267 0.054927163 -0.06872758
0.025976302 -0.011960697 0.06782726 -0.03209002 0.049805857 -0.0059374287 -0.07281343 -0.033337273
-0.08403403 0.07349102 0.028636998 -0.07205645 -0.04116296 0.050490674 0.08613751 0.10483406
0.06325626 -0.031639062 0.08928291 -0.09925178 -0.04582216 0.05883533 0.04830836 -0.012840197
-0.04712346 0.0007830199 0.04558968 0.025247423 -0.0006568491 0.016203158 -0.08319341 -0.08129206
-0.08536576 0.062116176 -0.024604432 0.032922395 0.04836628 -0.06874467 0.0017514726 0.083778396
0.052823585 0.09384236 0.050209057 -0.07612818 -0.0856702 -0.009177618 -0.07277084 0.030857015
0.056663528 0.05852005 0.09595852 -0.055409677 0.07382396 -0.09471216 -0.061968688 0.011874012
0.047937233 -0.056798503 -0.09530369 -0.097340845 0.012707038 0.065176174 0.077294506 0.05677662
0.084822714 0.08498369 -0.07670496 -0.1022696 0.040327646 -0.05253304 0.016541522 0.119766854
-0.00012602194 -0.021886503 -0.04426978 -0.05851871 0.06899801 -0.034702845 0.05512467 0.014434432
-0.020586051 0.07479035 -0.04406665 0.040592242 -0.0034982725 -0.094812535 -0.060873244 0.06669005
-0.005569987 -0.06917934 -0.061441995 -0.024489747 -0.071733996 -0.047138013 0.06453832 0.07949849
0.06340461 -0.03279428 -0.09117876 0.045955233 -0.02500898 -0.08130036 0.026599277 -0.02268874
0.09430336 0.028149882 0.038961735 0.0043065418 0.03142283 -0.09211083 -0.009329871 0.024657758
-0.049289815 0.06045253 -0.0048831548 0.014371137 0.03250336 -0.06669925 0.033837914 0.022599284
0.044397518 -0.04476648 -0.019297348 -0.00026043772 0.0049008913 -0.039117705 -0.055987775 0.013156633
-0.045840427 0.10944723 0.043334536 0.070235066 0.0065239714 -0.012822493 -0.036138088 -0.023632675
-0.009539417 -0.080843724 -0.07447748 -0.0068179807 0.055364344 0.03342895 0.079656035 -0.015990833
-0.016803773 0.009023387 0.036074884 0.08965864 -0.08215626 -0.016818436 -0.022433093 -0.027836867
0.024702463 -0.095819235 -0.06846919 -0.06791378 0.040412568 -0.06784812 -0.0011084608 -0.018557547
0.04603777 -0.004537667 0.012309737 0.051824927 0.0142614795 0.034169324 -0.08059887 -0.023554532
-0.062078983 -0.06498746 -0.06649762 -0.025461586 0.018082254 -0.044363253 -0.07753185 -0.07146691
0.018658929 -0.0061240853 -0.10775709 0.017602593 0.0005050621 0.09954754 -0.010582342 0.06790916
-0.051472522 0.092629366 -0.080412425 -0.035753615 -0.07602915 -0.02584419 0.03628002 0.052457053
0.050085876 0.08982025 -0.021633064 -0.06308661 0.020154271 -0.0919015 -0.049235277 -0.008154952
-0.09179495 -0.024635859 -0.008719977 -0.036842417 -0.031452242 -0.008046268 -0.055652034 -0.03615474
-0.060584854 -0.0201407 0.0033861406 -0.04022256 -0.057381887 -0.07143542 -0.11946259 0.023666715
-0.008737359 0.002363871 -0.02913949 0.06150154 0.06934254 0.01372311 0.07529672 0.08631466
00000000: 3420 69bd b3c3 ab3d 857d 033d 6c50 0fbd
00000010: 9dad 4fbd c8e4 5fbc 840e 95bd 05be b43d
00000020: 8c9e a0bd d27d 393d ec74 aebd 2416 95bd
00000030: d676 cebd 3070 11bd bac3 adbd 2228 6cbd
00000040: 41da f3bc a25f 1b3d af75 13bd 3fd9 5d3d
00000050: e222 a0bd 8bb6 bfbd cb72 7ebd d3d9 b8bd
00000060: 0b99 2a3d 6d0b 833d 98a9 b63c 9747 9e3b
00000070: ea3a 7d3d a1a4 d2bc 4efb 603d 0cc1 8cbd
00000080: 41cc d43c cdf6 43bc 05e9 8a3d d370 03bd
00000090: 3a01 4c3d c38e c2bb 351f 95bd aa8c 08bd
000000a0: 091a acbd 7682 963d 2398 ea3c 5592 93bd
000000b0: 7e9a 28bd 4fcf 4e3d dd68 b03d 3db3 d63d
000000c0: 7f8c 813d f697 01bd f5d9 b63d 8444 cbbd
000000d0: 04b0 3bbd 51fd 703d fdde 453d b15f 52bc
000000e0: 8704 41bd 9343 4d3a 3fbc 3a3d afd3 ce3c
000000f0: 6630 2cba 7cbc 843c 4e61 aabd 747c a6bd
00000100: 3ed4 aebd 886d 7e3d 3c8f c9bc a2d9 063d
00000110: b81b 463d 01ca 8cbd ab91 e53a 0294 ab3d
00000120: 8b5d 583d 6c30 c03d 03a8 4d3d 17e9 9bbd
00000130: dc73 afbd b85d 16bc e108 95bd dac7 fc3c
00000140: 0418 683d b8b2 6f3d e785 c43d 42f5 62bd
00000150: 0431 973d 73f8 c1bd e1d2 7dbd 378b 423c
00000160: d559 443d 8ca5 68bd 952e c3bd a35a c7bd
00000170: 2e31 503c 167b 853d 954c 9e3d 9a8e 683d
00000180: 88b7 ad3d ee0b ae3d 7d17 9dbd b972 d1bd
00000190: 9a2e 253d e32c 57bd 1682 873c 5348 f53d
000001a0: c224 04b9 534b b3bc 3b54 35bd 51b1 6fbd
000001b0: d44e 8d3d 9224 0ebd 68ca 613d 657e 6c3c
000001c0: 14a4 a8bc af2b 993d 3b7f 34bd 0d44 263d
000001d0: 4643 65bb 132d c2bd 3956 79bd cb94 883d
000001e0: 7084 b6bb e6ad 8dbd 9aaa 7bbd b99e c8bc
000001f0: 46e9 92bd ca13 41bd ab2c 843d 1bd0 a23d
00000200: 47da 813d 4c53 06bd eebb babd 8e3b 3c3d
00000210: a2df ccbc ce80 a6bd bae6 d93c bddd b9bc
00000220: 1f22 c13d 959a e63c 5796 1f3d e41d 8d3b
00000230: 3ab5 003d 9aa4 bcbd 51dc 18bc 11ff c93c
00000240: 1ee4 49bd 129d 773d df02 a0bb eb74 6b3c
00000250: 3e22 053d 9e99 88bd a099 0a3d 2222 b93c
00000260: 2cda 353d 0e5d 37bd 7915 9ebc 5c8b 88b9
00000270: a897 a03b e339 20bd 7053 65bd eb8e 573c
00000280: 2cc3 3bbd df25 e03d 8e7f 313d 67d7 8f3d
00000290: 0ac7 d53b 6f15 52bc 8805 14bd 5099 c1bc
000002a0: 374b 1cbc 6591 a5bd a687 98bd 5e69 dfbb
000002b0: b9c5 623d cbec 083d b422 a33d 35ff 82bc
000002c0: 11a8 89bc d4d6 133c 42c3 133d f39e b73d
000002d0: 8b41 a8bd d1c6 89bc 9bc5 b7bc 240a e4bc
000002e0: d25c ca3c e03c c4bd 9339 8cbd 6116 8bbd
000002f0: a687 253d f5f3 8abd c649 91ba ff05 98bc
00000300: 1a92 3c3d b6b0 94bb c7ae 493c 6046 543d
00000310: fba8 693c 22f5 0b3d 0511 a5bd 6ff5 c0bc
00000320: 8846 7ebd 2518 85bd e72f 88bd d194 d0bc
00000330: 3c21 943c 3eb6 35bd 05c9 9ebd 3e5d 92bd
00000340: 9cda 983c 8dac c8bb c0af dcbd 5033 903c
00000350: 2566 043a 95df cb3d 8f61 2dbc f513 8b3d
00000360: dad4 52bd 77b4 bd3d 45af a4bd 6272 12bd
00000370: 2cb5 9bbd 32b7 d3bc 5c9a 143d 35dd 563d
00000380: d926 4d3d aef3 b73d d337 b1bc 8d33 81bd
00000390: 921a a53c db36 bcbd eeaa 49bd 599c 05bc
000003a0: fefe bbbd 24d1 c9bc 3cde 0ebc 13e8 16bd
000003b0: 11d4 00bd 7ed4 03bc 63f3 63bd fe16 14bd
000003c0: d327 78bd 1cfe a4bc 03ea 5d3b 69c0 24bd
000003d0: 4509 6bbd bc4c 92bd cda8 f4bd b3e0 c13c
000003e0: 2427 0fbc 2deb 1a3b f1b5 eebc 0ae9 7b3d
000003f0: 7603 8e3d e5d6 603c 2b35 9a3d bec5 b03d

fc2.bias f4 [100]
0.029694937 -0.08676195 0.049443923 -0.0121183675 -0.12699197 0.06235753 0.04967551 0.0006459521
-0.09596758 -0.047546357 -0.028145542 0.06472796 -0.10561876 -0.10108742 0.024280954 0.001710448
-0.051494908 -0.11858145 -0.03276465 0.04977241 0.0719773 -0.023950247 -0.10686511 0.008007604
0.04261531 -0.08377241 -9.866936e-05 0.038222685 -0.05310319 -0.09575413 -0.09108679 -0.13282228
-0.027821999 0.025119051 -0.02788053 0.060462732 -0.10527154 0.0587895 -0.035707485 -0.084638566
0.061966535 -0.044663865 -0.045650132 0.011487977 -0.056304008 -0.042790107 0.022592677 0.056608677
-0.05992372 -0.011445247 -0.04719342 -0.025869427 0.041059878 0.049140967 -0.037735797 -0.06718185
0.005363751 -0.090132 -0.124021865 -0.061292425 -0.08821741 -0.10921129 0.0066593667 -0.01094156
0.018357674 0.0027858054 -0.010798502 0.05640202 0.038533207 -0.09127158 0.06671853 -0.0026539369
0.0652514 0.051745325 -0.070149705 -0.059453387 0.011378492 -0.12496823 -0.061267484 -0.10882283
0.003287183 -0.021294229 0.03321492 -0.10675643 0.05386769 0.030509582 -0.057385553 -0.11543698
-0.04910165 -0.051598158 -0.061375268 -0.0625039 -0.04244257 -0.043428767 -0.016543962 -0.094284356
0.01951688 -0.064431384 -0.08687283 -0.03956245
00000000: cc42 f33c 40b0 b1bd b685 4a3d 1e8c 46bc
00000010: 2f0a 02be 9c6a 7f3d 8c78 4b3d 1d55 293a
00000020: a78a c4bd f8bf 42bd 7b91 e6bc 1890 843d
00000030: a64e d8bd ec06 cfbd dae8 c63c 1c31 e03a
00000040: 53ec 52bd d5da f2bd 3a34 06bd 28de 4b3d
00000050: d668 933d 4f33 c4bc 18dc dabd 5332 033c
00000060: 648d 2e3d df90 abbd b6ec ceb8 648f 1c3d
00000070: bb82 59bd be1a c4bd b68b babd 9002 08be
00000080: f6ea e3bc 78c6 cd3c b665 e4bc c5a7 773d
00000090: 9b98 d7bd 42cd 703d 0342 12bd fc56 adbd
000000a0: 9fd0 7d3d 75f1 36bd a2fb 3abd 1138 3c3c
000000b0: 089f 66bd ae44 2fbd 4714 b93c 80de 673d
000000c0: 9372 75bd d884 3bbc e34d 41bd 1fec d3bc
000000d0: 672e 283d 0a48 493d da90 1abd a396 89bd
000000e0: 68c2 af3b 2097 b8bd 2dff fdbd c40d 7bbd
000000f0: 54ab b4bd 2baa dfbd d136 da3b 3b44 33bc
00000100: d562 963c 0f92 363b 33ec 30bc ce05 673d
00000110: ffd4 1d3d 98ec babd baa3 883d aced 2dbb
00000120: 87a2 853d e8f2 533d a6aa 8fbd 6585 73bd
00000130: db6c 3a3c 58ef ffbd 9df3 7abd 81de debd
00000140: c76d 573b 3c71 aebc 5e0c 083d 1da3 dabd
00000150: 5ea4 5c3d 3bef f93c 1d0d 6bbd 396a ecbd
00000160: d01e 49bd 9758 53bd a264 7bbd 0b02 80bd
00000170: 43d8 2dbd 5de2 31bd 3487 87bc 2818 c1bd
00000180: dde1 9f3c 9af4 83bd 62ea b1bd 3c0c 22bd

fc3.weight f4 [1, 100]
0.0020946625 0.0015229054 0.0010093639 0.0011473713 -0.00053044996 -0.001387484 0.0029726059 3.650094e-05
-0.002126843 0.00031037393 0.0063568507 0.002570637 0.004086988 0.0013767427 -0.0017318072 0.00032266442
-0.0007197429 0.0023566484 -0.000422491 0.0018060523 -0.0020667727 -0.00013165662 0.0018152063 -0.00211322
0.00023041682 0.004647968 -6.691423e-05 0.00081399333 0.00051640323 -0.0040109693 0.002612612 -0.0077935294
0.00011973399 0.0013755923 0.004661487 0.0008914605 8.336188e-05 0.0005537706 0.0023669635 -0.002318873
0.0008325115 0.00037803373 0.0015386171 0.0030618529 -0.0024436167 0.0020871495 0.004378632 -0.00036772405
0.0011410331 -0.007689885 -0.0026007728 -0.009375462 -0.0011051756 0.0026847927 -0.0049033603 -0.004053993
-0.0013976407 -0.0005373225 -0.0014367651 -0.0027392393 -0.00577536 0.007284478 0.001673365 -0.0012080031
0.00069686474 0.0019389164 0.0017744061 -0.0015092276 0.00084843603 -0.000114583185 0.0026532537 -0.0010308154
-9.177862e-05 3.6427662e-06 -0.0023932543 0.0027002895 -0.004328887 0.0004128586 0.00076981675 0.0016382464
0.0023072956 -0.00048581514 -0.0020913968 0.0029451912 -0.0078092297 0.0053436053 0.0012542423 0.0034113405
-0.0005423805 0.0024139227 -0.0011939788 0.00065281364 0.0053965095 0.00056543044 -0.0018004208 -0.009822001
-0.0012986858 -0.0005495135 -0.002539492 -0.0025674659
00000000: 9b46 093b 3a9c c73a a24c 843a 6463 963a
00000010: e50d 0bba 3ddc b5ba 0dd0 423b 9618 1938
00000020: 8162 0bbb afb9 a239 214d d03b 2278 283b
00000030: 24ec 853b d273 b43a cffd e2ba 492b a939
00000040: 21ad 3cba 0072 1a3b c881 ddb9 0fb9 ec3a
00000050: b172 07bb 4e0d 0ab9 37ec ed3a f37d 0abb
00000060: 0b9c 7139 fb4d 983b 4e54 8cb8 2b62 553a
00000070: 3c5f 073a 736e 83bb 5b38 2b3b dd60 ffbb
00000080: b219 fb38 384d b43a 63bf 983b e7b0 693a
00000090: 92d2 ae38 ea2a 113a 0f1f 1b3b 3cf8 17bb
000000a0: e73c 5a3a d432 c639 6cab c93a 5ea9 483b
000000b0: 1625 20bb 8fc8 083b a17a 8f3b 16cb c0b9
000000c0: b88e 953a 6efb fbbb ba71 2abb 8a9b 19bc
000000d0: 8adb 90ba 59f3 2f3b 5eac a0bb 5cd7 84bb
000000e0: 0a31 b7ba 1adb 0cba d651 bcba cf84 33bb
000000f0: 3b3f bdbb a1b2 ee3b d054 db3a dc55 9eba
00000100: cdad 363a 3d23 fe3a 3093 e83a 46d1 c5ba
00000110: 9469 5e3a 614c f0b8 36e2 2d3b 6d1c 87ba
00000120: 4579 c0b8 3f76 7436 25d8 1cbb 57f7 303b
00000130: 56d9 8dbb f174 d839 87cd 493a 6dba d63a
00000140: ff35 173b 01b5 feb9 d10f 09bb 1c04 413b
00000150: 91e4 ffbb 6919 af3b 6365 a43a cc90 5f3b
00000160: 8a2e 0eba e732 1e3b 487f 9cba 9521 2b3a
00000170: 34d5 b03b 6539 143a 19fc ebba 75ec 20bc
00000180: aa38 aaba 3a0d 10ba 9b6d 26bb ee42 28bb
