project_3-Collaboration_and_Competition/critic.pth (torch_old, 532968 bytes, 9 tensors)

fc1.weight f4 [400, 24]
-0.032680377 -0.0025617562 -0.050649986 -0.022941973 0.022077214 -0.01423895 -0.050649986 -0.022941973
-0.02836593 -0.002663734 -0.0043198876 -0.0008992902 0.023609232 -0.029378561 -0.0043198876 -0.0008992902
-0.035133194 -0.003546382 -0.04103586 -0.022079587 0.027336126 -0.036219086 -0.04103586 -0.022079587
-0.0047279373 -0.009695783 -0.047959935 0.023112355 0.011077576 -0.013859236 -0.047959935 0.023112355
-0.014689557 -0.009935478 -0.06607104 0.009938438 0.01090664 -0.01854223 -0.06607104 0.009938438
-0.017147351 -0.008030035 -0.008172091 -0.0021307678 0.010831186 -0.01763172 -0.008172091 -0.0021307678
-1.9215989 -1.7937162 -0.008524315 0.0635817 0.22664702 -3.5067682 -0.0039331918 0.06358169
0.76624304 0.6877059 -0.113136865 0.050232608 0.40662184 1.1132818 -0.11735087 0.050232563
2.1306694 1.341769 -0.10672537 0.5662098 -0.3139405 5.7208486 -0.10627323 0.5662098
-3.403315e-39 -5.45346e-40 5.416e-41 -5.894314e-39 6.77538e-39 2.772838e-39 5.416e-41 -5.894314e-39
3.014521e-39 9.2599e-41 1.700757e-39 -4.762261e-39 -4.57878e-40 6.801257e-39 1.700757e-39 -4.762261e-39
-2.848865e-39 -1.747607e-39 4.006835e-39 -3.62194e-39 -3.515118e-39 -6.46914e-40 4.006835e-39 -3.62194e-39
0.046665788 -0.056374907 0.020571964 0.08686319 0.0147242285 0.03708975 0.020571964 0.08686319
0.008182846 -0.04048263 -0.044661045 0.08571282 0.009927414 0.035907067 -0.044661045 0.08571282
-0.02651503 -0.014509513 -0.074032426 0.070551336 0.005410501 0.03311859 -0.074032426 0.070551336
1.91401e-39 -6.313445e-39 1.179158e-39 -1.201204e-39 6.511237e-39 5.64963e-39 1.179158e-39 -1.201204e-39
-1.87331e-40 6.87627e-40 -5.213888e-39 -7.336096e-39 -4.038747e-39 7.39366e-39 -5.213888e-39 -7.336096e-39
-5.287264e-39 -7.176383e-39 7.48642e-39 2.668057e-39 -2.778106e-39 5.576861e-39 7.48642e-39 2.668057e-39
-5.67981e-40 7.251033e-39 -6.0033e-41 3.147388e-39 -4.447245e-39 7.434847e-39 -6.0033e-41 3.147388e-39
-4.14264e-40 7.677144e-39 6.314196e-39 3.555191e-39 -2.115871e-39 -3.025897e-39 6.314196e-39 3.555191e-39
3.361848e-39 7.241395e-39 3.844391e-39 -1.591584e-39 1.434623e-39 -2.947177e-39 3.844391e-39 -1.591584e-39
-6.452504e-39 -3.584236e-39 3.746137e-39 6.127623e-39 -6.789444e-39 7.235124e-39 3.746137e-39 6.127623e-39
-6.496287e-39 -4.622748e-39 2.25407e-40 -3.176437e-39 3.325354e-39 2.600591e-39 2.25407e-40 -3.176437e-39
-3.723207e-39 5.61743e-39 -2.867788e-39 2.912773e-39 -1.092413e-39 4.360387e-39 -2.867788e-39 2.912773e-39
3.706979e-26 -1.601892e-39 -1.0343206e-07 -2.6638794e-35 7.3615904e-15 3.0440578e-29 -1.0343206e-07 -2.6638794e-35
5.64022e-16 -6.564307e-39 2.123298e-05 -1.964534e-28 3.4785418e-13 5.568167e-21 2.123298e-05 -1.964534e-28
8.12113e-19 5.950814e-39 -8.577116e-19 -3.7703952e-20 2.1031792e-12 2.7986297e-16 -8.577116e-19 -3.7703952e-20
0.38462746 3.3977637 0.011795796 -0.09676005 -0.76886433 -1.4246337 0.012104008 -0.09676005
0.2360898 3.6950085 0.026937656 0.051291604 0.28700343 -1.0374813 0.026748145 0.051291604
-0.6969044 2.2802 0.015232484 0.7299698 0.8796398 -4.0929008 0.015816715 0.7299698
0.0008269243 -0.0063658496 0.039097372 -0.0069021843 0.0068761916 -0.010412019 0.039097372 -0.0069021843
-0.007523558 -0.004451778 -0.05671279 0.01828547 0.0027210058 -0.0014252712 -0.05671279 0.01828547
00000000: dcdb 05bd 23e3 27bb 5c76 4fbd cef0 bbbc
00000010: 46db b43c 7c4a 69bc 5c76 4fbd cef0 bbbc
00000020: ab5f e8bc 0a92 2ebb d88d 8dbb 58be 6bba
00000030: 2668 c13c 4fab f0bc d88d 8dbb 58be 6bba
00000040: d3e7 0fbd 6b6a 68bb 3815 28bd 40e0 b4bc
00000050: 03f0 df3c 775a 14bd 3815 28bd 40e0 b4bc
00000060: d0ec 9abb 10db 1ebc a371 44bd 1f56 bd3c
00000070: b97e 353c d911 63bc a371 44bd 1f56 bd3c
00000080: 78ac 70bc 6ac8 22bc 4150 87bd d5d4 223c
00000090: c4b1 323c e0e5 97bc 4150 87bd d5d4 223c
000000a0: 9a78 8cbc 6890 03bc 3ce4 05bc 5aa4 0bbb
000000b0: 4975 313c 6670 90bc 3ce4 05bc 5aa4 0bbb
000000c0: f4f6 f5bf 7e98 e5bf 92a9 0bbc 1f37 823d
000000d0: 2816 683e e46e 60c0 01e2 80bb 1e37 823d
000000e0: 8128 443f 7e0d 303f 4db4 e7bd b5c0 4d3d
000000f0: bd30 d03e 0580 8e3f a755 f0bd a9c0 4d3d
00000100: e35c 0840 16bf ab3f d592 dabd 20f3 103f
00000110: cfbc a0be 3111 b740 c7a5 d9bd 20f3 103f
00000120: 0f0f 2580 34f0 0580 fa96 0000 f32e 4080
00000130: 01c7 4900 8b31 1e00 fa96 0000 f32e 4080
00000140: 42d3 2000 2102 0100 0585 1200 3fdb 3380
00000150: 61fc 0480 230f 4a00 0585 1200 3fdb 3380
00000160: 7a05 1f80 9e07 1380 6da1 2b00 7f70 2780
00000170: b846 2680 550b 0780 6da1 2b00 7f70 2780
00000180: a024 3f3d 60e9 66bd 8986 a83c 54e5 b13d
00000190: e43d 713c 6ceb 173d 8986 a83c 54e5 b13d
000001a0: 5811 063c 1dd1 25bd 80ee 36bd 348a af3d
000001b0: 98a6 223c 4a13 133d 80ee 36bd 348a af3d
000001c0: 0c36 d9bc 4fb9 6dbc 509e 97bd 387d 903d
000001d0: 924a b13b 5ca7 073d 509e 97bd 387d 903d
000001e0: 7bd7 1400 51bf 4480 03d7 0c00 7814 0d80
000001f0: aee6 4600 df84 3d00 03d7 0c00 7814 0d80
00000200: 340a 0280 d37c 0700 33c6 3880 0de2 4f80
00000210: 62fa 2b80 8482 5000 33c6 3880 0de2 4f80
00000220: be92 3980 d624 4e80 1885 5100 750d 1d00
00000230: 3b40 1e80 05ba 3c00 1885 5100 750d 1d00
00000240: 4d2f 0680 eef4 4e00 59a7 0080 a345 2200
00000250: 1c6d 3080 54f5 5000 59a7 0080 a345 2200
00000260: cd82 0480 c198 5300 69c1 4400 6db6 2600
00000270: 300a 1780 f8f2 2080 69c1 4400 6db6 2600
00000280: 779b 2400 10da 4e00 99dc 2900 b054 1180
00000290: 259f 0f00 8817 2080 99dc 2900 b054 1180
000002a0: f542 4680 6407 2780 b5ca 2800 52b9 4200
000002b0: 35ee 4980 95c8 4e00 b5ca 2800 52b9 4200
000002c0: 01bd 4680 5756 3280 5874 0200 9d96 2280
000002d0: bc35 2400 6451 1c00 5874 0200 9d96 2280
000002e0: c98a 2880 1c2b 3d00 3a3a 1f80 a0b7 1f00
000002f0: 34e5 0b80 fc7a 2f00 3a3a 1f80 a0b7 1f00
00000300: 8b8f 3715 6c71 1180 601e deb3 d9a2 0d86
00000310: 589d 0428 215a 1a10 601e deb3 d9a2 0d86
00000320: 7a91 2226 9e7a 4780 7a1d b237 c608 7991
00000330: 12d3 c32a 025c d21d 7a1d b237 c608 7991
00000340: 86b1 6f21 73cc 4000 db26 7da1 480d 329f
00000350: 82ff 132c 7c54 a125 db26 7da1 480d 329f
00000360: e4ed c43e f674 5940 2843 413c 222a c6bd
00000370: 4bd4 44bf 665a b6bf e44f 463c 222a c6bd
00000380: 86c1 713e 057b 6c40 5cac dc3c 2517 523d
00000390: 1df2 923e 30cc 84bf ed1e db3c 2517 523d
000003a0: 5468 32bf ccee 1140 ab91 793c 4ddf 3a3f
000003b0: 1330 613f 0bf9 82c0 0e92 813c 4ddf 3a3f
000003c0: f3c5 583a 9e98 d0bb 9124 203d b82b e2bb
000003d0: ad51 e13b 2c97 2abc 9124 203d b82b e2bb
000003e0: 2e88 f6bb 38e0 91bb ac4b 68bd 69cb 953c
000003f0: e752 323b 2ad0 baba ac4b 68bd 69cb 953c

fc1.bias f4 [400]
1.5799763e-37 2.9127312e-17 -4.7432313e-06 1.464475e-39 2.2275061e-10 -3.1563e-41 6.675856e-39 7.144111e-39
4.319948e-39 8.812688e-05 -7.260701e-38 1.655012e-39 -3.4944784e-05 -6.812726e-39 -7.843115e-11 -4.696804e-39
-3.884912e-39 4.023204e-06 -3.02256e-39 3.272833e-39 2.093987e-39 -6.114951e-39 4.784413e-39 2.451415e-39
-7.533015e-39 -2.22633e-40 3.910822e-39 7.4487e-39 2.9468886e-15 -7.353758e-39 5.2461505e-06 -7.260035e-39
-5.995545e-39 -7.326405e-39 -4.88561e-40 6.462206e-39 -5.09801e-39 5.02357e-39 7.530669e-39 5.687052e-39
-1.189429e-39 4.565926e-39 3.465337e-39 1.756844e-39 -2.9880778e-06 4.8210322e-06 2.200722e-39 3.034676e-06
-1.155089e-39 -1.893161e-39 -3.485986e-06 -3.779277e-39 3.16796e-40 2.404646e-39 5.866493e-39 -7.291544e-39
8.175665e-06 9.4334985e-07 1.573786e-39 -8.945114e-06 -1.134749e-39 4.658439e-39 6.45058e-40 2.493395e-39
-7.375081e-39 6.138744e-39 8.00187e-06 -3.7777587e-16 -1.032265e-39 -7.2433e-39 -5.32023e-39 -4.606872e-39
-5.0517814e-25 1.727476e-35 -6.496436e-39 8.645226e-07 -6.064653e-21 2.190194e-39 -4.337446e-39 -7.280787e-39
-7.212567e-39 -6.721216e-39 4.049697e-39 -3.3305e-40 3.460002e-39 1.0747701e-05 2.907561e-39 1.000381e-39
6.876745e-39 4.982744e-39 -1.5032748e-05 -5.270553e-39 -6.009589e-39 7.40847e-39 -1.440934e-39 -7.489694e-39
1.08875e-39 -2.0482041e-06 -1.631352e-39 -3.395963e-39 7.295825e-39 -6.463928e-39 8.1036e-40 4.366093e-39
6.236238e-39 6.852711e-39 -7.208075e-39 3.568831e-06 -1.33199e-39 -4.140679e-39 5.151631e-39 -2.157093e-39
-6.77448e-39 -8.212313e-18 3.912473e-39 -5.733805e-39 3.197082e-39 3.147974e-39 2.919525e-39 4.426492e-39
3.5399108e-07 -7.89476e-40 -6.515641e-39 5.620601e-39 -1.0573814e-05 4.634187e-39 9.703151e-32 7.075209e-39
1.2240844e-05 -2.716487e-39 -3.944027e-39 7.558165e-39 7.578882e-39 5.179224e-39 4.547814e-06 6.162007e-39
-1.643151e-39 -3.786315e-39 4.975817e-39 -3.1280884e-08 6.162768e-39 -7.563801e-39 -7.338774e-39 3.536369e-39
4.972405e-39 -2.941138e-39 5.428613e-39 4.675515e-39 2.3640558e-05 -7.343795e-39 -2.788157e-39 7.233047e-39
-2.709518e-39 9.628677e-06 -1.690913e-39 3.63379e-40 -2.79413e-40 1.899124e-39 -4.707051e-39 5.84752e-39
-1.283931e-39 -4.766389e-06 2.8189718e-06 5.846085e-39 -7.498152e-39 6.836515e-39 8.05354e-40 7.278833e-39
-3.156621e-39 -5.155862e-39 3.221657e-39 -1.295443e-39 4.228242e-39 -3.683e-42 -6.3081565e-08 1.815064e-39
-4.507108e-39 -7.817639e-06 6.521684e-39 2.92054e-39 4.516082e-39 2.9475099e-05 -2.693717e-05 5.215231e-06
3.304932e-39 2.22e-42 -4.55123e-39 3.953097e-39 2.9537925e-06 -1.049175e-39 -2.689351e-39 -6.0016755e-05
2.82296e-39 -6.516343e-39 3.661058e-39 -5.274472e-39 -2.121284e-39 2.280731e-39 -2.172951e-39 -5.115649e-39
-6.0858656e-38 5.636621e-39 3.737494e-39 -5.802564e-39 7.231143e-39 -1.29612e-39 -2.14667e-39 1.55979e-40
-5.446969e-39 7.497394e-39 2.8224963e-06 -6.85753e-40 6.803481e-26 7.490136e-39 7.305402e-39 2.13943e-40
-6.6127887e-13 -5.06649e-40 5.538059e-39 -4.81478e-39 7.349564e-39 7.1399813e-06 4.710456e-39 -7.068078e-39
-3.781388e-39 2.661346e-39 -7.310716e-39 5.518425e-29 -9.68444e-40 -3.22182e-06 1.164311e-39 1.274601e-39
7.661992e-39 3.289498e-39 1.88476e-40 7.3352e-19 -5.743715e-39 -1.090717e-39 -7.357574e-39 -4.893295e-39
-7.278482e-39 2.87025e-40 7.18967e-39 5.393224e-39 2.4609e-40 2.319634e-39 3.641063e-05 -6.1424894e-06
-3.250218e-39 -1.3524277e-28 5.4093e-39 -1.2365807e-06 -4.385829e-39 -4.581331e-32 -1.706606e-39 7.490251e-39
00000000: 240e 5702 7653 0624 0c28 9fb6 5cf2 0f00
00000010: b9ea 742f fc57 0080 92b1 4800 e0ca 4d00
00000020: 420a 2f00 c2d0 b838 b3a7 c581 8005 1200
00000030: ad91 12b8 1c2f 4a80 d078 acae c724 3380
00000040: 8e4d 2a80 0fff 8636 abe9 2080 54a3 2300
00000050: 2fcd 1600 ff95 4280 ff18 3400 8cb1 1a00
00000060: fb06 5280 9c6c 0280 c895 2a00 f21b 5100
00000070: 8058 5427 4913 5080 1708 b036 060e 4f80
00000080: 2449 4180 09c7 4f80 e951 0580 005e 4600
00000090: 2e83 3780 abb3 3600 7100 5200 30ed 3d00
000000a0: a5f3 0c80 f2b7 3100 f3bb 2500 5e21 1300
000000b0: c986 48b6 5ac4 a136 b8f6 1700 56a7 4b36
000000c0: eb93 0c80 5d9d 1480 c9f0 69b6 1627 2980
000000d0: 1973 0300 2d2f 1a00 65e1 3f00 dc65 4f80
000000e0: 372a 0937 823a 7d35 1323 1100 f912 16b7
000000f0: 385b 0c80 d5b9 3200 2906 0700 9226 1b00
00000100: ba4e 5080 52d8 4200 c53f 0637 e1c5 d9a5
00000110: 893d 0b80 60df 4e80 a3ee 3980 162a 3280
00000120: 5658 1c97 5fb2 b705 6cbd 4680 8a11 6835
00000130: ba1d e59d 5fd9 1700 093b 2f80 df47 4f80
00000140: b489 4e80 0430 4980 e818 2c00 68a0 0380
00000150: 14ad 2500 0651 3437 19a9 1f00 a8e4 0a00
00000160: 91e1 4a00 dd41 3600 2935 7cb7 2864 3980
00000170: 4a70 4180 cdab 5000 bdb0 0f80 388e 5180
00000180: feda 0b00 e173 09b6 8cc3 1180 90fa 2480
00000190: cb71 4f00 cd62 4680 f4d2 0800 e48a 2f00
000001a0: 18e8 4300 929e 4a00 2e7d 4e80 0d80 6f36
000001b0: 0c81 0e80 8716 2d80 a718 3800 197d 1780
000001c0: 7ec4 4980 8d7d 17a3 629a 2a00 846f 3e80
000001d0: 2ad0 2200 4547 2200 73ca 1f00 4233 3000
000001e0: 2a0c be34 bd98 0880 f5f2 4680 f333 3d00
000001f0: 2f66 31b7 3a76 3200 80e8 fb0b ce0a 4d00
00000200: 065e 4d37 7694 1d80 58f2 2a80 174d 5200
00000210: d786 5200 9265 3800 6d99 9836 2b19 4300
00000220: 70e4 1180 b53a 2980 8e2e 3600 b259 06b3
00000230: 4a1b 4300 cd5c 5280 84e9 4f80 f581 2600
00000240: 0b25 3600 b206 2080 c41c 3b00 6fe9 3200
00000250: b64f c637 83f7 4f80 3f5c 1e80 cbc2 4e00
00000260: 0981 1d80 da8a 2137 9469 1280 f4f4 0300
00000270: e40a 0380 fcad 1400 5841 3380 82ac 3f00
00000280: 14fb 0d80 f8ee 9fb6 912d 3d36 82a8 3f00
00000290: cca5 5180 6c71 4a00 00c5 0800 6d42 4f00
000002a0: 605f 2280 7224 3880 ab14 2300 2b1b 0e80
000002b0: 9e0a 2e00 440a 0080 7577 87b3 a9c3 1300
000002c0: fc13 3180 8128 03b7 cd03 4700 47cd 1f00
000002d0: 002d 3100 4b41 f737 22f7 e1b7 7efe ae36
000002e0: cefc 2300 3006 0000 fa8e 3180 a00b 2b00
000002f0: c539 4636 ac6c 0b80 d148 1d80 80ba 7bb8
00000300: 44bd 1e00 eaf4 4680 8add 2700 156f 3980
00000310: 4719 1780 c0d5 1800 4ea9 1780 59b4 3780
00000320: 4bac a581 9b60 3d00 9db2 2800 302f 3f80
00000330: 7cbd 4e00 0e1d 0e80 0b60 1780 ceb2 0100
00000340: ef4f 3b80 afa3 5100 1e6a 3d36 9a77 0780
00000350: 2f72 a815 748f 5100 7d8c 4f00 6354 0200
00000360: 2a22 3aab 5584 0580 db4d 3c00 a66d 3480
00000370: 9807 5000 f993 ef36 d64a 3300 edf6 4c80
00000380: f92c 2980 c0fa 1c00 4d9b 4f80 a0e8 8b10
00000390: a18b 0a80 7236 58b6 a0ad 0c00 12e1 0d00
000003a0: 846e 5300 c8d1 2300 650d 0200 347f 5821
000003b0: 248b 3e80 7ae0 0b80 ec1d 5080 8448 3580
000003c0: 7241 4f80 1c20 0300 e049 4e00 1dba 3a00
000003d0: 00ae 0200 3242 1900 9eb7 1838 951b ceb6
000003e0: 4964 2380 ca70 2b91 ede6 3a00 97f8 a5b5
000003f0: e8c1 2f80 56e0 6d8b 5395 1280 c68f 5100

bn1.weight f4 [400]
-0.012781009 -0.011854124 1.4917293 -1.8613e-39 0.022835737 -4.20737e-39 -2.018203e-39 6.1471175e-12
2.7537877e-07 0.7946862 0.009653241 3.258595e-39 1.9507965 0.00084317324 0.010932168 1.337039e-39
-0.0019770642 0.45368242 3.7656454e-18 0.0054725497 0.00090951874 2.6637562e-10 2.811253e-16 2.79295e-39
0.0011953985 -9.735e-40 4.898019e-19 0.00024185097 0.0047863633 6.357607e-39 0.9353778 3.454401e-39
2.431075e-39 3.365002e-19 -0.004868918 -5.32808e-39 0.007106339 -0.010271009 -9.59151e-40 -0.001418058
7.34099e-39 -5.5346745e-11 -0.0040334957 4.0125196e-18 0.8541638 0.49291572 1.174742e-39 0.5008017
2.3866547e-32 0.0029988764 1.0176761 -6.414866e-39 -0.0057637542 -2.471354e-39 0.00240375 4.501049e-39
0.7184771 0.57954305 -0.00084122876 0.649535 -5.548873e-39 1.3342538e-13 0.012330145 -1.692956e-39
-0.00031887862 3.30954e-39 1.081315 -0.014419256 3.072603e-39 3.37519e-39 8.318655e-09 -1.5857454e-08
0.04950223 8.333468e-27 7.165018e-39 1.798711 -0.0092135975 -0.002900044 -2.71344e-39 -0.0038477217
-6.378492e-39 2.697595e-39 1.0257558e-05 2.7939509e-15 -1.916494e-39 0.4824069 0.0039823856 -0.0071173236
3.71134e-39 1.5189778e-08 0.61397654 6.367074e-39 3.9942617e-05 3.27105e-13 5.406467e-05 6.915457e-39
0.01410887 0.7468255 6.848126e-39 3.252942e-39 -2.5173389e-05 -5.627999e-39 0.012152277 5.780108e-39
-9.462668e-13 6.476184e-39 -1.13748294e-17 0.94342184 -0.009870016 -3.6451645e-05 -3.346362e-07 0.014457738
3.835766e-27 0.00056610967 0.0038585707 -8.2082125e-27 1.3955233e-10 -9.32444e-40 1.3231631e-14 -0.010896345
-0.8753811 -0.0019498415 -0.009270242 -0.014927272 0.8045877 -3.872996e-39 -0.007860564 -0.012528318
0.7959997 6.075369e-39 3.1854632e-19 1.88701e-05 0.00023223051 -0.005272663 2.5508068 -0.0006906293
-3.3226333e-05 -8.7999024e-07 3.718096e-20 -0.0041641323 0.0006496443 -0.00030434676 4.387432e-39 5.36123e-40
7.287214e-17 -3.452421e-39 4.043266e-39 6.928747e-39 0.8623579 -0.009981655 -0.015534322 2.764655e-39
-6.469602e-39 0.6800678 -9.416651e-10 -0.010078271 0.008273825 6.6176874e-08 -7.373275e-39 -5.870573e-18
2.851067e-06 0.6663138 1.06185 -2.063184e-39 2.061641e-39 -0.0062070796 0.0001264666 5.9692357e-14
3.295316e-39 6.29048e-39 -0.012954029 -0.0048567597 -2.8398874e-17 -1.2201325e-15 0.5950034 0.0049302154
-0.002383232 0.59240127 -6.4332194e-12 0.004589405 -0.0033594447 1.2282948 2.2639117 0.9314505
1.217807e-39 -4.44596e-40 -0.0009435013 0.00029383914 0.54943764 4.848163e-22 -2.222273e-12 0.913977
7.465227e-39 0.014881793 1.1235277e-11 -5.886067e-39 -0.00052605226 3.2375845e-11 -3.059423e-39 -5.842022e-39
0.0027353351 3.5648828e-08 -2.37197e-39 0.0029860705 -5.701319e-39 -1.6362748e-05 -7.882259e-39 3.661713e-39
-4.710508e-06 0.0011659189 1.1243607 3.555253e-38 2.5963107e-17 -6.107655e-39 -0.0011738327 1.82094e-39
-0.012704737 -0.0038214347 3.517478e-11 1.277781e-39 5.729196e-39 1.0176498 0.004438074 5.6419895e-12
-0.0026675938 9.3103815e-12 -0.008190895 6.450838e-17 -5.41712e-39 0.6307614 9.0556976e-05 7.28467e-39
0.002451509 4.997445e-39 -5.122742e-39 -0.013954936 5.897032e-06 6.665771e-39 7.3658455e-05 4.707516e-39
-6.28059e-39 -3.982064e-39 2.7602388e-08 2.204285e-39 -2.349544e-05 -3.510652e-10 1.0872614 0.63182944
-2.2222184e-07 -0.012441906 0.0007688786 0.58052254 3.505075e-39 -0.023497459 0.0028435863 6.7068315e-05
00000000: 7067 51bc cd37 42bc fcf0 be3f 8c44 1480
00000010: 0312 bb3c 70d0 2d80 eef9 1580 5048 d82c
00000020: c5d7 9334 8e70 4b3f a128 1e3c a37b 2300
00000030: b3b3 f93f 6608 5d3a d61c 333c 1f8f 0e00
00000040: a291 01bb 1049 e83e 84ed 8a22 1353 b33b
00000050: c56c 6e3a 0971 922f c60e a225 9c69 1e00
00000060: ebae 9c3a b999 0a80 6390 1021 6099 7d39
00000070: edd6 9c3b 6c3a 4500 eb74 6f3f 779d 2500
00000080: d978 1a00 79a2 c620 728b 9fbb 8504 3a80
00000090: 4bdc e83b bc47 28bc b971 0a80 21de b9ba
000000a0: b2ef 4f00 e56a 73ae 6a2b 84bb 2d09 9422
000000b0: 7baa 5a3f 735f fc3e b4ca 0c00 8a34 003f
000000c0: 2ad8 f70a cc88 443b 3643 823f 09da 4580
000000d0: e0dd bcbb 21e9 1a80 3c88 1d3b 1803 3100
000000e0: 1dee 373f ef5c 143f e885 5cba ed47 263f
000000f0: 006c 3c80 3f39 162a 6004 4a3c 466f 1280
00000100: 2a2f a7b9 a709 2400 8868 8a3f be3e 6cbc
00000110: 2b75 2100 a8c0 2400 d5e9 0e32 e936 88b2
00000120: dac2 4a3d b40f 2514 2805 4e00 293c e63f
00000130: a1f4 16bc aa0e 3ebb f78b 1d80 0f2a 7cbb
00000140: a474 4580 cc5f 1d00 e017 2c37 4c53 4927
00000150: 68de 1480 0afe f63e ac7e 823b 7038 e9bb
00000160: b569 2800 ad7a 8232 912d 1d3f d054 4500
00000170: 0f88 2738 cc24 b82a 7fc3 6238 7b4d 4b00
00000180: e428 673c f52f 3f3f ca91 4a00 e16b 2300
00000190: 712b d3b7 9248 3d80 581a 473c 97f0 3e00
000001a0: db2c 85ab f784 4600 1dd4 51a3 1884 713f
000001b0: d9b5 21bc a8e3 18b8 0da8 b3b4 26e0 6c3c
000001c0: 4af3 9713 fa66 143a 13e0 7c3b 9594 2294
000001d0: 7d70 192f 4627 0a80 215c 6e28 9586 32bc
000001e0: fa18 60bf d391 ffba 37e2 17bc 8491 74bc
000001f0: 76f9 4d3f 562c 2a80 98c9 00bc 9343 4dbc
00000200: a3c6 4b3f a827 4200 5c09 bc20 3b4b 9e37
00000210: e782 7339 4ec6 acbb 6b40 2340 590b 35ba
00000220: 815c 0bb8 7838 6cb5 0695 2f1f 4673 88bb
00000230: e44c 2a3a bb90 9fb9 60c6 2f00 7ed6 0500
00000240: 1e08 a824 f297 2580 fb06 2c00 8772 4b00
00000250: 7dc3 5c3f 188a 23bc ab83 7ebc bc1a 1e00
00000260: 9e72 4680 ec18 2e3f e56b 81b0 551f 25bc
00000270: f08e 073c 1f1d 8e33 b149 5080 ff95 d8a2
00000280: f554 3f36 8b93 2a3f b3ea 873f 5177 1680
00000290: 0473 1600 c264 cbbb 1f9c 0439 4d6a 8629
000002a0: 00e2 2300 4d7f 4400 233d 54bc 7425 9fbb
000002b0: 79f7 02a4 f2d6 afa6 2552 183f a58d a13b
000002c0: ff2f 1cbb 9ca7 173f 4a59 e2ac b862 963b
000002d0: 212a 5cbb c438 9d3f eee3 1040 8a73 6e3f
000002e0: c042 0d00 5ad7 0480 4d55 77ba 6c0e 9a39
000002f0: f2a7 0c3f d886 121c e960 1cac 66fa 693f
00000300: 044a 5100 c4d2 733c 30a7 452d f617 4080
00000310: c5e6 09ba f663 0e2e 6d50 2180 2e9d 3f80
00000320: 4f43 333b 4d1c 1933 16d4 1980 f3b1 433b
00000330: f514 3e80 bc42 89b7 88d4 5580 5edf 2700
00000340: f50e 9eb6 bfd1 983a 0deb 8f3f ff90 4101
00000350: a777 ef23 a881 4280 4adb 99ba 0ad4 1300
00000360: 8727 50bc 0971 7abb 48b3 1a2e efe9 0d00
00000370: ab62 3e00 5942 823f 436d 913b 8682 c62c
00000380: ccd2 2ebb 3bca 232d 1b33 06bc 07bf 9424
00000390: bafc 3a80 9479 213f 68e9 bd38 b252 4f00
000003a0: 7fa9 203b d86a 3600 1fc8 3780 3ea3 64bc
000003b0: 1fdf c536 7595 4800 1579 9a38 a442 3300
000003c0: bb63 4480 605c 2b80 4b1a ed32 a600 1800
000003d0: 1318 c5b7 0900 c1af 622b 8b3f 93bf 213f
000003e0: e09b 6eb4 23d9 4bbc 928e 493a 209d 143f
000003f0: b92a 2600 be7d c0bc 765b 3a3b 07a7 8c38

bn1.bias f4 [400]
-0.044633776 -0.030753499 0.2435067 -1.9035471e-23 -0.06972681 -0.00027218205 -0.007862019 -1.4341283e-09
-1.5967137e-06 -0.64458203 -0.060759407 -0.012018232 0.16799104 -0.017985342 -0.03630984 -3.07294e-05
-0.01777041 -0.16452555 -1.5506514e-13 -0.023982728 -0.008266234 -7.1461955e-08 -2.2005332e-11 -2.8169232e-34
-0.009289002 -0.0011006113 -6.48168e-16 -0.024000369 -0.03447992 -3.0327957e-14 0.2650583 -6.57361e-38
-2.8834512e-35 -6.0051884e-22 -0.026289865 -4.0498067e-11 -0.04413536 -0.045634042 -0.000116285046 -0.009840157
-1.3837658e-22 -6.82747e-10 -0.03527855 -6.5973815e-12 -0.3179795 0.07909742 -8.718129e-37 -0.05518939
-2.8835394e-31 -0.0124763055 0.18706796 -1.0609688e-13 -0.03206352 -1.565617e-23 -0.014465571 -9.2879385e-23
-0.34588856 -0.10683383 -0.04682441 0.45722684 -2.1492018e-05 -0.02195344 -0.03720465 -1.7389908e-16
-0.0016995709 -7.3681273e-37 -0.311413 -0.039893087 -2.2143808e-22 -2.0587744e-21 -1.006071e-06 -5.321238e-07
-0.16593798 -0.0069073853 -0.0001698611 -0.49454293 -0.04694799 -0.040114656 -9.847329e-37 -0.018947052
-9.40671e-19 -0.0093661705 -0.00070043857 -1.3753749e-11 -8.31913e-15 -0.26793486 -0.044076577 -0.032603066
-8.737411e-25 -2.650484e-05 -0.3785971 -6.1821616e-16 -0.0066402573 -8.929756e-11 -0.00042305462 -0.012823009
-0.041857295 -0.21177226 -0.0037187194 -1.5990182e-06 -0.0038068106 -1.3381275e-21 -0.038659725 -6.436296e-05
-2.4006965e-08 -0.0037886766 -4.7516224e-18 -0.54010665 -0.04623811 -0.0031069072 -2.2428715e-07 -0.04412159
-3.3837905e-25 -0.026608493 -0.054622144 -7.047455e-19 -1.8245121e-08 -9.254615e-27 -1.5568492e-10 -0.036669556
-0.78712857 -0.021923147 -0.045209803 -0.048022248 -0.062444124 -3.1626296e-10 -0.040791783 -0.041536648
-0.2675618 -8.555882e-22 -1.8984243e-13 -0.0002176675 -0.0027344127 -0.040767446 0.71147496 -0.0019212232
-0.00017496385 -0.00012688781 -1.3535476e-11 0.0092408005 -0.0056374646 -0.0037329702 -6.1598407e-06 -2.265913e-37
-6.563086e-17 -1.3844038e-16 -1.603991e-34 -4.3184124e-20 -0.9379018 -0.047779396 -0.043882534 -0.014169531
-1.12970785e-29 0.10216826 -3.1009944e-07 -0.038329955 -0.022900626 -6.2175745e-09 -0.017505135 -1.5522173e-16
-4.538194e-06 -0.03266421 -0.16029245 -0.00029483414 -1.1753455e-37 -0.01958788 -0.0010235949 -1.5352303e-14
-0.020409476 -4.6118612e-11 -0.05004611 -0.026421426 -2.5562539e-20 -9.144909e-13 -0.08012525 -0.02586751
-0.036319505 -0.45650658 -1.4261056e-09 -0.016320342 -0.0356623 -0.74345076 -2.4131877 -1.0413046
-1.0058408e-18 -0.007676722 -0.021068903 -0.026875487 -0.11764236 -6.1107556e-24 -8.8840453e-13 -0.5222802
-0.030859826 -0.043848235 -1.9671641e-07 -5.4646826e-33 -0.012349523 -3.7045798e-08 -5.7213373e-32 -2.789042e-12
-0.024035245 -5.3839205e-05 -9.760897e-36 -0.023408856 -9.62046e-36 -0.0015721006 -0.0012620996 -5.24241e-10
-1.0721303e-05 -0.0037090278 -0.27415654 -4.7923208e-05 -0.04569283 -0.003921959 -0.016748853 -2.0556876e-20
-0.048510436 -0.01736024 -7.457635e-08 -1.9415512e-07 -1.1289591e-14 -0.90108454 -0.0150552485 -5.4686745e-11
-0.042563926 -1.7731496e-08 -0.02892694 -0.03572029 -6.2373656e-38 -0.19127002 -0.0017276101 -0.010188224
-0.024564352 -2.0892783e-31 -1.8416165e-18 -0.046980213 -3.910318e-06 -0.036730547 -0.0101241935 -0.0010950817
-1.5532794e-21 -0.0023739717 -2.4676854e-08 -2.6712304e-22 -0.00015731755 -1.5058973e-08 -0.011733068 -0.39236957
-0.00045024144 -0.042488012 -0.008718084 -0.24647722 -2.9807457e-31 -0.07122624 -0.014588436 -0.0059857257
00000000: e8d1 36bd c3ee fbbc d259 793e 8b19 b899
00000010: eecc 8ebd a8b3 8eb9 b3cf 00bc e71a c5b0
00000020: aa4e d6b5 5403 25bf dbde 78bd 1ee8 44bc
00000030: d805 2c3e ff55 93bc a0b9 14bd 71e3 00b8
00000040: 4093 91bc 6379 28be 7c96 2eaa 6d77 c4bc
00000050: 196f 07bc a076 99b3 9a8f c1ad 7737 bb87
00000060: e630 18bc 6342 90ba 5bd2 3aa6 6c9c c4bc
00000070: d13a 0dbd c195 08a9 b9b5 873e 60f3 b281
00000080: 814f 1986 e57e 359c d85d d7bc c51c 32ae
00000090: 47c7 34bd c3ea 3abd 0fde f3b8 9c38 21bc
000000a0: 7a49 279b 0dac 3bb0 3e80 10bd ee1f e8ac
000000b0: 36ce a2be d4fd a13d cf54 9483 450e 62bd
000000c0: 0427 bb8c 6b69 4cbc be8e 3f3e b0e8 eea9
000000d0: 0a55 03bd cd6a 9799 0101 6dbc 8e91 e09a
000000e0: 4e18 b1be b2cb dabd f4ca 3fbd a319 ea3e
000000f0: c249 b4b7 b3d7 b3bc e763 18bd f37d 48a5
00000100: 23c4 deba 71b9 7a83 8671 9fbe ef66 23bd
00000110: e2d9 859b 7d8e 1b9d 5608 87b5 45d7 0eb5
00000120: a5eb 29be 5957 e2bb be1c 32b9 bb34 fdbe
00000130: 894c 40bd 444f 24bd 2b8b a783 d936 9bbc
00000140: 8cd1 8aa1 9174 19bc a39d 37ba 61f5 71ad
00000150: 37dd 15a8 c22e 89be a489 34bd cb8a 05bd
00000160: 7334 8797 b656 deb7 7bd7 c1be 4d30 32a6
00000170: 8496 d9bb 0f5e c4ae 6ecd ddb9 9917 52bc
00000180: 8e72 2bbd d4da 58be c2b5 73bb d99d d6b5
00000190: af7b 79bb 4d36 ca9c a959 1ebd 9afa 86b8
000001a0: e037 ceb2 724b 78bb ce4d afa2 6e44 0abf
000001b0: 2c64 3dbd 419d 4bbb 95d3 70b4 d7b8 34bd
000001c0: 4d72 d196 0efa d9bc 78bb 5fbd 1001 50a1
000001d0: 72b9 9cb2 794e 3794 692d 2baf d132 16bd
000001e0: 4281 49bf 2c98 b3bc ea2d 39bd fab2 44bd
000001f0: 69c5 7fbd 0ede adaf 4915 27bd 5522 2abd
00000200: dcfd 88be f74a 819c 5bbe 55aa ad3d 64b9
00000210: d533 33bb c4fb 26bd 3923 363f 8ed1 fbba
00000220: 8076 37b9 300d 05b9 5d1e 6ead ba66 173c
00000230: 7bba b8bb d9a4 74bb a1b0 ceb6 c635 9a82
00000240: 9f55 97a4 639c 1fa5 fc34 5587 67ee 4b9f
00000250: 551a 70bf 54b4 43bd 2cbe 33bd 5227 68bc
00000260: c921 658f 983d d13d be7b a6b4 dfff 1cbd
00000270: 189a bbbc 5da2 d5b1 ee66 8fbc 5ef5 32a5
00000280: ca46 98b6 e8ca 05bd b423 24be f893 9ab9
00000290: d0fa 1f82 c376 a0bc 252a 86ba 0048 8aa8
000002a0: c631 a7bc f1d4 4aae 26fd 4cbd bf71 d8bc
000002b0: 6d6e f19e 02b4 80ab b518 a4bd 1ae8 d3bc
000002c0: c3c3 14bd 3bbb e9be a100 c4b0 3db2 85bc
000002d0: a212 12bd ca52 3ebf ab71 1ac0 7849 85bf
000002e0: 976f 94a1 038d fbbb b198 acbc fb29 dcbc
000002f0: 7aee f0bd fe65 ec98 4b10 7aab 28b4 05bf
00000300: bfcd fcbc 359a 33bd ff38 53b4 79fe e289
00000310: a755 4abc 491c 1fb3 cf88 948b ea42 44ac
00000320: 90e5 c4bc 68d1 61b8 6197 4f85 eec3 bfbc
00000330: c49a 4c85 f10e ceba 096d a5ba 2e1a 10b0
00000340: a5df 33b7 2913 73bb 3f5e 8cbe 2701 49b8
00000350: 6828 3bbd c783 80bb e434 89bc 7a27 c29e
00000360: e1b2 46bd 1037 8ebc c826 a0b3 f478 50b4
00000370: 0d60 4ba8 7aad 66bf 4aaa 76bc cd83 70ae
00000380: 8357 2ebd f94f 98b2 31f8 ecbc 704f 12bd
00000390: 18cc a981 4adc 43be fa70 e2ba 82ec 26bc
000003a0: 2e3b c9bc 179a 878c 27e3 07a2 536e 40bd
000003b0: 6035 83b6 c572 16bd f2df 25bc d888 8fba
000003c0: 96b9 ea9c a394 1bbb faf8 d3b2 4a77 a19b
000003d0: 9cf5 24b9 085b 81b2 0e3c 40bc aae4 c8be
000003e0: 620e ecb9 e907 2ebd 4bd6 0ebc 8664 7cbe
000003f0: 2276 c18c 10df 91bd 5604 6fbc e823 c4bb

bn1.running_mean f4 [400]
0.1139281 -0.24326278 0.62206256 8.0029035e-38 -0.24957348 4.427313e-38 2.6737983e-38 1.042479e-37
6.482135e-05 -24.2927 0.0737586 7.1332504e-38 1.5553644 4.805114e-09 -1.0318601 -4.6828657e-38
-6.799308e-05 -18.74458 7.7422943e-29 0.003715369 7.8664925e-06 6.931389e-25 1.9944832e-26 -8.634336e-38
-9.4819525e-06 8.9111e-38 -2.16038e-31 -0.06277904 -0.8804736 -5.4910424e-38 -7.155516 -1.0190133e-37
-4.579056e-38 2.152891e-38 0.2014524 -9.3861325e-38 0.11500832 0.06403555 6.8123744e-38 -0.0019304053
7.8251875e-38 2.1725202e-17 -0.13360263 -7.613638e-38 -27.577248 -10.394975 -8.69552e-39 -17.08981
-7.5196445e-38 0.0004456293 2.029241 8.029359e-38 0.004608776 -4.4825778e-38 0.0002316604 -6.9137376e-38
30.955719 8.078164 0.38900277 1.8024503 1.1589792e-37 -6.5687125e-08 -0.12063602 -1.7990523e-38
4.7949194e-05 -4.085499e-38 -1.0303669 0.0060315356 6.8406133e-38 2.4104438e-38 5.526682e-22 -9.574794e-39
0.88291943 -8.041853e-26 -5.2230486e-38 0.79406506 -0.33480996 0.22929491 1.1354929e-38 -8.594077e-05
1.4507883e-38 8.98675e-40 1.7590377e-24 -9.222978e-38 -8.407999e-38 11.969399 -0.038299482 0.053840514
5.599951e-38 -1.9283694e-15 30.028564 -4.194796e-38 -2.2048593e-05 5.105395e-38 3.8521722e-10 -1.7081205e-38
0.61994237 18.484463 5.764501e-38 -9.06018e-39 1.1363887e-13 -7.545915e-38 -0.43385845 8.207266e-39
-1.3768071e-24 -1.0635095e-37 -3.8659215e-38 -11.876235 -0.029525321 -0.011314629 3.0154908e-21 -0.18946296
9.085705e-38 0.61140585 -0.04259371 1.1902946e-37 2.4220895e-38 -8.1671475e-38 2.2732938e-29 0.019129407
-12.722676 0.19839305 -0.03904298 0.003208659 -40.878765 -1.9954705e-38 -0.063904785 -0.08285084
31.052338 2.4458958e-38 -1.2208201e-37 1.5989593e-06 2.2313197e-12 0.39562878 -1.5125463 6.5661614e-09
3.984114e-18 8.5595716e-38 -2.8961812e-38 0.1971422 5.9668787e-07 -7.551188e-10 -8.1756943e-38 -1.0705128e-37
1.8927602e-38 5.2437816e-38 1.7665135e-37 2.2260419e-38 -33.11874 -0.14895609 -0.42041573 1.6282936e-37
-1.869855e-39 31.532072 -3.392003e-37 -0.011377509 -0.010865335 6.5942666e-17 -7.2503216e-38 -2.1908707e-38
-8.2634284e-16 -47.648098 34.113354 -4.0957782e-38 -9.48424e-39 0.21889381 2.6981726e-07 -5.916281e-38
-1.6297112e-38 -1.4823405e-38 -0.04842055 0.4178186 5.733422e-38 2.9233404e-38 -8.078008 -0.12347403
0.11283762 -23.056492 -5.734855e-32 0.0002533993 -0.09135931 -57.538353 10.435249 -13.501012
9.724282e-38 1.7063348e-37 0.0019865406 -0.003530162 0.27322635 4.7822516e-38 2.7549057e-38 -20.6648
3.9565704e-38 -0.07862843 5.706576e-39 -9.3831097e-38 6.092072e-05 7.778531e-24 -1.6169042e-38 -1.2485699e-37
-0.6786781 -2.8442337e-38 5.4524574e-38 -0.0076086745 1.8621054e-38 6.577018e-07 6.2426244e-38 -3.8347247e-38
1.6554614e-14 2.5060039e-05 -2.024305 -1.2385607e-37 6.5627853e-16 -1.2193825e-37 0.25384337 -8.570243e-38
0.35250846 2.3358394e-05 2.9680367e-15 7.218067e-38 -8.844228e-39 10.947685 9.462132e-05 1.8423509e-25
0.15082385 2.9204217e-36 -0.082622096 -1.5967823e-12 5.241664e-38 18.77896 -2.1675259e-13 -1.3040533e-37
-0.10637472 -1.7876143e-38 7.817136e-38 -0.33215916 9.399155e-18 -1.2450993e-37 -1.4835308e-07 4.84306e-40
4.4384758e-38 -2.745295e-38 2.277102e-07 4.268905e-38 7.3814115e-11 5.7483077e-28 2.8603275 -8.768331
5.8842753e-10 -0.057814654 1.7752031e-08 2.5038054 -1.7826337e-38 0.81521106 0.0034862661 -1.8169138e-06
00000000: 2353 e93d e119 79be 7e3f 1f3f 19dc d901
00000010: 3190 7fbe bd0b 7101 4f93 1101 17e5 0d02
00000020: b3f0 8738 7357 c2c1 c00e 973d 802f c201
00000030: 2e16 c73f 3b1a a531 fe13 84bf 9ff5 7e81
00000040: 8297 8eb8 e6f4 95c1 5d4a c410 8c7d 733b
00000050: 54fa 0337 1f84 5617 2886 c514 8a0c eb81
00000060: ad14 1fb7 4e95 f201 7837 8c8c 4c92 80bd
00000070: b866 61bf fb7a 9581 fdf9 e4c0 6eb3 0a82
00000080: ba4e 7981 d86d ea00 8a49 4e3e cc83 ff81
00000090: 7b89 eb3d 1225 833d 5273 b901 a705 fdba
000000a0: 9905 d501 2f61 c823 21cf 08be 5043 cf81
000000b0: 349e dcc1 d151 26c1 92af 5e80 eeb7 88c1
000000c0: 46b4 cc81 5aa3 e939 16df 0140 7794 da01
000000d0: 3705 973b 040e 7481 dde9 7239 b835 bc81
000000e0: 50a5 f741 2940 0141 5f2b c73e b1b6 e63f
000000f0: 88c0 1d02 e10f 8db3 0510 f7bd 42e6 c380
00000100: 0e1d 4938 8c6f 5e81 10e3 83bf 30a4 c53b
00000110: 1e38 ba01 af3c 0301 a108 271c a142 6880
00000120: 0207 623f 4d1b c795 562f 8e81 d947 4b3f
00000130: 366c abbe 49cc 6a3e eca4 7b00 193b b4b8
00000140: 13fa 9d00 24c9 0900 5519 0818 c712 fb81
00000150: 33e3 e481 a982 3f41 ebdf 1cbd df87 5c3d
00000160: f671 9801 23f4 0aa7 803a f041 ec62 6481
00000170: fef4 b8b7 69fb 8a01 81c6 d32f 73ff b980
00000180: 8bb4 1e3f 2ee0 9341 b5ec 9c01 19a8 6280
00000190: 59e4 ff29 5a6b cd81 b222 debe 855e 5900
000001a0: f30c d597 e6c1 1082 157b 5281 0f05 3ec1
000001b0: 16df f1bc fe60 39bc 13d8 631d 9402 42be
000001c0: 1f56 f701 1885 1c3f be76 2ebd b703 2202
000001d0: 00df 0301 b654 de81 158a e60f 46b5 9c3c
000001e0: 1590 4bc1 8c27 4b3e 88eb 1fbd 5d48 523b
000001f0: db83 23c2 9949 d980 83e0 82bd b4ad a9bd
00000200: 306b f841 d02a 0501 5f2b 2682 d39b d635
00000210: e203 1d2c db8f ca3e 1e9b c1bf 919c e131
00000220: e5fc 9222 8203 e901 e0ae 1d81 a5df 493e
00000230: 142c 2035 c390 4fb0 4690 de81 edb5 1182
00000240: 741a ce00 d3bf 8e01 0372 7002 fe64 f200
00000250: 9779 04c2 f287 18be bb40 d7be c0a1 5d02
00000260: 655c 1480 af41 fc41 07d9 e682 bb68 3abc
00000270: 8504 32bc ae0d 9824 5e5f c581 9090 ee80
00000280: 572d 6ea6 a797 3ec2 1374 0842 d1fe 5e81
00000290: 3446 6780 b325 603e 67db 9034 760e a181
000002a0: b875 b180 9f69 a180 a054 46bd 52ec d53e
000002b0: 1f14 9c01 6b29 1f01 853f 01c1 f4df fcbd
000002c0: 6917 e73d b273 b8c1 a6e2 948b aeda 8439
000002d0: 971a bbbd 4627 66c2 c8f6 2641 2504 58c1
000002e0: 2d5c 0402 1741 6802 9f30 023b 4a5a 67bb
000002f0: 53e4 8b3e 6e2f 8201 c8fd 1501 8351 a5c1
00000300: 8b6a 5701 f107 a1bd 9d23 3e00 bb6e ff81
00000310: 2085 7f38 6b75 1619 b610 b080 50f2 2982
00000320: d9bd 2dbf d5da 1a81 156e 9401 3052 f9bb
00000330: ecc3 ca00 ec8c 3035 bef0 a901 43c8 5081
00000340: 571c 9528 0638 d237 378e 01c0 8b95 2882
00000350: cf28 3d26 47f9 2582 c2f7 813e e04d e981
00000360: fd7b b43e c5f1 c337 9dde 5527 967e c401
00000370: 1c4e 6080 b829 2f41 6f6f c638 6e12 6416
00000380: 9171 1a3e 2771 7804 c635 a9bd 25ba e0ab
00000390: 11b1 8e01 4f3b 9641 ae0a 74aa a07f 3182
000003a0: fdda d9bd 6aa7 c280 7dcd d401 c410 aabe
000003b0: 4162 2d23 6179 2982 fc4a 1fb4 0c46 0500
000003c0: 53a7 7101 d477 1581 8180 7434 da6b 6801
000003d0: a751 a22e d02b 3612 9b0f 3740 154b 0cc1
000003e0: e8be 2130 0fcf 6cbd 217d 9832 593e 2040
000003f0: 931c c280 acb1 503f d779 643b afdc f3b5

bn1.running_var f4 [400]
8.344472 10.736657 101.70813 6e-45 14.114398 6e-45 6e-45 6e-45
8.0921416e-07 229.38736 15.345339 6e-45 30.664015 2.6978304e-15 7.470276 6e-45
3.3656735e-07 309.69928 6e-45 0.0018882812 3.3782035e-09 6e-45 6e-45 6e-45
5.8704632e-08 6e-45 6e-45 2.2944453 10.840967 6e-45 141.17813 6e-45
6e-45 6e-45 1.9310362 6e-45 2.3629808 0.47623965 6e-45 0.007059682
6e-45 6.6073897e-32 2.082657 6e-45 427.01593 716.9295 6e-45 540.0479
6e-45 3.830325e-05 216.16309 6e-45 0.006237149 6e-45 2.7245552e-08 6e-45
651.72943 3007.8254 7.4322515 45.258617 6e-45 4.0140715e-13 1.9878192 6e-45
2.000694e-06 6e-45 117.62621 2.362966 6e-45 6e-45 6.1813e-41 6e-45
16.12649 6e-45 6e-45 34.07386 15.166355 7.208215 6e-45 1.4182993e-06
6e-45 6e-45 6e-45 6e-45 6e-45 87.088745 0.23931493 0.12971275
6e-45 6.9289504e-28 553.1662 6e-45 1.2172366e-07 6e-45 2.1266825e-16 6e-45
5.9567657 471.74408 6e-45 6e-45 1.1996028e-24 6e-45 5.4547358 6e-45
6e-45 6e-45 6e-45 1473.2181 0.7741261 0.012649727 8.50842e-40 3.049321
6e-45 12.8427305 2.4365838 6e-45 6e-45 6e-45 6e-45 1.7066417
947.5095 6.4943037 2.0288804 0.30025065 433.2892 6e-45 2.235061 0.3299374
525.64874 6e-45 6e-45 4.8075965e-10 9.32198e-22 4.1514955 16.15527 1.0682241e-14
2.9845058e-33 6e-45 6e-45 1.1658432 3.304105e-11 3.5029044e-17 6e-45 6e-45
6e-45 6e-45 6e-45 6e-45 389.24045 1.2451506 7.863433 6e-45
6e-45 226.42789 6e-45 0.7200476 0.38636932 8.086268e-31 6e-45 6e-45
6.350963e-29 320.10065 259.71063 6e-45 6e-45 5.664784 4.813137e-12 6e-45
6e-45 6e-45 2.2464852 4.6410956 6e-45 6e-45 1444.4788 2.9003356
0.7563998 435.95358 6e-45 8.515977e-05 6.592491 570.4998 766.7414 1674.2395
6e-45 6e-45 0.039142653 0.003158854 359.46823 6e-45 6e-45 155.6516
6e-45 3.9904091 6e-45 6e-45 1.2383633e-06 2e-44 6e-45 6e-45
7.529238 6e-45 6e-45 0.0032937473 6e-45 2.5296308e-11 6e-45 6e-45
2.0576945e-26 1.8166288e-07 179.35526 6e-45 1.8369789e-29 6e-45 3.9394252 6e-45
20.82822 5.1231364e-08 1.6418345e-27 6e-45 6e-45 431.79285 1.6741885e-06 6e-45
0.84815943 6e-45 6.009975 1.0799795e-21 6e-45 1575.9921 2.9327318e-24 6e-45
0.86770207 6e-45 6e-45 6.864879 8.308514e-33 6e-45 2.0454862e-12 6e-45
6e-45 6e-45 9.719379e-12 6e-45 5.057605e-19 6e-45 132.63306 419.16516
6.487694e-17 4.643606 5.925194e-14 885.60626 6e-45 8.959105 0.11113968 3.5505918e-10
00000000: f582 0541 59c9 2b41 906a cb42 0400 0000
00000010: 93d4 6141 0400 0000 0400 0000 0400 0000
00000020: c638 5935 2a63 6543 8286 7541 0400 0000
00000030: e74f f541 3066 4227 800c ef40 0400 0000
00000040: 77b1 b434 82d9 9a43 0400 0000 3480 f73a
00000050: fc25 6831 0400 0000 0400 0000 0400 0000
00000060: 6d22 7c33 0400 0000 0400 0000 31d8 1240
00000070: 9a74 2d41 0400 0000 9a2d 0d43 0400 0000
00000080: 0400 0000 0400 0000 322c f73f 0400 0000
00000090: 143b 1740 afd5 f33e 0400 0000 e854 e73b
000000a0: 0400 0000 a389 ab0b 414a 0540 0400 0000
000000b0: 0a82 d543 7d3b 3344 0400 0000 1103 0744
000000c0: 0400 0000 cda7 2038 c029 5843 0400 0000
000000d0: ff60 cc3b 0400 0000 9a09 ea32 0400 0000
000000e0: afee 2244 35fd 3b45 01d5 ed40 d308 3542
000000f0: 0400 0000 def8 e12a dc70 fe3f 0400 0000
00000100: a943 0636 0400 0000 9f40 eb42 d63a 1740
00000110: 0400 0000 0400 0000 4fac 0000 0400 0000
00000120: 0d03 8141 0400 0000 0400 0000 a24b 0842
00000130: 64a9 7241 b3a9 e640 0400 0000 655c be35
00000140: 0400 0000 0400 0000 0400 0000 0400 0000
00000150: 0400 0000 702d ae42 f90e 753e 6bd3 043e
00000160: 0400 0000 5396 5b12 a34a 0a44 0400 0000
00000170: 25b3 0234 0400 0000 9730 7525 0400 0000
00000180: d39d be40 3edf eb43 0400 0000 0400 0000
00000190: 2aa1 b917 0400 0000 328d ae40 0400 0000
000001a0: 0400 0000 0400 0000 0400 0000 fb26 b844
000001b0: 212d 463f cd40 4f3c cd43 0900 1328 4340
000001c0: 0400 0000 d37b 4d41 fdf0 1b40 0400 0000
000001d0: 0400 0000 0400 0000 0400 0000 3c73 da3f
000001e0: 9ce0 6c44 56d1 cf40 2dd9 0140 74ba 993e
000001f0: 05a5 d843 0400 0000 3d0b 0f40 8eed a83e
00000200: 8569 0344 0400 0000 0400 0000 7426 0430
00000210: aade 8c1c 0dd9 8440 fe3d 8141 246f 4028
00000220: 6bf1 7709 0400 0000 0400 0000 5a3a 953f
00000230: ea50 112e ff8a 2124 0400 0000 0400 0000
00000240: 0400 0000 0400 0000 0400 0000 0400 0000
00000250: c79e c243 1861 9f3f 3ea1 fb40 0400 0000
00000260: 0400 0000 8a6d 6243 0400 0000 0a55 383f
00000270: 33d2 c53e 0b35 830d 0400 0000 0400 0000
00000280: 1b04 a110 e20c a043 f6da 8143 0400 0000
00000290: 0400 0000 e945 b540 e258 a92c 0400 0000
000002a0: 0400 0000 0400 0000 6ac6 0f40 db83 9440
000002b0: 0400 0000 0400 0000 528f b444 199f 3940
000002c0: 6ba3 413f 0ffa d943 0400 0000 ce97 b238
000002d0: b0f5 d240 fd9f 0e44 73af 3f44 aa47 d144
000002e0: 0400 0000 0400 0000 0c54 203d c704 4f3b
000002f0: efbb b343 0400 0000 0400 0000 cfa6 1b43
00000300: 0400 0000 dd62 7f40 0400 0000 0400 0000
00000310: d735 a635 0e00 0000 0400 0000 0400 0000
00000320: 85ef f040 0400 0000 0400 0000 e9db 573b
00000330: 0400 0000 3982 de2d 0400 0000 0400 0000
00000340: c1c8 cb14 1d0f 4334 f25a 3343 0400 0000
00000350: b34a ba0f 0400 0000 8b1f 7c40 0400 0000
00000360: 32a0 a641 7b09 5c33 5c14 0213 0400 0000
00000370: 0400 0000 7ce5 d743 aeb4 e035 0400 0000
00000380: fa20 593f 0400 0000 b751 c040 af33 a31c
00000390: 0400 0000 bfff c444 bde8 6218 0400 0000
000003a0: b921 5e3f 0400 0000 0400 0000 17ad db40
000003b0: a38f 2c0a 0400 0000 34f0 0f2c 0400 0000
000003c0: 0400 0000 0400 0000 31fc 2a2d 0400 0000
000003d0: 2f46 1521 0400 0000 10a2 0443 2495 d143
000003e0: 9698 9524 6c98 9440 6b6c 8529 cd66 5d44
000003f0: 0400 0000 7e58 0f41 339d e33d 2332 c32f

fc2.weight f4 [300, 402]
-0.00013630398 0.0065618153 -0.4778122 -4.484804e-39 -0.013381197 -8.09139e-40 -1.74683e-40 7.331617e-39
-4.868104e-39 0.08390234 0.03925311 5.026104e-39 -0.33997476 -1.2099291e-13 0.04354075 1.3555068e-13
1.464776e-39 -1.5588856 1.993609e-39 1.488944e-18 5.022653e-39 7.2155e-39 -7.5718e-39 -3.883205e-39
5.014396e-22 9.778732e-25 4.194001e-39 -3.999243e-05 0.0421415 2.3574356e-26 -0.35065445 6.72075e-40
-1.3301128e-37 -4.26673e-39 -2.7800058e-06 -7.384927e-13 -0.008811834 0.00022639283 -4.2841853e-06 1.2088114e-15
-7.013741e-39 3.889947e-39 -0.0010686758 -4.388839e-39 -3.3387823e-05 0.010719968 2.808931e-39 0.11426227
-3.53026e-40 -2.04444e-39 -0.7404643 -8.3907063e-14 4.6412023e-28 -6.006098e-39 -5.2655034e-37 9.619193e-37
0.22261368 0.4499938 0.010754448 0.6729194 6.5608473e-31 5.24344e-39 0.004676104 2.5130287e-18
-6.64694e-39 3.174871e-39 0.112902254 -0.00011793645 6.309838e-39 -1.5101876e-22 8.5108e-40 1.824428e-39
5.1854784e-08 -0.011907484 6.851123e-39 -0.017939111 0.058241125 -0.0014145542 -3.693474e-39 7.8471465e-18
-6.02433e-39 -7.842277e-14 -2.96918e-40 -4.759167e-39 -2.957854e-39 0.24240047 3.59077e-39 -1.3434767e-10
-7.209777e-39 -3.086e-40 -0.14207853 -4.485702e-39 -3.3743248e-26 5.274131e-39 -2.749493e-39 1.344093e-39
-0.051258452 -0.7505573 4.491106e-39 -1.018088e-33 3.055723e-39 -2.130077e-39 0.0012071164 1.951238e-09
-5.403956e-39 3.583849e-39 1.66647e-40 1.0264957 -9.380668e-05 -7.209969e-39 4.289412e-39 -4.3089076e-05
-1.506257e-39 -0.038161483 0.00046943463 5.200234e-39 -7.079542e-39 -4.307261e-39 3.490919e-39 6.69474e-17
-0.5145386 0.0004945435 4.420711e-06 -0.00015987949 -0.12726294 7.412625e-39 -0.006111594 -0.0007857247
-0.81111157 -3.3595418e-22 6.480669e-39 -3.482647e-39 9.06196e-40 0.04044194 -0.089265846 1.8593334e-27
-7.89801e-40 7.270865e-39 1.028905e-39 0.01604171 -3.60681e-39 -4.122337e-39 1.550301e-39 7.582853e-39
3.481606e-39 6.054466e-39 -1.3193019e-34 -5.572199e-39 0.46595192 1.770658e-15 0.0075589623 3.2450128e-18
2.9555774e-34 -0.76416373 3.38305e-39 -9.0402245e-06 8.683916e-11 4.380312e-39 3.500109e-39 6.744684e-39
-5.947922e-39 -2.085602 -0.44473258 6.991887e-39 3.276701e-39 0.0012760678 -1.16704e-39 -5.721001e-39
4.2076854e-06 -1.197693e-39 -0.00044799305 0.008116727 -5.5142e-41 -2.871845e-39 -1.3352268 1.1137272e-24
-8.646524e-13 -0.2725569 6.06332e-39 -2.69957e-39 0.0022848446 0.056032334 -0.21345063 0.35223868
-2.3565143e-27 -7.460523e-39 4.369917e-09 3.947855e-14 0.43024728 -5.810464e-39 -2.97193e-39 -0.52331775
6.749303e-07 0.007865506 -3.848648e-39 1.1131565e-34 -1.3458943e-35 -1.334234e-39 -9.090951e-37 6.27797e-40
-0.019833392 6.437345e-39 5.522678e-39 -5.816571e-29 3.00808e-40 5.885033e-39 1.6679273e-11 -5.252168e-39
-7.290778e-39 6.955891e-39 0.020494808 -0.00023790415 -6.528323e-24 7.492615e-39 0.0022710182 5.40699e-39
-0.04483739 -5.141996e-19 5.015289e-39 3.013271e-39 -6.903208e-39 0.010273449 -7.4619375e-31 1.985906e-39
-0.011950056 6.801938e-39 0.0032884849 0.027943028 -3.079013e-39 -0.48666406 -3.286043e-39 8.95891e-40
-0.00068212894 4.236834e-39 2.7098e-39 0.008293617 -3.494676e-39 -7.168716e-39 -3.7757997e-20 -3.464789e-39
-9.2718276e-29 1.669511e-39 -8.53549e-40 -3.93382e-39 4.71526e-39 -6.608288e-39 -0.5901887 -0.46214175
3.268669e-39 -0.008416636 4.614743e-39 0.21888174 -2.3800727e-35 -0.044496853 -1.833465e-39 3.88347e-40
00000000: d2ec 0eb9 7f04 d73b cda3 f4be cfd5 3080
00000010: cf3c 5bbc 8dcf 0880 f2e6 0180 91d5 4f00
00000020: 4b02 3580 fdd4 ab3d dec7 203d bcba 3600
00000030: 2c11 aebe d539 08aa c957 323d d39d 182a
00000040: 33f3 0f00 9089 c7bf 5fb5 1500 b7ba db21
00000050: 1db1 3600 e191 4e00 1973 5280 cc48 2a80
00000060: 038d 171c 8c51 9717 2bab 2d00 8bbd 27b8
00000070: 919c 2c3d 1878 e914 fb88 b3be 7951 0700
00000080: ab0b 3582 e875 2e80 2390 3ab6 02de 4fab
00000090: 835f 10bc dd63 6d39 dfc0 8fb6 4535 ae26
000000a0: 755f 4c80 975b 2a00 cf12 8cba 4cca 2f80
000000b0: e709 0cb8 cea2 2f3c 2896 1e00 5602 ea3d
000000c0: 18d8 0380 1143 1680 128f 3dbf 21f1 bca9
000000d0: e815 1312 8f66 4180 012d 3383 7fa9 a303
000000e0: d7f4 633e 9665 e63e 6d33 303c 7244 2c3f
000000f0: 63e9 540d 9418 3900 013a 993b c56d 3922
00000100: f760 4880 4092 2200 4c39 e73d a654 f7b8
00000110: 43b5 4400 0b92 369b 7744 0900 c3dd 1300
00000120: f0b6 5e33 9c17 43bc 259a 4a00 0bf5 92bc
00000130: 3f8e 6e3d 9068 b9ba e737 2880 1ac1 1023
00000140: 6299 4180 a697 b0a9 b03b 0380 9fd2 3380
00000150: 4b35 2080 d437 783e 9b19 2700 82b7 13af
00000160: ed81 4e80 405c 0380 097d 11be 50d8 3080
00000170: a616 2795 226e 3900 78f0 1d80 c9a2 0e00
00000180: 62f4 51bd 8624 40bf 60e7 3000 ad28 a988
00000190: 1d46 2100 ca31 1780 1b38 9e3a 8b16 0631
000001a0: 08d8 3a80 5006 2700 8bd0 0100 3664 833f
000001b0: 14ba c4b8 7682 4e80 23b5 2e00 8bba 34b8
000001c0: d566 1080 374f 1cbd 731e f639 23a0 3800
000001d0: e216 4d80 e4e6 2e80 4303 2600 c55e 9a24
000001e0: cdb8 03bf 41a4 013a 9e55 9436 53a5 27b9
000001f0: 3751 02be 62b7 5000 c443 c8bb 18f9 4dba
00000200: 02a5 4fbf 6412 cb9b 7891 4600 34ec 2580
00000210: 1bde 0900 73a6 253d 03d1 b6bd c34f 1313
00000220: a599 0880 372c 4f00 2b34 0b00 e769 833c
00000230: 5246 2780 66e3 2c80 9ce1 1000 e991 5200
00000240: 4de9 2500 63ed 4100 845d 2f87 06ad 3c80
00000250: 4091 ee3e c02d ff26 2cb1 f73b 8f70 6f22
00000260: 8b6e c407 3ca0 43bf 91d6 2400 78ab 17b7
00000270: 1af6 be2e 87b2 2f00 e11c 2600 6f71 4900
00000280: 63c4 4080 817a 05c0 fdb3 e3be 8922 4c00
00000290: 1cae 2300 bb41 a73a 3cb5 0c80 d34b 3e80
000002a0: be2f 8d36 ae0a 0d80 9ce0 eab9 05fc 043c
000002b0: b799 0080 8945 1f80 b6e8 aabf 4857 ac17
000002c0: c660 73ab 948c 8bbe 1206 4200 4e65 1d80
000002d0: 55bd 153b 2982 653d cd92 5abe a158 b43e
000002e0: cab3 3a93 e73c 5180 3226 9631 abcb 3129
000002f0: 5f49 dc3e 3645 3f80 885c 2080 27f8 05bf
00000300: db2c 3535 53de 003c 77e8 2980 c1f6 1307
00000310: ba1e 8f85 4d87 0e80 adac 9a83 0bd6 0600
00000320: a379 a2bc b318 4600 fb22 3c00 b477 9390
00000330: 8846 0300 1415 4000 62b6 922d e830 3980
00000340: b963 4f80 32be 4b00 bae4 a73c e975 79b9
00000350: 618d fc98 5d96 5100 5dd5 143b 7de0 3a00
00000360: 69a7 37bd d3c3 17a1 969c 3600 c6cf 2000
00000370: 562b 4b80 f851 283c 5a27 728d e69f 1500
00000380: 2bca 43bc 0911 4a00 9f83 573b c7e8 e43c
00000390: 0987 2180 082c f9be 27c8 2380 61c1 0900
000003a0: e6d0 32ba 9222 2e00 d281 1d00 f3e1 073c
000003b0: bc0d 2680 770f 4e80 9e4e 329f 6cba 2580
000003c0: 9a11 eb90 eb2d 1200 594b 0980 e4d5 2a80
000003d0: 3a58 3300 38f5 4780 9b16 17bf d89d ecbe
000003e0: b897 2300 eee5 09bc 0740 3200 8922 603e
000003f0: be17 fd85 5542 36bd f4f6 1380 8e3a 0400
