project_3-Collaboration_and_Competition/critic.pth (torch, 534994 bytes, 9 tensors)

fc1.weight f4 [400, 24]
00000000: f661 053e af4d 8d3f 3133 7abd db3b 76bf
00000010: 0aef 893f 0f39 883e bc16 5fbd ef0b 71bf
00000020: 7c1a 853e da22 833f 5d6f 31bd 663e bdbe
00000030: 0f8b 863e 0966 f03f 5468 f3bc 805a a2be
00000040: 4ee3 9a3f ffc0 553f 759b b6bd a450 22c0
00000050: 4300 06bf dfbd 4940 602b 30bd 8687 23c0
00000060: f56f 3f3f 6953 fe3f bf29 c5be 00ab 87be
00000070: 4532 1c3f 6d52 23c0 8653 bebe a337 5ebe
00000080: d841 e8be b2af 0640 d410 88be 57d2 133f
00000090: bf81 4abe f86a 29c0 12a7 4bbe 49a5 073f
000000a0: a89f a6bd 0edf f03f bf59 053f a5a9 42bf
000000b0: e836 66bf 001a c3bf 94eb fb3e 9ff7 4ebf
000000c0: d04b 46bf 0878 69bf 9c2c 6b3e c73a 053f
000000d0: a902 373f a4ea 943f f24a 943e 3d0e f53e
000000e0: f54c 8b3e 1613 a9bf 0c99 ae3f 1118 c4be
000000f0: 06dd b13f 95c9 493f 5f6a a93f 4aed ebbe
00000100: b322 d33e 4dc1 67bf ba05 163d 9950 82bf
00000110: c1fe b83e 13f2 2b3f abb5 2c3d 9968 88bf
00000120: 1e36 e43e 9cf3 8f3f a0a6 0abe 5c20 90bd
00000130: e259 35bf d488 3b3f b22f 05be d1bb afbd
00000140: 77e2 503f 078f 273e fa35 44be 4829 e5be
00000150: a7d8 3ebf 5f46 5440 d3c2 01be 55ba d9be
00000160: b5c5 ff3f da77 01bf a52a 01be d5c3 b9bf
00000170: 37a3 2e3f 9c52 3f40 5882 1fbe 8f10 b0bf
00000180: ac39 5abf 4c28 01c0 40a5 113f 1d77 663f
00000190: 3e33 013f a267 34bf c19b 053f 1c99 633f
000001a0: 727b bbbf bbce 11c0 4daa 063f ba72 a4bd
000001b0: d4b4 6e3e 752b 4abf 138a 193f f33b c9bd
000001c0: 5a24 ccbf dfbb 22c0 eeef bfbe 4174 48bf
000001d0: 8f13 8f3e b3c5 66bf e209 cdbe cd10 4cbf
000001e0: abef b43e 2b5e 32c0 4287 bc3d 9407 f33f
000001f0: 82dc 153e 88a0 bbbe c261 b43d 7a29 f33f
00000200: 5bb3 49bc d251 18c0 a7df 4d3f 73ee 1e3f
00000210: 78dc aabe 9c36 493f 7221 593f b796 0f3f
00000220: be93 9dbb c685 47c0 6c88 443e e017 fdbe
00000230: 58dd 30bf b3de d83f 5b5d 463e 52f0 e9be
00000240: 1650 183f 6ff9 05bf 844f 1d3e 8bd8 363f
00000250: 03b7 d33f 7cc9 fb3e adbf 173e e1d3 353f
00000260: 0817 9e3e aff4 8abf f560 543d ebe9 e8bf
00000270: 17b3 5a3f ac0d 1e3f 0476 243d 04b0 e8bf
00000280: a4cd 93be 551a 2abf 3624 43bf 50c1 d53f
00000290: 1713 4f3f 176a 203f 6762 43bf c467 dc3f
000002a0: 9883 eebe 8256 17c0 eeb7 363c 367a 9b3d
000002b0: d300 983f d834 bcbe 21ec a0bb 2e15 a13d
000002c0: 3c9b df3d 48ef 77bf a766 87bd 3690 b1bd
000002d0: 6f24 fabd fc68 babe c0fb 913c 4164 05be
000002e0: d4cd 103f 972c bb3e cd09 853c ce60 9bbe
000002f0: 09c7 0dc0 768c 3d40 7d1d 4ebd 999d 82be
00000300: 0c44 35be 4dd8 9f3d bf39 bd3e 4b8a 693e
00000310: 1fe1 b03f a97f 213f c2b7 bf3e bc8c 593e
00000320: d64d 13be cf14 fbbe b34b f73e e7ea b53e
00000330: 04d3 b73f 841a 3a40 702a 023f 5f7c dc3e
00000340: 460a 773f f04b babe a49c 07be 56c9 5a3f
00000350: d370 77bf 5cfe 173f 855c 6fbd e9ff 5d3f
00000360: b833 2a40 3b91 d0bf afed adbd 576f 6c3f
00000370: c571 1d3f c2ac cd3e a935 4abc 71b3 733f
00000380: 2e8e 0140 c9a6 80bf 3ab0 80be 7e5a 8e3f
00000390: 3ebe 1e3e 1453 a53f 667f 8dbe 526c 863f
000003a0: 2bac 463f faf7 c23e af64 d13d d5a7 d23f
000003b0: faf8 50bf e299 e23f a8ac 253e a84e ce3f
000003c0: 9462 7fbe 46fa a93d 0f56 613b 32be 83bf
000003d0: c8be f13e e4a5 39be e296 0ebc 3f76 7cbf
000003e0: b957 13bf 831e abbe 58e2 bf3c 20ad a93d
000003f0: c02d 91be 9572 d63f 0f5d ebbc 5180 863d
0.1302565 1.1039332 -0.061083976 -0.9618508 1.0776074 0.26606032 -0.05446504 -0.94158834
0.25996768 1.0245011 -0.043319095 -0.3696167 0.26277968 1.8781139 -0.029712833 -0.3170967
1.2100618 0.83497614 -0.0891637 -2.536172 -0.5234415 3.1522138 -0.043010116 -2.5551467
0.7478021 1.9869205 -0.38508412 -0.2649765 0.61014205 -2.5519059 -0.37173098 -0.21700911
-0.45362735 2.1044736 -0.2657534 0.5774283 -0.19776057 -2.6471539 -0.19887951 0.5298658
-0.08135921 1.8818071 0.52090067 -0.76040107 -0.8992753 -1.524231 0.4920317 -0.8084659
-0.7745943 -0.9119878 0.22966236 0.5204281 0.71488434 1.1634107 0.2896343 0.47862425
0.2720715 -1.320895 1.3640456 -0.3829961 1.3895576 0.78823215 1.3235587 -0.46079475
0.4123741 -0.9052933 0.036626555 -1.0180846 0.36131862 0.6716625 0.04216544 -1.0656921
0.44572538 1.1246219 -0.13540125 -0.07037422 -0.70840275 0.7325566 -0.13006476 -0.08580745
0.8159556 0.16363154 -0.19161215 -0.44758058 -0.74549335 3.316795 -0.12671976 -0.42524973
1.998221 -0.50573504 -0.12613924 -1.4512888 0.68217796 2.989417 -0.15577066 -1.3755053
-0.8524425 -2.0180845 0.56892776 0.900255 0.50468814 -0.7047063 0.52190787 0.889055
-1.4647048 -2.2782428 0.5260361 -0.08029695 0.23311168 -0.7897256 0.5997631 -0.098258875
-1.5948594 -2.5427167 -0.3748774 -0.7830239 0.2794461 -0.90145415 -0.40046602 -0.79713136
0.35339102 -2.7869976 0.09205486 1.8986688 0.14634898 -0.36645913 0.08807708 1.8997033
-0.012310828 -2.379994 0.8041939 0.62082595 -0.3337133 0.7859895 0.8481666 0.5608935
-0.004808872 -3.11754 0.19192666 -0.49432278 -0.69087744 1.6942962 0.1937155 -0.45691162
0.594972 -0.5233373 0.15362364 0.7142417 1.6540226 0.49177158 0.14819212 0.71026427
0.30876946 -1.0855922 0.051850278 -1.8196386 0.8542952 0.6173961 0.04015161 -1.8178716
-0.2886783 -0.6644643 -0.7622713 1.6699619 0.80888504 0.6266188 -0.76322025 1.7219167
-0.46584773 -2.364655 0.011152251 0.07591669 1.1875252 -0.36759067 -0.0049109613 0.07865368
0.109182805 -0.9684949 -0.06611376 -0.08670084 -0.122139804 -0.36408222 0.017820239 -0.13026525
0.5656407 0.36557457 0.016240025 -0.30347294 -2.2152731 2.961698 -0.05032109 -0.25510862
-0.17701739 0.07804928 0.3695812 0.22806661 1.3818702 0.6308542 0.37444884 0.21245092
-0.14385161 -0.49039313 0.4829994 0.3553078 1.4361272 2.9078684 0.50846004 0.43063638
0.9650005 -0.3638606 -0.13243347 0.85463464 -0.9665653 0.59372497 -0.058437843 0.8671861
2.6594067 -1.6294321 -0.084926 0.9235739 0.61501724 0.40170866 -0.012341895 0.9519568
2.024303 -1.0050899 -0.2513445 1.1121366 0.15502259 1.2915978 -0.2763626 1.0501807
0.7760646 0.38079816 0.10224282 1.6457468 -0.8162991 1.7703211 0.16179144 1.6117754
-0.24939948 0.08299689 0.003438357 -1.0292418 0.47215867 -0.18129689 -0.008702965 -0.9861793
-0.5755573 -0.33421716 0.023423359 0.08284974 -0.28355217 1.6753718 -0.028730897 0.06567443

fc1.bias f4 [400]
00000000: f46e 373e fd78 1e3d d4b7 21bd b2db 1f3e
00000010: 3faf 1a3c 6a00 78bb 9de1 f23b e46a 01be
00000020: d466 75bd 58ab 3cbe 2cd6 9dbc d1b3 49be
00000030: 3e77 f93c b274 0939 9b33 953d 0c65 02be
00000040: af1d c7ba 6dd4 68bd 88ad f9bd 7603 233e
00000050: 1354 4dbe bb13 143e d9ed 4dbd 85d7 eabd
00000060: 7af5 4abe 4ab1 46be ce16 90bd 07dd 063e
00000070: 390c 263d 3bac 18be 8c16 303e 213c 2b3e
00000080: cf65 ad3d 7158 4c3e db25 0a3e 2314 ee3c
00000090: 4099 103e 8831 eebd d962 d8bc ca20 dabd
000000a0: 9412 13bd 035a 25be 8421 0e3e d546 a5bd
000000b0: 9d7e 803d 249e 3f3e 91ba 8c3d 8a9d 2e3c
000000c0: 4177 4f3e d7f1 4ebe f5a1 413e 612a 35be
000000d0: 439d 4f3e feb2 853c 1c00 00be 26df 8ebd
000000e0: 8695 d6bd 8aa2 fa3d 7b77 333e 7254 fc3d
000000f0: c4fc 183e 8c96 493e 3644 38be df41 af3d
00000100: bf83 893c ded5 fb3d b23a 6c3d b341 a53b
00000110: 6f0d 0b3e 8c47 a9bd a84a 1fbe 529b 12be
00000120: 2af1 153e 82a9 953b a517 2abe a5b5 903d
00000130: 4818 dcbb 66be f7bd 2b33 373e 1ccc f23d
00000140: 5e2e 313e f6c7 09bd bb4b 01be 607c 30be
00000150: 9f80 c43c 666b 12be e548 f93d 8db7 3cbe
00000160: 9d64 14be 3df2 f23c 6082 4c3d 1dd6 dabc
00000170: ddd2 2ebd 74ec d3bd 8a7d 71bd e977 d83c
00000180: b2cd 3bbe acb5 11bd f3b8 04bd 6fe0 903b
00000190: 08f1 1a3e c729 2fbe 15b4 903d 6ad7 9a3d
000001a0: da45 663d f948 70bd 5d88 f23d 59e4 13be
000001b0: 6de5 a8bd 195f b1bb 8363 f6bc 7e92 4ebe
000001c0: e4ca df3d 69db f63d 168f 39be bb9c 1a3a
000001d0: fefc 2fbe 2c2e 19bd 060c c63c 9200 363e
000001e0: f6cf 123e 740a d73d 4842 e03c 9a1f 41be
000001f0: 4ca1 86bd 43a6 3a3e 5f0f 843c ace5 3bbd
00000200: 6be2 8fbd e5ce cd3d 848e 033e 89b1 91bc
00000210: c2fe 743d 0169 193e 6682 0b3e 970d d93d
00000220: 3dde 0e3e 3703 983d c432 653d 62c2 4dbe
00000230: 5687 23bd 3db4 79bd 00ad 2f3d 94af 6ebd
00000240: 49d1 3ebe 461b 2f3e 4ad5 b6bd 2462 46be
00000250: 7c57 adbd f706 2f3d 4d5c 8dbd f5e4 50be
00000260: 7012 8b3d 2328 a13d f895 423e 6fa5 4ebe
00000270: 91bc 1dbd d947 a0bd e67b 90bd 0c83 773b
00000280: 3bf8 423e 116a aebc 79a0 333e 1c34 e43c
00000290: 01ce d9bd d0ce a0bc 886b d83d a55b f73d
000002a0: 7a04 8bbd e8e3 d0bc 05ad 2ebe 346b 05be
000002b0: 3dec 5cbd c74a f93d 0a62 513c e661 dc3d
000002c0: a9d6 2dbe d273 293d cdf7 28be a2e6 74bd
000002d0: 20f8 283e a847 133c 58ee 1cbe b7d4 4dbe
000002e0: f810 7cbd 07a6 a4bd a219 42be d1f5 e43d
000002f0: b0b8 973b 8bef ffbc 6c6e 213e 9dac 45be
00000300: e2d6 853d f8bb 1a3e 0b1d 343d b423 e03d
00000310: 969d 92bd 1d4f 49be 4e42 433e c75e 4fbe
00000320: d69e aabd 8b3c 3d3e a40b c8bd 361f 22bd
00000330: 4494 d6bd 59e6 2a3d 431f 96bd 93a0 9c3d
00000340: c4e9 4b3e 38ea 1cbe d5c0 083e 2348 50bd
00000350: aebe 50be a366 b53d 979a 0bbe 7a26 f63d
00000360: c7fa 10bd eee6 fabd 9608 36be bc3c 313d
00000370: e059 49be c40c e53d cbfe a03d f85f 31be
00000380: 9875 da3d 30ce 24be 2159 aa3c 877f 6fbd
00000390: 65f9 0b3e 0b29 31be 01eb 82bd bf90 94bd
000003a0: 22b7 8cbc 2ce4 aa3c 0dc3 02be 8300 e63c
000003b0: 1e30 173c e31e d4bd fdf2 453d 3c75 193e
000003c0: 6c0e d73d ae93 863d 5768 b7bd 6f9f 17be
000003d0: 59c9 f73d e0d7 003d a092 753c 2afa d23d
000003e0: b1f7 c0bd 2d96 4fbe c34c 0fbe e966 42be
000003f0: f31e 023e 114b fe3d 3586 bfbd c62e 3bbd
0.17913419 0.038689602 -0.039481953 0.15611151 0.009441196 -0.0037842044 0.007412149 -0.12638432
-0.059912518 -0.18424737 -0.019267164 -0.19697501 0.030452367 0.0001310881 0.072852336 -0.12733859
-0.0015191342 -0.05684321 -0.121913016 0.15919289 -0.20051603 0.14460652 -0.050275657 -0.11466888
-0.19820204 -0.19403568 -0.070356 0.13170253 0.040539 -0.1490945 0.17196101 0.16722156
0.08466684 0.19955613 0.13491003 0.029062336 0.1412096 -0.11630541 -0.026414322 -0.10650785
-0.03590639 -0.16147618 0.13879973 -0.08070151 0.062741496 0.1871267 0.06871522 0.010657677
0.20260336 -0.20209442 0.18909438 -0.17691948 0.20274834 0.016320702 -0.12500042 -0.06976156
-0.10477738 0.12238033 0.17526047 0.12320794 0.14940172 0.19686335 -0.1799477 0.08557486
0.016786454 0.12296651 0.057673164 0.0050432323 0.13579343 -0.082655996 -0.15555823 -0.14317062
0.14642778 0.004567326 -0.16610582 0.07065896 -0.0067167617 -0.120968625 0.17890613 0.11855337
0.17302844 -0.033637963 -0.12626545 -0.17234945 0.023987113 -0.14298782 0.12172107 -0.18429394
-0.14491506 0.029656524 0.049929023 -0.026713425 -0.042681564 -0.10347834 -0.058957614 0.026424365
-0.18340185 -0.035573646 -0.032402944 0.004421286 0.15131009 -0.1710578 0.07065598 0.07560618
0.05621896 -0.058663342 0.118424155 -0.14442576 -0.082468845 -0.005412948 -0.030076748 -0.2017307
0.1092737 0.12053568 -0.18120989 0.00058979884 -0.17186353 -0.03739755 0.024175655 0.17773655
0.14337143 0.10500041 0.027375355 -0.18859711 -0.06573734 0.18227486 0.01612061 -0.04587333
-0.07025608 0.100492276 0.12847334 -0.01778485 0.05981327 0.14981462 0.13623962 0.10598295
0.13951965 0.07422488 0.055956617 -0.20093682 -0.03992399 -0.060962904 0.042889595 -0.058272913
-0.18634523 0.17100248 -0.089274004 -0.19373375 -0.08463952 0.04273125 -0.069023706 -0.2039984
0.06790626 0.078689836 0.19002521 -0.20180295 -0.03850991 -0.07826204 -0.07054882 0.003776732
0.19040005 -0.02129081 0.17541684 0.027856879 -0.10634995 -0.019629866 0.10567385 0.12078027
-0.06787963 -0.0254993 -0.17058189 -0.13029176 -0.053936232 0.12172466 0.012779722 0.1076086
-0.16976418 0.04137022 -0.16500778 -0.05979026 0.16500902 0.008989252 -0.15325296 -0.20100676
-0.06153962 -0.0803948 -0.1895509 0.11179698 0.0046301708 -0.031242153 0.15764779 -0.19304128
0.06535126 0.15110767 0.04397301 0.1094431 -0.071589634 -0.19659086 0.19068262 -0.20250998
-0.08331077 0.18480127 -0.09767845 -0.039580546 -0.10477498 0.041723583 -0.073301814 0.076478146
0.19913393 -0.15323722 0.1335481 -0.050850045 -0.20385239 0.08857467 -0.1363319 0.120190576
-0.03539541 -0.122510776 -0.17776713 0.04327081 -0.19663191 0.111840755 0.07861098 -0.17321765
0.106669605 -0.1609428 0.020794453 -0.05847123 0.13669355 -0.17300813 -0.0639248 -0.072541706
-0.017177168 0.020860754 -0.12769718 0.028076416 0.009227781 -0.10357454 0.048327435 0.14986128
0.10500798 0.065711364 -0.08955448 -0.14806913 0.12098951 0.031455874 0.014988571 0.10301621
-0.094222434 -0.20272131 -0.13994126 -0.1898457 0.12707119 0.124166615 -0.0935177 -0.045698904

bn1.weight f4 [400]
00000000: 9b1c 883f 48eb a33e bafa c73e 0c22 4a3f
00000010: 8b83 b23e e36d 483f 0495 233f cffd 913f
00000020: 7b45 f73e 5ca1 323f 1327 7d3f 72d0 3e3f
00000030: 04bf 1f3f 7e9f 113f 7617 8e3f 72d0 0e3f
00000040: 7f16 563f de7e 003f a673 ac3e 6df9 8d3f
00000050: 88ce d13e 1fbf 653f 56d9 303f 3f89 093f
00000060: c781 ae3f 0c5e 453f ade9 0d3f 0f72 423f
00000070: d591 183f bf64 f23e 5fd9 d03e 91b0 083f
00000080: ac65 473f 3cd7 793f 16d2 6b3f 8070 723f
00000090: 69f8 933f 0e3f 513f 9cf7 623f 9545 5e3f
000000a0: 7e99 1a3f 6ffc 243f 1b31 b93e 6ba5 db3e
000000b0: 9019 c93e c17b 813f e42d 153f d5bf f43e
000000c0: 41a2 013f f871 3e3f 2ddc 403f 4221 f33e
000000d0: 3492 063f 0b21 623f 25b8 583f db01 653f
000000e0: 2fa8 9b3e c005 873f f243 9e3e 75d9 063f
000000f0: 1e21 323f 55e5 273f 770b fb3e eaf0 1a3f
00000100: 48e6 233f 0b0f 343f 5ef4 303f 87f9 333f
00000110: da16 ef3e 5788 5c3f d205 d93e 8e8e ac3f
00000120: 6d1f 053f e641 f63e 7968 093f be37 433f
00000130: d3e1 9f3e 1b3d 443f fa44 8f3e 4472 433f
00000140: c635 b33f 606a 553f 49da 133f bbac 343f
00000150: 5781 0e3f e569 543f f9c9 443f 6bfc c73e
00000160: c810 2b3f acae 073f de66 613f 368b d03e
00000170: 8bcc 2a3f 3c8f 573f 6ed2 e23e e5e4 1a3f
00000180: e221 e43e 2850 413f edcf 223f 32d6 883f
00000190: 33bd b63e b24c fb3e 37c5 613f d653 773f
000001a0: 2a4e e03e 6a82 1a3f 6183 d23e 0ac5 2f3f
000001b0: 3745 3b3f 3cd4 1f3f 578f e73e b25b 4c3f
000001c0: eceb 9d3f e5ec 8c3f eadd de3e 2a85 df3e
000001d0: 1a00 d53e ae7a 1a3f 5b8b 1c3f 84a4 263e
000001e0: 3845 cf3e 0450 643f 9d16 093f a866 8f3f
000001f0: d463 833f d40f 023f 797c 883f a4db 283f
00000200: 689d 483f eb87 cf3f b100 1b3f a023 283f
00000210: b584 663f 1f3f b23e a768 973f 533e 153f
00000220: 0fde 073f 2f5c 0d3f dbf5 8b3e 02bd c93e
00000230: 137b 263f eab4 3d3f 2678 973f 2617 3d3f
00000240: cbe9 683f 9198 913f 0345 e83e 3fef f03e
00000250: 2c5f ec3e 114b 173f aa92 3b3f 3bad 0f3f
00000260: ed2a 073f 23af eb3e aade f63e 0114 6e3f
00000270: d450 643f 92a1 0a3f 381c 3f3f 4063 f43e
00000280: 4de9 3f3f 08f4 5f3f b854 3d3f ed2c 383f
00000290: 9b24 2a3f 7de1 1d3f b87a 713f fdd2 223f
000002a0: 1995 113f c487 0c3f eb64 183f 0efb 793f
000002b0: 571c 923f 8bf9 0f3f a43e 493f f59f 2c3f
000002c0: 11bc 313f 231f 1f3f 8cef 1d3f b614 533f
000002d0: 8600 963f 4dd3 283f 3add ed3e df2b 9d3f
000002e0: 61e4 473f de96 823f ae2e 283f 68ac bf3e
000002f0: 1d94 063f bbba d33e a8f5 7a3f 4823 6e3f
00000300: b8b1 4d3f 07c9 113f 9858 033f e524 3e3f
00000310: 2b77 c43e b5bf 4d3f c6ec 063f ae53 923e
00000320: 9fc9 593f 5b65 303f 0fd8 a33e 1ae5 2e3f
00000330: 6477 073f 60bd 343f 8a7a b13e beea a33f
00000340: 9d5c 2c3f 7def 403f 4eac 7b3f 8e72 c83e
00000350: 955e 4c3f 0c1e fc3e 544e ac3f e1dd 073f
00000360: 246a 483f b2db b43f 971c 373f f346 263f
00000370: 5899 ce3e 1dce 2d3f 219f 6a3f 38f0 1a3f
00000380: 92a3 103f 8a2e da3e 4e31 243f d4d7 553f
00000390: 6150 633f 5684 373f b33f 863f b0a1 2a3f
000003a0: b542 393f a834 3b3f e9ce 193f 2783 623f
000003b0: 53eb f83e 89fe 583f 0af4 353f d046 1a3f
000003c0: 20b1 073f 769c 4f3f 5e40 6d3f d0cf fa3e
000003d0: b331 3c3f dc24 333f ea99 003f 8adc 553f
000003e0: adfd 3f3f 03df 4e3f a409 5d3f 2757 883f
000003f0: 89af 143f 8fb3 0d3f aefc bf3e 2863 023f
1.063373 0.32015443 0.39058477 0.789582 0.34865984 0.78292674 0.63899255 1.1405581
0.48295197 0.69777465 0.9888775 0.7453681 0.6240084 0.5688399 1.110091 0.5578681
0.83628076 0.50193584 0.33681983 1.1091744 0.40977883 0.8974475 0.6908163 0.53725046
1.3633355 0.7709663 0.55434686 0.7595529 0.5959752 0.47342488 0.4079084 0.5339442
0.77889514 0.97594047 0.9211744 0.9470291 1.1560184 0.8173684 0.8865907 0.86824924
0.6039046 0.64447683 0.36170277 0.4289964 0.39277315 1.0115892 0.5827315 0.47802606
0.50638205 0.7439265 0.7533596 0.4748631 0.5256684 0.8833167 0.8465598 0.89455956
0.3040175 1.054863 0.30911213 0.52675563 0.6958178 0.6558431 0.49032184 0.60523856
0.64023256 0.70335454 0.69122875 0.70302624 0.46697122 0.8614554 0.42387253 1.3481004
0.52001077 0.48097152 0.5367504 0.7625693 0.31226978 0.7665574 0.27982312 0.7634623
1.4000785 0.8336544 0.5775495 0.70576066 0.55666107 0.8297408 0.76870686 0.39059767
0.6682248 0.53000903 0.8804759 0.4073121 0.6671836 0.84202933 0.4430117 0.60505515
0.445571 0.75512934 0.6359852 1.0690367 0.35691223 0.4908195 0.8819155 0.966123
0.43809634 0.60355246 0.4111586 0.6866003 0.7315249 0.6243322 0.45226547 0.79827416
1.2337623 1.1009794 0.43528682 0.43656284 0.4160164 0.60343444 0.6115014 0.16273695
0.40482497 0.89184594 0.5355013 1.1203203 1.026484 0.508054 1.0662986 0.65960145
0.7836518 1.6213354 0.6054793 0.6567936 0.90046245 0.34813783 1.1828812 0.58298224
0.5307321 0.55218786 0.2733601 0.39402014 0.65031546 0.7410418 1.1833541 0.73863447
0.9098174 1.1374685 0.45365152 0.4705753 0.4616636 0.5909892 0.73270667 0.56123704
0.52799875 0.46032056 0.48216754 0.92999274 0.89185834 0.54152787 0.74652433 0.47731972
0.74965364 0.8748174 0.73957396 0.7194355 0.66462106 0.6167219 0.9432788 0.6360319
0.5686813 0.5489466 0.5952899 0.97648704 1.1414899 0.5624015 0.78611207 0.67431575
0.6942759 0.62156886 0.61693645 0.8245348 1.171891 0.6594742 0.46457845 1.2279013
0.78082854 1.0202291 0.6569623 0.37436223 0.5256975 0.41353402 0.9803109 0.93022585
0.803493 0.5694737 0.5130706 0.74275047 0.38372168 0.80370647 0.5270504 0.28579468
0.85073274 0.68904656 0.32000777 0.6831833 0.5291655 0.70601463 0.34663802 1.2806013
0.67328817 0.7536543 0.9830979 0.39149898 0.7983182 0.49241674 1.3461404 0.53072935
0.7828696 1.4129546 0.71528 0.6495201 0.40351367 0.6789263 0.9164906 0.60522795
0.5649959 0.4261363 0.64137733 0.8353245 0.88794523 0.71686304 1.048819 0.66652966
0.7236741 0.7312722 0.60081345 0.8848137 0.48617038 0.8476339 0.710755 0.602643
0.53004646 0.81098115 0.9267634 0.48986673 0.73513335 0.6997812 0.50234854 0.8353964
0.74996454 0.8080904 0.86342835 1.0651597 0.58080345 0.5535211 0.37497467 0.5093255

bn1.bias f4 [400]
00000000: 5915 7fbf 4855 94be 06a0 c2bd 9a48 02bf
00000010: d209 54bd d147 7fbf 7385 03bf 59fd 19be
00000020: 8d45 8cbe a442 80bf 38f1 e8be f295 2dbf
00000030: b8c1 80bd b433 94be 033a ecbe 4dae f9be
00000040: 833b 69bf 4dad f5be 4ba6 28be 8cac 99bf
00000050: f5f4 063d 31cc 2fbf 8ce8 19be a80c 1a3f
00000060: 3f1a 92bf 18ae 63bf 1b27 dcbe 9821 32bf
00000070: 6333 09bf f918 34bd 2a62 a53d 70f6 c1be
00000080: 6572 3cbf aa20 61bf 415c a6be 2748 b5bf
00000090: 8c76 78bf 7b58 2abf 26b7 78bf db72 1fbf
000000a0: 6e2d 1fbf 37c2 fbbe 2807 75be ce74 7fbe
000000b0: 3a66 e0be 6a81 74bf dd4b a4be 4bac b8be
000000c0: ad1e d6be 95f7 00bf 1bc9 52bf 2b8c 9ebe
000000d0: 974b ffbe 0af3 a8bf 63d1 dbbe 55b2 93be
000000e0: f51f 01be 2031 98bf 6879 8fbd edb6 2dbf
000000f0: 0bdb 4abf 93e5 45bf e2a3 f1bd 85a2 93be
00000100: f57d 9dbd 0008 15bf 6074 d5be afcb 96bf
00000110: 2623 9cbe 516b 0bbf 8f9f 10be bb74 38bf
00000120: fc38 86be 57fd c3be c25d acbe c838 5bbf
00000130: 675b ecbd 1c15 57bf 7144 99bd 7db9 f9be
00000140: 45ad 75bf 4252 94be c888 02bf dd5f 20bf
00000150: ca97 06bf 273e e0be 3e63 0cbf eaf9 46bd
00000160: 9100 b0be 6fa7 b2be d6d8 70bd 7591 91bd
00000170: a45a 2ebf 98f6 43bf cc5b f1bd 72e7 bfbe
00000180: 57ec 04bd aed0 e4be eac2 d3be b002 96bf
00000190: de2c e9be 9a91 efbe 2168 35bf 44cf 01bf
000001a0: fa3a 2d3d b4c6 96be d5f8 59be ca30 2dbf
000001b0: 9965 cdbe 9113 16bf abb6 37be 8226 8abf
000001c0: f1bc 5fbf 9219 3dbf 4b5d a1be 694e 4dbc
000001d0: e93d 88be f32c dbbd 1a39 90be fd37 983d
000001e0: f4a1 8cbe 0c1a 5fbf 951d b6be b13a 76bf
000001f0: e8c5 5ebf 7126 2ebf 5649 23bf 0f5b 7cbf
00000200: 1316 38bf af28 dabe 4925 17bf 66d5 fcbe
00000210: 91b7 5bbf 9a99 46be 8a63 d1be e5fc d8be
00000220: 34e2 3bbe 80b4 bcbe ed57 fbbd 70b9 a1be
00000230: 5cab a2bf 2e5f 06bf 793f b3be b50d e6be
00000240: 016b 74bf 5eab 3dbf 15e0 3d3c 94fa 81be
00000250: e571 cfbe f2aa 3ebf e92c d0be 7c38 76be
00000260: 1686 0abf 4a6b 79be c78c 12be 34e7 45bf
00000270: 68d9 cfbe b116 04bf 9cca d5be a81e fc3d
00000280: af48 61bf ff76 4ebf 6cdf 32bf 03ee 74bf
00000290: 8f6a 37bf 7278 fabe 263e 7fbf 35e2 0cbf
000002a0: 01ef d6bb 6bfa 6cbf f0bb 07bf de16 8dbf
000002b0: 728b c8bf 4dfc edbe 2e35 f8be 408e 1ebf
000002c0: 4117 7cbe 3317 54bf 40bd 4fbf 7209 70bf
000002d0: a8bc b0bf 5ea1 c5be c23e 36be cb0c b2bf
000002e0: a280 e4be 425b 53bf 6039 a8be a38f 87be
000002f0: 507e 37bf f42f 40bd 5a6a acbf 453e b5bf
00000300: 4663 41bf bfd8 0cbf 98b3 8dbe a776 15bf
00000310: 4ca7 54be 8d22 0dbe e13d 29bf c7ca debd
00000320: 2286 82be 5147 5fbe e46f 84bd 940e 73be
00000330: e9f5 cfbe 03c8 c6be 3489 81be 10be 19bf
00000340: 9975 36bf 7529 4dbf da34 aabf dc5f 77be
00000350: 47d3 99be 38a1 2dbf 23b2 e4be f0f4 1fbf
00000360: 6e0f 6ebf 0bf5 14be 246a 68bf 5d05 29bf
00000370: e48e 07be 8965 2e3d eff6 14bf 8eee cabe
00000380: 4f47 27bf e93c 84be 2907 87be 9e5e fdbe
00000390: 1747 cfbe e5e4 a8bd f101 a3bf 2edb 48bf
000003a0: 9d67 1cbf 68b3 09be 10fd bbbe 9a39 60bf
000003b0: 6c48 d6be 7f71 7ebf 5e0d 83bf 37d8 a9be
000003c0: e7e3 00bf 13de 25bf 1022 3fbe 339a 21bf
000003d0: 6916 5fbf 2404 adbf 9442 0bbe d658 9ebd
000003e0: a4c9 8ebf eab4 efbe dcdd 8abf 785f 96be
000003f0: 4503 29bf 0a68 48be 3242 09bf 445a 29be
-0.9964195 -0.28971314 -0.09503178 -0.5089203 -0.051767178 -0.9971896 -0.513755 -0.1503805
-0.27396813 -1.0020337 -0.45496535 -0.67806923 -0.06286949 -0.28945696 -0.4613801 -0.48765793
-0.9110643 -0.4798378 -0.16469686 -1.2005782 0.032948453 -0.68670946 -0.15030116 0.6017556
-1.141426 -0.8893752 -0.42998585 -0.6958251 -0.53594035 -0.04396913 0.08075364 -0.3788333
-0.7361205 -0.87940466 -0.3249226 -1.4162644 -0.9705589 -0.6654126 -0.9715446 -0.6228463
-0.62178695 -0.49171612 -0.23928511 -0.24946901 -0.43827993 -0.9550997 -0.3208913 -0.3606895
-0.4182028 -0.5037778 -0.8233811 -0.30966315 -0.49862358 -1.319917 -0.42933187 -0.28846994
-0.12609847 -1.1889992 -0.07005578 -0.6785725 -0.79240483 -0.7730343 -0.11798836 -0.2883493
-0.0769004 -0.5821533 -0.4169035 -1.1780909 -0.30495566 -0.54460627 -0.14123367 -0.72053117
-0.2621535 -0.3827922 -0.33665282 -0.85633516 -0.11540871 -0.84016585 -0.07483757 -0.4877433
-0.95967513 -0.28969008 -0.5098996 -0.62646276 -0.5257536 -0.43797418 -0.5483893 -0.04857818
-0.34375432 -0.34893367 -0.05880054 -0.07107822 -0.68107057 -0.7654815 -0.11785087 -0.37481266
-0.032451954 -0.4469046 -0.41359645 -1.171957 -0.45542043 -0.46790773 -0.70862013 -0.5070689
0.042292573 -0.29448473 -0.21286328 -0.6765257 -0.40116575 -0.58623606 -0.17940776 -1.0793002
-0.87397677 -0.7386714 -0.3151649 -0.0125309015 -0.26609734 -0.10701933 -0.28168565 0.07432554
-0.2746731 -0.8714912 -0.35569444 -0.96183306 -0.8702073 -0.68027407 -0.63783777 -0.98576444
-0.7190868 -0.42609164 -0.5904127 -0.4938156 -0.85826975 -0.19394532 -0.40896255 -0.42380443
-0.18348008 -0.3685646 -0.1227263 -0.3158679 -1.2708545 -0.5248898 -0.35009363 -0.44932333
-0.95475775 -0.7408961 0.01158907 -0.25386488 -0.40516582 -0.7447959 -0.40659264 -0.24044985
-0.5411085 -0.24357334 -0.14311515 -0.7730591 -0.40595555 -0.51597124 -0.4175614 0.12310535
-0.8800153 -0.80650324 -0.69872165 -0.9567568 -0.7164697 -0.48920017 -0.99704206 -0.55032665
-0.006559253 -0.9256961 -0.53021145 -1.1022604 -1.5667555 -0.46481553 -0.48478073 -0.61935806
-0.24618246 -0.828479 -0.8114815 -0.9376441 -1.3807573 -0.38599676 -0.17797378 -1.3910154
-0.4462939 -0.82561123 -0.32856274 -0.26476774 -0.7167711 -0.04692073 -1.3469956 -1.4159628
-0.75542104 -0.5501823 -0.27676082 -0.58384174 -0.20766944 -0.13782711 -0.66110045 -0.108785205
-0.2549296 -0.21804549 -0.06466654 -0.2373603 -0.40617302 -0.38824472 -0.2529999 -0.6005564
-0.7127319 -0.80141383 -1.3297379 -0.24157661 -0.30044004 -0.67824125 -0.44667158 -0.6248312
-0.92992294 -0.14546601 -0.9078696 -0.6602381 -0.13238102 0.0425773 -0.5818929 -0.39635128
-0.65343183 -0.2582772 -0.2637265 -0.4948625 -0.40483925 -0.08246783 -1.2734967 -0.7845944
-0.610956 -0.13447344 -0.3671651 -0.87587893 -0.41852129 -0.9939193 -1.0238454 -0.3317277
-0.5034775 -0.64791983 -0.18665338 -0.63125914 -0.8714357 -1.3516889 -0.13599616 -0.07731788
-1.1155286 -0.46817714 -1.0848956 -0.29369712 -0.66020614 -0.19570938 -0.5361663 -0.1653834

bn1.running_mean f4 [400]
00000000: ce65 ecc0 38e9 afc1 87ba 3e41 fd1b 88c1
00000010: 3b93 1f42 6a50 4141 accd 0abe 89a2 af40
00000020: b034 6e40 4675 23c2 5789 bf41 ee8b 3841
00000030: b2b0 2241 592a 9c40 448a 0040 ae11 95c0
00000040: 7265 72c1 f880 45c1 cd82 72c1 108c 3542
00000050: 409f 3f42 3498 0042 d693 c341 e917 6741
00000060: a785 d2bf 9dd1 2341 3e24 ad40 1d9a a741
00000070: 89e0 ec40 6667 a4c0 474b ca41 8ac6 4cc0
00000080: 1eec afc1 33df d841 c31b c4bf aed6 1d41
00000090: 7a39 4942 4835 0b41 e4d9 de40 7250 e140
000000a0: 1378 4c41 50e0 bac1 d614 fbc1 ef7f fcc1
000000b0: 40fd 51c2 6909 28c1 2c7d 5142 8a61 fec1
000000c0: 9a3c f2c1 122e 5f41 8a39 af41 72cd 14c0
000000d0: 0b03 9e40 d1c0 8bc1 02c2 5e41 134f 0342
000000e0: 83a7 91c0 b483 1e42 c789 dbc0 ef32 edc1
000000f0: 01ca 6740 be81 aac1 5046 0c42 2855 fb41
00000100: c229 6441 f3fe b041 68fa 05c1 f7ed 13c2
00000110: 2306 1241 bed6 c241 3bbc 00c1 1478 1e41
00000120: aaef f2bf e957 a9c0 d9ea 7841 0a1b 40c1
00000130: 2d4e 6241 0640 6ac1 5c3f 90c1 b510 eb41
00000140: 3056 f241 e876 5442 62ef 5041 89e4 e641
00000150: a0a1 e940 266d 4942 bf16 3041 1f8b ba3f
00000160: 0c7d ce40 1a34 56c1 b704 cd41 cc35 8140
00000170: 922c 30c0 4a62 1042 8a61 4a42 ddc6 0a42
00000180: 9ee4 f1c0 afd7 4842 b1be b541 d9a6 7bc0
00000190: 5673 4ec2 ae08 e1c1 27ca dd41 61a5 fe40
000001a0: ee43 3342 1a30 f941 0822 0c40 8102 b340
000001b0: d911 7742 6871 2e41 8412 68c1 85af 51c2
000001c0: d92e c740 ee5a 1d3d 6465 7e41 446a 0942
000001d0: c210 a441 3d69 4d42 93eb 0e41 c2a2 8b41
000001e0: 504c 2b40 d187 1742 6a93 94c1 c956 64c0
000001f0: 2eae 8a42 ba6d 0cc1 89c8 2b42 001d 3ec2
00000200: ce67 3dc0 1a51 cfbc a803 0840 9bcb 9141
00000210: 52f5 1941 8e8c 5cc0 f789 56c0 3499 ca41
00000220: 7ff2 7242 6382 ea40 f609 ffc1 903b 09c1
00000230: 6ab3 c3c1 7133 8042 bc4f a041 0901 b341
00000240: cdb3 7c41 e8da 9942 9764 6140 8421 8d41
00000250: 633b 0ac2 6b91 f6c1 7d9b 1b42 c511 9441
00000260: 06af d2c1 df85 2cc1 d29d 2a41 d425 f240
00000270: 65e0 d841 0a60 44c2 1bab 0942 0cb8 ffbf
00000280: 1b00 2bc2 e7a4 1d41 6cc0 bac1 fbc3 d8c1
00000290: dfba b840 f70a b840 58af 6ac1 e4d1 eebf
000002a0: 57c7 f93f e495 4fc2 1542 dec1 284b 96c1
000002b0: bb30 b440 790e 9441 5726 a441 05b2 1e42
000002c0: 0d44 3a42 e94e 28c2 e872 4b41 3ac7 b941
000002d0: eb16 0c42 0ccf 2042 c9da e741 39b7 df40
000002e0: fd27 0742 42ce 6542 4c02 a040 5299 19c2
000002f0: 0978 60c2 4a99 d941 ab17 9d41 9d1f 0dc1
00000300: 5426 1d42 d002 003e e2d8 7141 9bae a641
00000310: 9f1a cec1 bbf7 e93e 58d6 4cc1 728c 1442
00000320: 4224 ad42 6279 0c42 2611 4a42 d712 ab42
00000330: ba84 2641 310e 8741 5092 cfc1 19ca 8441
00000340: db64 a641 f669 f141 8096 87c1 a6ea 6b42
00000350: a680 2742 cd2d a4c1 edad a340 b8cb b640
00000360: 3c05 4842 702c 1cbf 3209 f1c1 d932 9bbf
00000370: 404b 0440 60cb 3d40 5722 2f42 d0c1 1c42
00000380: 1540 98c0 bd00 ff41 b06b 1142 0f07 1e42
00000390: ffcb 6541 64e0 8d42 2bd6 cf41 94ad 3741
000003a0: ce46 dac1 7379 6442 8a2a 6dc0 e8c9 1242
000003b0: 3754 9740 522a 4641 cffa 46c2 05a0 ac41
000003c0: 4d47 ffc0 142d 2cc0 83fe 5a42 1499 e6c1
000003d0: e092 99c1 0fac 86c1 36de 4b42 66cb b2bf
000003e0: c5f4 57c1 c3ca 0541 c209 a541 068d 0241
000003f0: 54b8 9cc0 6ec9 de40 5446 2f40 fb33 55c1
-7.3874273 -21.988876 11.920539 -17.013666 39.89378 12.082132 -0.1355502 5.4885907
3.7219658 -40.864525 23.94206 11.5341625 10.1681385 4.8801694 2.008439 -4.658408
-15.149767 -12.3439865 -15.156934 45.38678 47.905518 32.148636 24.447186 14.443337
-1.6447037 10.238675 5.410674 20.95025 7.402409 -5.137622 25.286757 -3.1996179
-21.990292 27.108984 -1.5320972 9.864912 50.30613 8.700508 6.964098 7.04107
12.779315 -23.359528 -31.385174 -31.562468 -52.497314 -10.502297 52.37224 -31.797626
-30.27959 13.948748 21.903095 -2.3250394 4.9378715 -17.469149 13.922365 32.82722
-4.551698 39.628616 -6.8605685 -29.64987 3.6217043 -21.31335 35.068665 31.41658
14.260195 22.124487 -8.373634 -36.982388 9.126498 24.354855 -8.045955 9.904316
-1.897939 -5.291981 15.557336 -12.006601 14.144086 -14.640631 -18.030937 29.383158
30.292084 53.11612 13.058443 28.86159 7.3009796 50.35659 11.005553 1.4573706
6.4527645 -13.38772 25.627302 4.037817 -2.7527204 36.095985 50.595253 34.694202
-7.5591574 50.21063 22.718111 -3.9320586 -51.612633 -28.129238 27.723707 7.957688
44.816338 31.148487 2.189577 5.5940557 61.76743 10.902687 -14.50452 -52.421406
6.2244687 0.038416795 15.899754 34.353775 20.508183 51.35277 8.932513 17.454472
2.6765327 37.882633 -18.57198 -3.567797 69.340195 -8.776789 42.945835 -47.52832
-2.9594607 -0.025307227 2.1252232 18.224417 9.622393 -3.4460788 -3.3521707 25.324806
60.736813 7.3284163 -31.879864 -8.577042 -24.462605 64.10047 20.038933 22.375505
15.793897 76.92755 3.5217645 17.641365 -34.557995 -30.821005 38.901844 18.508677
-26.33546 -10.782683 10.66353 7.5671177 27.109568 -49.09379 34.417095 -1.9978042
-42.750103 9.852759 -23.343956 -27.095694 5.7728114 5.7513385 -14.667809 -1.8657804
1.9513959 -51.896378 -27.782267 -18.786697 5.6309485 18.507067 20.51872 39.673847
46.566456 -42.07706 12.715553 23.222279 35.02238 40.202194 28.981829 6.991116
33.78905 57.451424 5.0002804 -38.399727 -56.11722 27.199848 19.636557 -8.820218
39.28743 0.12501073 15.11545 20.835257 -25.762999 0.45696816 -12.80233 37.137154
86.570816 35.118538 50.516747 85.5368 10.407404 16.88193 -25.946442 16.59868
20.799246 30.176739 -16.948486 58.97915 41.875633 -20.522364 5.114981 5.712368
50.00511 -0.61005306 -30.12949 -1.2124892 2.067093 2.965538 43.783535 39.18927
-4.7578225 31.87536 36.355164 39.506893 14.362304 70.93826 25.979574 11.479877
-27.284573 57.118603 -3.7057214 36.697174 4.72903 12.385332 -49.74493 21.578135
-7.9774537 -2.6902514 54.748547 -28.824745 -19.196716 -16.834013 50.967003 -1.3968322
-13.497258 8.362002 20.629765 8.15943 -4.897501 6.9620886 2.7386675 -13.325191

bn1.running_var f4 [400]
00000000: 94d4 eb43 51ce ec43 1759 b044 4289 a043
00000010: 0794 1044 13b1 1b44 cbda 4b44 10bf 9942
00000020: 5930 cb43 6579 1944 397f 5b43 a695 1e44
00000030: 4b47 5543 d8f2 1142 1f2c 6b42 7ff3 5744
00000040: d85e 3644 2b93 1444 0f3c ca44 6371 0544
00000050: 2c50 8043 d905 4e44 163a eb43 59dc 9042
00000060: 9f0d fd43 a3b3 8543 43c9 ca43 73bb 0b44
00000070: c803 8343 8525 7b44 468c b743 b2ea 7f43
00000080: bac9 8f44 2746 a343 231d 5442 f2f8 1d44
00000090: c394 a643 df23 bf43 be5d 0144 e378 d543
000000a0: 6352 0843 ff2b d044 f930 2544 721c da42
000000b0: 60ab 1c44 635f 1344 6769 2644 b8e5 b844
000000c0: 67b0 a844 3bc6 1644 8c5f 2644 1146 5444
000000d0: c2fc df43 819e 1644 bab6 2c43 3271 4043
000000e0: 4219 8c44 3171 7c43 cd87 6c44 5fd8 1244
000000f0: 7230 a543 6012 6244 9a2d e843 77aa 5444
00000100: 7d5f 4544 b570 6c44 7b7c cb43 21a4 ae43
00000110: e724 9244 b423 3b44 5c6a e843 315f 0d42
00000120: 2638 5e44 83db c743 56e4 5a43 2439 2344
00000130: 2fb8 b944 8314 5e44 3035 2e44 c233 3644
00000140: 7166 ef43 4392 b043 9e71 d643 1f51 cd43
00000150: 91f5 8344 340c cb43 f866 1e44 5a59 a241
00000160: 8b6c 5443 bccb 8b44 bd31 2743 073b 0344
00000170: 8dd9 f243 1295 1c44 0f6d 4d44 34c9 3c44
00000180: e270 b443 1089 1644 4b55 0544 0ef2 b843
00000190: 1fca 8b43 c5c9 3d44 3162 0e44 9db6 8f43
000001a0: 3349 f442 7352 0e44 3c38 2f44 f344 d343
000001b0: 86f8 3b44 0478 d543 3af5 2044 9277 2a44
000001c0: 31e6 2c42 a313 1942 61de 2544 7a85 ce43
000001d0: 1686 e843 3f3a 3743 6f02 2044 1d89 a343
000001e0: cc6d 1544 d0da cf43 e2de c843 2a87 1b43
000001f0: 8d45 1d44 2193 c142 579f 7643 b8b1 ac43
00000200: 9da9 bc43 a27b 6f42 e1bc 8444 2c1a 2645
00000210: 783a 2a44 e605 1b43 00c0 9442 ba26 b143
00000220: 5e11 0c44 2fc4 4b44 2b25 1844 754e a844
00000230: 04b6 e043 8739 3944 3cb4 2142 f621 7643
00000240: b60b 0443 75e4 b543 7788 3142 a80c 2d44
00000250: ce09 0144 29cd ab44 2259 a143 8902 c143
00000260: e531 8444 6fac b843 f6b1 fd43 e85f 0744
00000270: 5e03 be42 7446 3344 77da 1344 22cd 1342
00000280: 7bc0 d443 ed00 c443 9866 8f43 116b c043
00000290: 6f9d 3844 ec1c 0144 fc14 eb42 29bc 1d44
000002a0: 2565 8643 4f49 8343 555f ad43 659d 1744
000002b0: cf16 4144 1236 9644 ea64 3f43 19ab 9443
000002c0: 5347 6143 32f9 2044 4a49 1744 7ce2 2143
000002d0: 0d2f b643 3ccc 7543 1a4f b243 2eec 3243
000002e0: 899e 1344 b10f 0d44 6553 f344 3256 0b44
000002f0: 23e9 8b43 7ef9 5544 4f7c 7d44 67ba da43
00000300: 82d7 0244 49f4 a343 5473 1f44 a857 0344
00000310: b055 8943 9d88 d23f 2a8d 3c43 ef44 2d44
00000320: dd4e 8e44 d133 4744 8743 b843 b57a 3144
00000330: e3ab 9a44 95cf 4144 9bbf 3044 2761 af43
00000340: 8603 3e44 a75a 2c44 9637 4644 0a2f 1244
00000350: 4c39 0944 b86d 4f44 e76a 2d43 a104 b943
00000360: 5e05 7c44 5d88 1541 7232 3e44 2891 e542
00000370: 34a6 8d44 746b e041 a9cd 4744 3f8e 1644
00000380: 246a c143 57db 9743 0506 d043 06ba 1743
00000390: 4975 b741 bcd1 b843 c948 3644 41fd 9b43
000003a0: 50db a943 a14b 0944 67b3 c344 9acc 8744
000003b0: 64c0 c444 8027 c744 fbc0 fe43 01ea 3744
000003c0: 3e26 b543 fab0 ad43 7aca 9a43 bcdb 2e44
000003d0: 7f8d 6c43 3d68 4b44 67c1 af43 50ae c641
000003e0: c36d 8f43 3135 5943 fe78 6443 783c d641
000003f0: f3b1 f243 2d5b 2444 323d dc43 863a 9b44
471.66077 473.61185 1410.784 321.07233 578.3129 622.7668 815.41864 76.87317
406.37772 613.8968 219.49696 634.33826 213.27849 36.487152 58.793087 863.8046
729.48193 594.2995 1617.8768 533.77167 256.62634 824.0914 470.4538 72.43037
506.1064 267.4034 405.57236 558.9289 262.02954 1004.58624 367.0959 255.91678
1150.304 326.54807 53.028454 631.8898 333.1622 382.28024 517.4647 426.94443
136.32182 1665.3749 660.7652 109.05556 626.67773 589.4904 665.6469 1479.1787
1349.5126 603.09735 665.4929 849.0948 447.97467 602.4766 172.71378 192.44217
1120.7893 252.44215 946.1219 587.3808 330.37848 904.2871 464.35626 850.6635
789.492 945.76105 406.9725 349.28226 1169.1532 748.55786 464.83093 35.34296
888.8773 399.71494 218.89194 652.8928 1485.7557 888.3205 696.83105 728.8087
478.80032 353.14267 428.88763 410.63376 1055.674 406.09534 633.6089 20.293629
212.424 1118.3667 167.19429 524.9223 485.69962 626.3292 821.70404 755.1438
360.8819 602.1416 533.3327 369.89105 279.57907 759.15265 569.53424 287.42667
122.14297 569.28827 700.87866 422.53867 751.8832 426.93762 643.83167 681.8683
43.224796 38.269176 663.4747 413.0428 465.04755 183.22752 640.038 327.0712
597.7156 415.70947 401.74127 155.52798 629.08673 96.78736 246.62242 345.38843
377.3251 59.870735 1061.9025 2657.6357 680.9136 155.02304 74.375 354.30255
560.27136 815.06537 608.58075 1346.4518 449.422 740.89886 40.42601 246.13266
132.04575 363.78482 44.383266 692.19775 516.1532 1374.4113 322.69635 386.0198
1057.5592 369.34714 507.39032 541.49854 95.00658 717.1008 591.4135 36.950325
425.50375 392.00723 286.8015 384.83646 738.4599 516.4519 117.540985 630.94
268.7902 262.57272 346.74478 606.4593 772.3564 1201.6897 191.3942 297.3367
225.27861 643.8937 605.14514 161.8847 364.36758 245.79779 356.61798 178.92258
590.4771 564.2452 1946.6061 557.3468 279.82138 855.8983 1013.9423 437.45627
523.3673 327.90848 637.802 525.3696 274.66943 1.6447941 188.55142 693.0771
1138.4645 796.80963 368.52756 709.9173 1237.3715 775.24347 706.99384 350.759
760.05505 689.41644 792.8685 584.735 548.89526 829.71436 173.41759 370.03616
1008.08386 9.345792 760.7882 114.78351 1133.1938 28.052467 799.21344 602.2226
386.82922 303.7136 416.04703 151.72665 22.932268 369.63855 729.13727 311.97855
339.71338 549.1817 1565.6063 1086.3938 1574.0122 1593.2344 509.50766 735.6563
362.29877 347.38263 309.58185 699.43335 236.55272 813.6287 351.51096 24.835114
286.8575 217.20778 228.47263 26.779526 485.39023 657.4246 440.4781 1241.8289

fc2.weight f4 [300, 402]
00000000: 1f8c 37bd 4b56 50bd 1f86 2ebd e2ac 3cbd
00000010: c993 b3bd 0225 0dbd 59b5 a83c 4735 a4bd
00000020: adcf 0abd 39c3 1abd 3da9 e2bc cdc1 afbc
00000030: 486a 4b3b 04d6 95bd d62f 043d 4dfb d73c
00000040: bca3 073d 5fd1 3abb b2e0 42bd 331c 12bd
00000050: 1347 8a3c 91bd 0e3d 2f54 8fbc 9ed0 10bd
00000060: 1969 d7bc e790 c8bc 70a3 17bd bd70 48bc
00000070: ba47 a23c ae53 073d 047e 93bc 7a33 4fbd
00000080: 9ce1 72bd a994 26bd 3228 66bd 1c80 6c3c
00000090: 36d6 a3bd 794e e03c a2ae 0ebd fb87 56bb
000000a0: 6367 193d 61e6 d53c 980f 323d cf7b 48bd
000000b0: afa9 293d e195 f7bb 4298 adbc c3a1 4fbd
000000c0: 733a 5fbd 751d 8dbd a916 273c 4cae 92bd
000000d0: c1da 73bd bfe2 27bc c000 023d 48a9 eabc
000000e0: 4dd3 90bb df16 393d 65e3 9abc 5a0f 96bd
000000f0: cc67 01bd 79f9 55b8 ecda 67bd a452 1fbd
00000100: 3b58 d4bc 89cf 4f3c 05d9 a1bc 2d48 1ebd
00000110: c64d 7d3c 654b 93bc 1360 61bc 4da7 a5bd
00000120: bbc8 dbbc e14c 153d 5807 43bd 6065 8c3c
00000130: 6f48 85bd b0e5 d2bc b193 06bc aa56 8a3c
00000140: 3304 4dbd bbc7 25bc 1d65 af3c dc20 903a
00000150: 317c c73c 1377 a03c 48a4 023d d0b6 aabd
00000160: 5e91 08bc ca69 50bc 1da9 2dbc 948b 81bd
00000170: 63e5 8ebc ee5a 7ebd bc5d 8cbd 42ed 12bd
00000180: 1239 69bd 4aa4 1fbc aebd 85bc 940e 083b
00000190: 1db5 65bd 8a3e a0bd cec0 2f3d 02c9 84ba
000001a0: 857e 8fbc d851 b9bc a848 a5bd be91 9bbd
000001b0: c964 56bd c731 ff3c 4685 0b3d 9d23 06bc
000001c0: ad3d 9e3c 0c12 38bc fda4 80bd fede 7dbb
000001d0: 6a36 503c 6978 26bd 5809 12bd a221 3dbd
000001e0: afe0 78bd 2c4c 7a3c d9d6 94bd c32e 6ebd
000001f0: aab2 05bd 2935 80b9 6109 5dbd 9503 4ebd
00000200: a367 a8bc 3a61 8ebb cfcb 4b3d 7853 113d
00000210: 16de b1bd 7e1d 5abc c387 b5ba 0577 9dbc
00000220: 8af1 82bd e389 b7bc 7639 08bd b47e 37bd
00000230: 60c1 2b3d dd6c 6f3a 23f7 7dbc a057 a03c
00000240: 97b6 52bd 1ae0 47bd 4f9c 87bd aab8 61bc
00000250: 4f9e 38bd 6ece 47bc 9408 9bbd a341 a0bc
00000260: a7cf ce3a 65dc 28bd 852a 6bbd 9f71 75bd
00000270: 5993 82bd d0a3 8bbd ee98 b1bd e3ac 4a3d
00000280: 587f 80bc ec72 84bd 1534 d9bc 6fa3 43bd
00000290: 261e c43c 0255 aebc 523b fa3c cde0 3fbd
000002a0: a065 153c 8df9 abbc 8b19 b93c bf44 f9bc
000002b0: 4006 69bd 8f74 413d eb61 bb3c b09c 82bc
000002c0: 99a0 91bd d7a0 82bd 7834 b0bb 437b 1d3c
000002d0: 68a5 abbd b554 b6bd 88d3 103d f6fb 393d
000002e0: bd76 243d b992 0e3d 191f d0bc abe3 753d
000002f0: ae9f 173d 4645 52bd 8c13 d0bc 710a 8bbb
00000300: 7088 ee3c 43aa a0bb a774 11bc 289d 4cbd
00000310: aed2 5abd 8663 c6bb b648 48bb 2807 bdbc
00000320: 127e bcbd f5d4 3a3b dcd6 743b ab5d 903c
00000330: c804 51bd 1600 40bd d02a b73c 2eaa dbbc
00000340: 8af7 fc3b b836 57bd dd8d 8dbc 4f5c 41bd
00000350: 80a3 a03b 2201 52bd d7de f63b b298 093d
00000360: d23c 0e3c 9891 81bd c311 44bc 1ba1 9bbd
00000370: 1697 0cbc ae8a cd3c 3d0d df3a b6e8 32bd
00000380: 94d9 c53c 19c4 39bc 935e 7fbd aef7 43bc
00000390: b290 b43c d62b e0bc 4ace 6cbd d6e3 e83c
000003a0: 5f01 0a3c 9b09 d7bc 9721 11bd 5d48 823c
000003b0: 17fd 99bc ff93 2dbd fdec 42bd d28c a83b
000003c0: 23be b03c c37c 83bc d8c6 93bd 3614 063d
000003d0: aa64 2ebd 11a1 98bd c24a 933c 8743 85bb
000003e0: 72b8 89bd 4b44 0a3d e9e1 2bbd 106c 15bc
000003f0: 9a5f 5a3c e2a0 023d f3fb 27bd 00d4 87bd
-0.044811364 -0.050863545 -0.042608377 -0.04606331 -0.08768422 -0.03445912 0.020594286 -0.08017974
-0.03388946 -0.037783835 -0.02766859 -0.021454716 0.003103869 -0.07316211 0.032272182 0.026364947
0.033115134 -0.0028506143 -0.047577567 -0.035671424 0.016879594 0.034848753 -0.017496197 -0.035355203
-0.026295232 -0.024483157 -0.0370211 -0.01223391 0.019809593 0.033038788 -0.018004425 -0.0505862
-0.05929719 -0.040669117 -0.056190677 0.0144348405 -0.07999842 0.027381169 -0.03483451 -0.003273486
0.037452113 0.02611083 0.043471903 -0.048946198 0.04142159 -0.0075557088 -0.021190766 -0.050691377
-0.0544991 -0.06890384 0.010198274 -0.07162151 -0.05953479 -0.010246932 0.031738997 -0.028645173
-0.0044197203 0.045187827 -0.018907258 -0.07327147 -0.03159313 -5.1015497e-05 -0.056605265 -0.03889717
-0.025920978 0.012683758 -0.019756803 -0.03864305 0.015460437 -0.017980287 -0.013755816 -0.08088551
-0.026829114 0.03645027 -0.047614425 0.017138183 -0.06507956 -0.02574429 -0.008213923 0.016887028
-0.050052833 -0.01011842 0.02141052 0.0010996121 0.024351211 0.019588029 0.031894952 -0.0833565
-0.0083354395 -0.012720535 -0.010599402 -0.063254505 -0.017443364 -0.062098436 -0.06853816 -0.035870798
-0.056939192 -0.009743759 -0.016325798 0.0020760642 -0.056080926 -0.078244284 0.042908482 -0.0010130706
-0.017516384 -0.022622034 -0.08070499 -0.075961575 -0.05234221 0.031151665 0.034062646 -0.008187202
0.019316519 -0.011234771 -0.06281469 -0.003873765 0.012708286 -0.040642176 -0.035653442 -0.046174653
-0.06076115 0.01527695 -0.072675414 -0.058150064 -0.03264109 -0.0002445367 -0.053964023 -0.050296385
-0.02055723 -0.0043450864 0.049754914 0.035479993 -0.08684938 -0.013312696 -0.0013849664 -0.019221792
-0.06393726 -0.022404617 -0.033257924 -0.044798568 0.041932464 0.00091333484 -0.0155008165 0.019573033
-0.051443662 -0.048797704 -0.066216104 -0.0137769375 -0.04507285 -0.012195213 -0.075699955 -0.019562548
0.0015778438 -0.04122581 -0.057413597 -0.05992281 -0.063757606 -0.06818354 -0.08671747 0.049481284
-0.015685722 -0.06467232 -0.026514092 -0.047763284 0.023940157 -0.02128077 0.030545864 -0.046845246
0.009118468 -0.020993019 0.022595188 -0.030428289 -0.056890726 0.0472303 0.02287384 -0.015943855
-0.0711071 -0.06378334 -0.0053773485 0.009611907 -0.08381158 -0.08902875 0.035357982 0.045406304
0.0401523 0.034807894 -0.025405454 0.060031574 0.037017517 -0.051335596 -0.025399946 -0.004243188
0.029117793 -0.0049031093 -0.00887791 -0.049954563 -0.053423576 -0.0060543446 -0.0030560917 -0.023074701
-0.092037335 0.002850828 0.0037359511 0.01762279 -0.05102995 -0.046875082 0.022359282 -0.026814546
0.0077199386 -0.05254242 -0.01727956 -0.047207173 0.004902303 -0.05127061 0.007533889 0.033592887
0.008681493 -0.06326598 -0.011967125 -0.07599088 -0.008580944 0.025090542 0.0017017495 -0.04367896
0.0241516 -0.011338257 -0.062346052 -0.011960907 0.022041652 -0.027364653 -0.05781392 0.028428953
0.008423178 -0.026249697 -0.035432424 0.015903646 -0.01879744 -0.04237747 -0.04758929 0.00514374
0.02157504 -0.016050702 -0.07215661 0.03273412 -0.04257647 -0.07452596 0.017979983 -0.004066888
-0.06724633 0.033756536 -0.04196349 -0.009120002 0.013328457 0.03189171 -0.041011762 -0.06632233

fc2.bias f4 [300]
00000000: 074a aabd 0098 b7bd b09f acbd cf02 b0bd
00000010: 0930 afbd 5cef cbbe 6fa6 523e fbfc 21be
00000020: 320e c6bc 4724 73bd 68df c1bd 55ba cbbd
00000030: 3dfc 03bc b980 74bd 8192 ddbd 9a68 d2bd
00000040: 8d97 56bd bd01 e6bc 2006 a7be 630f 35bd
00000050: e083 3dbe 5a58 513e 9dcf 68bc 4213 74bd
00000060: bb44 08bd 2edb b83f b01c cebf 5ceb 86bd
00000070: 3830 b9bd a809 893e 3ae6 113f b5ed 97bd
00000080: a345 84bd 0e30 8cbc 7148 01bd 304c 7fbd
00000090: 3deb 77bf 7318 a9bd 180d 83be bba8 3dbd
000000a0: af84 4e3e 7d60 05bd a632 28be 654e a2bd
000000b0: f235 c4bd 7dc5 cdbe 751d d5be eaec 61bd
000000c0: 1333 bbbd 3c05 4fbd d1cf 14bf b435 10be
000000d0: 161b 05bf c207 51bd 36e6 703e d0f6 69bd
000000e0: 830a c1bd 0080 33bd 2667 8cbd 89e5 78bd
000000f0: a873 54bd cfc5 18be a5b7 df3e 15fa b3bd
00000100: 35bf cabd 9bcf 1fbf 937a 03c0 fae3 9fbb
00000110: bb8f 4abd 6e62 a93e 6a75 aebe 6ea8 43bd
00000120: 39b2 2dbd 8545 c8bd aa9b afbb 7444 ccbc
00000130: 5088 ebbd bf56 aabd c310 e0be 4577 c5bd
00000140: f1e1 dbbd 6cd8 32bd cba1 d2bb 6cc6 babd
00000150: 4378 babd 1432 d9be 2f9e 4fbd 0f3e 493f
00000160: 87fb 0fbf 85f5 cbbd 982e 21bd f3f1 97bd
00000170: 103e 50be 2de6 a1bd ebb8 66bd 297a 6dbe
00000180: 7c85 c6bd 557b f8bc 2884 6ebd 3d49 6abf
00000190: 20bc 54bd 5330 a4bd 04ff 23be cac7 eabd
000001a0: 3e09 94bd f2ff abbd da67 7ebd 7e75 04bd
000001b0: 7b36 24bd a816 1fbd 6cae ab3b 2ad5 e2bc
000001c0: 436f 22bc 50b5 84bd ebc8 7abd be16 5dbd
000001d0: b1c0 36bf 8ea6 4fbf 7658 9ebf c8a7 05be
000001e0: 6c11 2abd cb76 14bf 954b 21bd d3eb 42bc
000001f0: b375 5f3e 683d 893e fee0 a03e 97b9 48bd
00000200: e863 5e3f 2e78 9fbd 2a35 e6bc 200c f2bd
00000210: 6107 45bd dd8d e3bd f345 e4bb 6098 23bd
00000220: a4be 3dbd 57e6 e03b 49b1 f7bc f4f3 02be
00000230: 7cb6 cabd 84bb cdbd 9bec 83bd f659 3abd
00000240: f4c5 c1bd b0c4 5dbd da8f 1cbd 6906 b2bd
00000250: bc29 40bd 2213 17bd a993 89bf 3eee 86bd
00000260: c6d0 313f 5847 3d3e 0d99 51bf 2186 cabf
00000270: 4a16 8dbd 4be5 6ebf 1e1a 41bd 52e3 b2bd
00000280: adc5 94bd 4917 4ebd 28d6 abbd 65b6 b43d
00000290: 0e8b b5bd 1309 b2bd 7d65 51bc a5b1 84bd
000002a0: 8786 10bf c037 9f3f 8536 8dbd 949b 2bbf
000002b0: 13ca f5bd 9d56 32bd 0e13 a5bd 544f 8dbe
000002c0: 7de1 713e b227 e0bc 3d44 f53d c2b1 b1bc
000002d0: 3749 8abd bb19 7cbd 3468 ecbd 0ecf 06bf
000002e0: b195 84bd a022 90bd 0dd5 5fbd f858 0a3f
000002f0: e154 32bc 759c 13bd bf75 8abd a474 a8bd
00000300: 9215 a0bd d948 4abf 0447 99bd eb76 6bbf
00000310: 0da7 30bd 94ec a1bc a947 e7bd cb5e 8f3d
00000320: 8351 90bf 719d d53b 40a9 a6bd 2f34 92bd
00000330: 4e2a 1fbe c90c e9bd f829 c3bd 285f 9bbd
00000340: 6d1e 09bf f105 b8bd 8394 4dbd a6da 69bd
00000350: 564c d4be 7b9c 02be 9c47 5bbd f1e0 fcbe
00000360: 73ee 9ebd 8ca2 f4bd 70c0 60be ce05 6ebd
00000370: af16 c4be 76e5 233b ba4a a5bf 4f26 a6bd
00000380: 518e e43f 6c97 a6bd 4a2e 1bbe 5d54 38bd
00000390: fb14 bbbd 11f6 96bd abd6 89bd 9112 08bd
000003a0: 1465 94bd 7115 a0bd 9c7e e6bc 9382 b3bd
000003b0: 9fec b6be f38e 88bd 8444 61bd 7096 02bd
000003c0: 7103 97bd 102a cabd 15aa 40bd 6d37 6c3b
000003d0: f153 c6bd 0af1 41be 7044 90bd 45ca dcbd
000003e0: 1ece 91bf 842e b4bd 438e 9fbd f50d 1bbd
000003f0: ec83 a2bc bc6c 103e a820 debd c295 b53e
-0.08314901 -0.089645386 -0.084288955 -0.08594286 -0.08554084 -0.39831054 0.20571302 -0.1581916
-0.02417669 -0.05936077 -0.094664395 -0.099476494 -0.008055744 -0.059693072 -0.10818959 -0.102738574
-0.052390624 -0.028077 -0.3262186 -0.044204127 -0.18507338 0.2044386 -0.014209655 -0.05958868
-0.03326867 1.4441888 -1.6102505 -0.0658786 -0.090424 0.2676518 0.5699192 -0.07418386
-0.06458595 -0.017112758 -0.031563226 -0.062328517 -0.9684332 -0.082566164 -0.25595927 -0.046303492
0.20167802 -0.03256272 -0.16425571 -0.07925109 -0.09580602 -0.40189734 -0.41624036 -0.05515758
-0.09140601 -0.0505421 -0.581296 -0.14082986 -0.51994455 -0.05103279 0.23525319 -0.057120144
-0.09425833 -0.043823242 -0.068556115 -0.060765777 -0.05186811 -0.14919208 0.43694797 -0.08787934
-0.09899751 -0.62426156 -2.0543563 -0.004879472 -0.04945348 0.33082908 -0.34073955 -0.04776805
-0.042406294 -0.09778885 -0.005359133 -0.024934985 -0.11500609 -0.08317327 -0.43762788 -0.096418895
-0.10736454 -0.043663427 -0.0064279786 -0.09119877 -0.09104969 -0.4242102 -0.050687965 0.7861032
-0.56243175 -0.099589385 -0.039351076 -0.07419195 -0.20336175 -0.07905231 -0.056328695 -0.23191132
-0.09693429 -0.030332247 -0.058231503 -0.91518 -0.051937222 -0.080170296 -0.1601525 -0.11463888
-0.07228325 -0.08398427 -0.06211076 -0.03233861 -0.04009102 -0.038839966 0.0052392986 -0.027689535
-0.009914222 -0.06479895 -0.061226767 -0.053976767 -0.71387774 -0.8111352 -1.2370746 -0.13052285
-0.04152052 -0.57993764 -0.03937872 -0.011897045 0.21822242 0.26804662 0.31421655 -0.049005117
0.86871195 -0.07786594 -0.028101522 -0.11818719 -0.04810274 -0.11111043 -0.0069663464 -0.039940238
-0.046324387 0.006863396 -0.030235903 -0.12788373 -0.098980874 -0.100455314 -0.06441613 -0.04549595
-0.09461585 -0.054142654 -0.038223125 -0.08692629 -0.0469148 -0.03688348 -1.0748187 -0.0658841
0.6945919 0.18484247 -0.8187416 -1.5822183 -0.06889017 -0.93318623 -0.047144048 -0.08734764
-0.07264266 -0.050315175 -0.083904564 0.088238515 -0.08864413 -0.08693137 -0.012780544 -0.064791955
-0.5645527 1.2438889 -0.068951644 -0.6703427 -0.12001433 -0.043539632 -0.08060275 -0.27599585
0.23621173 -0.027362678 0.11975906 -0.021691207 -0.06752246 -0.061547976 -0.11543313 -0.5265969
-0.06473864 -0.07037854 -0.05464654 0.54042006 -0.0108844945 -0.03603788 -0.067607395 -0.082253724
-0.07816614 -0.79017407 -0.07484248 -0.9197833 -0.043128062 -0.01976613 -0.11292965 0.07000502
-1.1274875 0.0065190126 -0.081377506 -0.071388595 -0.15543482 -0.11379392 -0.09529489 -0.07586509
-0.5356205 -0.08985508 -0.05019046 -0.057093285 -0.4146449 -0.12755005 -0.05353509 -0.49390367
-0.07760324 -0.11945066 -0.21948409 -0.058111005 -0.38298556 0.0025008596 -1.291343 -0.081127755
1.7855932 -0.0813435 -0.15154377 -0.04500233 -0.09134861 -0.07371152 -0.06730398 -0.03322083
-0.072458416 -0.078165896 -0.028136544 -0.087651394 -0.35727403 -0.066678904 -0.054996982 -0.03188175
-0.07373703 -0.09871304 -0.047037203 0.0036043779 -0.09683979 -0.18939605 -0.070443034 -0.10780767
-1.1391027 -0.08797935 -0.07790806 -0.037855107 -0.019838296 0.14103979 -0.108460724 0.3546582
