project_3-Collaboration_and_Competition/solved_checkpoint_actor.pth (torch_old, 66958 bytes, 12 tensors)

fc1.weight f4 [100, 24]
00000000: 8328 14bf 101e 2abf befc e1bd c0af 7a3d
00000010: e4a4 ad3e 80fd 79bd fa5d 45be 5468 b93d
00000020: 7e22 d8be e966 ffbe 48fc a4bc 2479 593e
00000030: a5e5 513e 31ed 77bf d8b5 ab3d 275b 9b3e
00000040: c942 d8be f38f e1be e25d 26be f5a0 023e
00000050: bcc5 e63e 56f0 05c0 51bb 4dbe d8a5 d23d
00000060: 1a5c 3dbd 6274 813f 366e c73d 258d 1abf
00000070: 223a 30be 92a9 37be 1e4c 46bd 40c1 13bf
00000080: 10e6 2dbd ac4f 6e3f 5d12 90be de13 07bf
00000090: 4d83 0bbf eabf 7fbd 7d17 b3be 78d0 b0be
000000a0: 66d1 c7be d251 1b3f f668 81be 3fed abbe
000000b0: 641a 53bf e4dc dd3e 7aa0 24be 8e79 d1be
000000c0: 73e3 17bd 1082 b1bf 368b 09be 2277 e63d
000000d0: 201d 073e f998 203f 900b 3abe 43b5 2c3d
000000e0: 107d f3bc 79a8 b0bf 1f83 823e 6cda 40bd
000000f0: 3891 d2be 140f 773f 58ee c93d 3edb fcbd
00000100: b90f 883e 6dbe 9bbf 35ce 133d 54ea fb3d
00000110: de16 83bf f63c 453f bd68 fc3c 1dda 533e
00000120: 199a 063f 3e5a 483f 0a8d bdbe 0d01 9cbe
00000130: a911 2e3e 4ca4 273d eece a8be 3e78 87be
00000140: ff50 1f3f abf2 443f b873 063e 98ba 9b3e
00000150: 6f0a 5e3e 0c1d dfbe 50ef 343d 3e29 be3e
00000160: 738d 183f 22ba 333f f650 b63e 4808 d63d
00000170: 7218 0f3e 16bd 58bf 9184 b13e 0c79 57bd
00000180: 586d b4bd 3913 903e e21e 8b3d dbe9 3f3d
00000190: f2f0 3cbe 1379 0ebf 71bb c03d b2c3 963d
000001a0: 3734 0dbe d969 c13e cfa7 503a 0d33 a13d
000001b0: 9107 39bd 56d5 923f 04ac 133e c5f7 563d
000001c0: 69a4 1fbe 5bab e03e 1b67 9e3d e1fe 623f
000001d0: 2888 0c3d 7540 3740 550b ad3d e563 513f
000001e0: 22a2 05bf 5a31 99bf 3731 cabd 4f15 c1be
000001f0: 7d74 06bd 859a 16bc fee1 37be 19f5 6fbe
00000200: 5d18 ccbe 767c afbf f502 3fbd 1152 0fbe
00000210: 8629 e53d 4ad4 093f c949 b2bd b444 44be
00000220: 698b f2be 9f63 adbf 9bbe f1be b77d 6c3e
00000230: de45 a73e 96ad 003f 8769 ecbe 05eb a83e
00000240: 9e27 ab3e 009a 5c3f 73b7 12bf a489 8abe
00000250: 523d b03e 0d08 0ebf cc2c efbe c5c9 7dbe
00000260: a14d 5e3e 7306 e83e 7a63 61be 1b53 bfbe
00000270: 1539 713e 06ea 4b3e ea5c 96bd 0378 5dbe
00000280: 8e81 d13e b112 bb3e c42e 91bd 7b86 67be
00000290: 5683 5c3e f3a1 df3e 78fd 2bbe 111e 67be
000002a0: c83c 96bd 18e8 14bd ff71 cbbd 2482 943c
000002b0: 341c 6bbf 9ebe d6bf 9452 813c 6801 903d
000002c0: 5f6f 04bd 38bb fe3d 5005 8abd 6a54 853e
000002d0: fdcf 8cbe d7d0 5fbf 27c4 12bd 3eb6 5b3e
000002e0: 4c06 4dbe 73b3 013e 0c4a 2bbd ae44 543f
000002f0: 3ca8 c53e fa22 ed3e 1ac5 51bd 04e9 5c3f
00000300: ff0a b03e b3bd 57bf ae9d a3bd 8ff7 98bb
00000310: 4cae 68be f210 103d 323c 88bd 76a5 59bd
00000320: 2b20 663e 79b1 6ebf 9d20 07bc 5645 bf3d
00000330: a3c3 57bf 98b6 a93e f59f 71bb ebcb 583e
00000340: ba83 9b3e 5408 41bf fb7b b7bd 631c 3e3f
00000350: 2090 ddbf 8ba8 c23e 1b73 6c3c 6adf 583f
00000360: d9f5 0c3f 4a5f 3f3e 777d bc3e b468 1ebf
00000370: 3f37 8dbd a898 08bf 0acb 973e a87b 21bf
00000380: 9272 fa3e d57f 923a 7614 15bd 6e41 c6be
00000390: 236b c0bc e39e 11bf e021 fbbd 49fc 05bf
000003a0: 66db d03e 6a01 2abe 9479 13be dee8 4639
000003b0: 8a91 52be f7bd 81be 78bc 5ebe 4275 d1bc
000003c0: 55e4 163f b11a 823f e6c0 c7be 9f19 13be
000003d0: 7c41 7cbe 6858 5d3f d512 86be 142b bfbd
000003e0: 3dc3 1c3f 464d 913f 46b1 df3d cb05 a53e
000003f0: a2a4 89be 1762 043f 5331 1f3e c311 963e
-0.57874316 -0.6645212 -0.11034535 0.061202765 0.33914864 -0.061032772 -0.1927413 0.09053102
-0.42213815 -0.49883202 -0.020139828 0.21237618 0.20497759 -0.968463 0.08384293 0.3034298
-0.42238453 -0.44055137 -0.16246751 0.12756713 0.45072734 -2.092794 -0.20090987 0.102855384
-0.046230413 1.0113642 0.09737818 -0.6037162 -0.17209676 -0.1793578 -0.048412435 -0.5771675
-0.042455733 0.9309032 -0.2813901 -0.5276469 -0.54497224 -0.062438883 -0.34978858 -0.3453405
-0.39026946 0.6067172 -0.2527539 -0.33579442 -0.82462144 0.4333259 -0.16076842 -0.4091305
-0.037082147 -1.3867817 -0.13432011 0.112531915 0.13194704 0.6273342 -0.18168473 0.042165052
-0.02972272 -1.3801414 0.25490662 -0.047083303 -0.41126418 0.9650738 0.098599136 -0.12346505
0.26574495 -1.2167488 0.036085326 0.12300554 -1.0241354 0.77046144 0.030811662 0.20688672
0.52578884 0.782627 -0.37021667 -0.30469552 0.16998924 0.04092817 -0.32970375 -0.26458925
0.62232965 0.7693278 0.1313008 0.30415797 0.21683668 -0.43576849 0.04417354 0.3714084
0.59590834 0.7020589 0.35608643 0.10450798 0.13974169 -0.8466352 0.34671453 -0.052605674
-0.08809918 0.28139666 0.06793 0.04685388 -0.18451288 -0.55653495 0.094107516 0.07361545
-0.1378945 0.37776068 0.0007959576 0.07871065 -0.04517323 1.1471355 0.14421088 0.052482385
-0.15590061 0.43880734 0.077345096 0.88670164 0.034309536 2.8633091 0.08449427 0.8179305
-0.5220052 -1.1968186 -0.09872668 -0.3771157 -0.032825936 -0.009192114 -0.17957303 -0.23433341
-0.39862338 -1.3709857 -0.04663368 -0.1399615 0.111895606 0.5383955 -0.0870548 -0.19166833
-0.47371987 -1.3546027 -0.47215733 0.23094831 0.32670492 0.5026487 -0.4617426 0.32991806
0.33428663 0.86172485 -0.5731117 -0.27058136 0.34421784 -0.55481035 -0.46713865 -0.24784
0.217093 0.4531742 -0.22010604 -0.37368092 0.23556931 0.19913492 -0.07341941 -0.21627812
0.40919155 0.36537698 -0.07088998 -0.22609894 0.21534476 0.43678245 -0.1679591 -0.22570063
-0.07335812 -0.036354154 -0.099338524 0.018128462 -0.9183991 -1.6776922 0.015786447 0.07031518
-0.032332774 0.12438053 -0.067392945 0.26040965 -0.27502432 -0.8742804 -0.035831597 0.21456239
-0.20021933 0.1266611 -0.041818663 0.82917297 0.38604915 0.46315747 -0.05121336 0.86293054
0.3438339 -0.84273833 -0.079890594 -0.004668183 -0.22722739 0.03517241 -0.06652106 -0.05313631
0.22473209 -0.9323955 -0.008247522 0.09339397 -0.8428289 0.3314712 -0.0036869023 0.21171539
0.30373937 -0.7540333 -0.08959194 0.74262065 -1.7309608 0.38019213 0.01443174 0.847159
0.55062634 0.18688694 0.36814472 -0.61878514 -0.06895303 -0.53357935 0.29647094 -0.6307931
0.48915535 0.0011177013 -0.036396466 -0.38721794 -0.023488587 -0.56883067 -0.122623205 -0.5233808
0.40792388 -0.16602102 -0.14401847 0.00018969501 -0.20563331 -0.25340244 -0.21751583 -0.025568608
0.5894216 1.0164396 -0.39014357 -0.14365242 -0.24634355 0.8646302 -0.26186243 -0.093343884
0.6123541 1.1351707 0.10922484 0.32230982 -0.26883417 0.51712173 0.1554616 0.29310426

fc1.bias f4 [100]
00000000: 5cf3 d73e 45fa 4fbd 7d90 0abf 5fc6 3ebf
00000010: 3a42 1f3e 758f b83e 6231 14bf ab37 8bbe
00000020: dd9d 13bf dd7f d9be 1fba 03bf e2b6 4c3e
00000030: a3fd febe 03e1 17bf 6d98 c7be d8a6 8dbc
00000040: 940e 4fbf 6c9b 08bf 6e4f 643e fc8d a63e
00000050: 37b2 ec3d d6f0 00be 0721 8bbe 30b2 d9be
00000060: b6ff 25bf 1bf8 3ebf b948 b3be 2ad2 863e
00000070: f3ad 5fbf e426 5cbe efb1 2fbe cb3f 813e
00000080: 9434 30bf d90a 8cbe 4ec4 6abe 4ad0 ecbd
00000090: 71d5 0ebe 9e72 91be 10d6 4ebe cea2 2fbf
000000a0: ca16 2ebf 3805 5ebe e4da ecbe 18bf 9d3e
000000b0: 1e9f 50be e920 3e3e e223 333e 7b48 f1be
000000c0: d61a 033c 16db 313f f278 9cbe d685 a9be
000000d0: 33be 58bf bd5d 8ebd 93ad f0be 552a 27bf
000000e0: 97bf 48bf 04c4 eb3c f40a 733d c653 a33c
000000f0: c8d6 513e 3507 b63d 568e 343e 5bff 10bf
00000100: cd93 e2bd 6ac8 cdbe c33f 4d3d bac2 853e
00000110: 3a46 0fbf 66f2 10bd 61f4 a4be 5c68 ffbe
00000120: 62fc 333c 4b7e 983d 29aa e3bd 7b45 23bf
00000130: 8c0a 3abe c629 2cbf e352 c4be 3741 8e3e
00000140: 05d8 76be 3f74 2d3d 7351 34bf 4d77 3abe
00000150: cc76 4dbf 581b 52bf 1e73 31bf cc4d 7f3d
00000160: 6675 a2be 3ea7 00be c831 9abf d1a8 0a3f
00000170: f68d 6abe f8c0 953e 0bf8 d93e 0918 2ebf
00000180: 92b7 24be 4bf0 b0be 72ad 09bf 8a18 46be
0.42177856 -0.050775785 -0.5412672 -0.7452144 0.15552607 0.3604695 -0.5788785 -0.2719091
-0.57662755 -0.42480364 -0.51455873 0.1999164 -0.49802884 -0.59327716 -0.3898348 -0.017291471
-0.8088162 -0.53362155 0.22295925 0.325302 0.11557429 -0.12591872 -0.27173635 -0.4251876
-0.6484331 -0.7459733 -0.3501642 0.26332217 -0.873748 -0.2149921 -0.1715772 0.25243983
-0.6883023 -0.27352026 -0.22926447 -0.115631655 -0.13948609 -0.28407758 -0.20198846 -0.68607795
-0.68003523 -0.21681678 -0.4626075 0.30809855 -0.20373198 0.18567242 0.17494157 -0.4712561
0.008002004 0.69474924 -0.30561024 -0.3310992 -0.8466522 -0.06951473 -0.47007427 -0.6529897
-0.7841734 0.028779991 0.059336618 0.019937407 0.20492089 0.088880934 0.17632422 -0.5663964
-0.11063347 -0.40191966 0.050109636 0.26125127 -0.5596653 -0.03538742 -0.32217696 -0.49884307
0.010985466 0.074459635 -0.1111644 -0.63777894 -0.18168086 -0.6725124 -0.38344488 0.2778413
-0.24105842 0.04234719 -0.7043678 -0.18209572 -0.80259395 -0.82072973 -0.6931628 0.062330052
-0.31730193 -0.12563798 -1.2046442 0.54163843 -0.22905716 0.29248786 0.42572054 -0.68005425
-0.16085652 -0.3455833 -0.5378028 -0.19345298

bn1.weight f4 [100]
00000000: 7488 9d3f 8c9a 353f f74e 1a3f cd05 283f
00000010: 2b6e fa3e 1815 a13d b67f 48be 0352 b63f
00000020: 74dd 133f c422 6b3f 25b4 223f 80bb 3b3f
00000030: 29e9 e23e 8948 0b3f cf65 16be 6f66 f93e
00000040: aebb 673f 95c0 98bd cd24 403f 680e 313f
00000050: 8ad2 993e a925 a33f 0001 e73c 6b35 b1be
00000060: 3df7 373f 07c4 ddbe b18b 5c3f e4df 4f3f
00000070: 54e4 8e3f 824d 773f 46f7 0a3f 074f 8d3f
00000080: 452a 023e 0d13 913e 934c 803f 5cd5 353f
00000090: f04c a13e 6db2 d33e a148 0a3f f648 a73f
000000a0: 1b51 9a3f 2f5a fd3e 4499 fc3e 94d1 b63e
000000b0: 008d 093f 7aa0 823f 0a29 b43d a4c7 503f
000000c0: 25d9 2e3f fec4 533f 8900 053f 348f 973f
000000d0: 74c9 dd3e 4d5e c23f 189c 853f 2c51 213e
000000e0: 80f9 48bf 0b6b 393f e9ec 39bd d304 1a3d
000000f0: a95b a83f 389e 183f 767a 623f c901 223f
00000100: 6630 4e3e ed4e 1c3f 2c2a 403f 4a44 133f
00000110: d0e3 7e3f 6885 213f 6ef2 a53f 571a 2f3f
00000120: 4b92 473f 3051 c43f c3ae fe3f 3412 e23e
00000130: 2b12 d23d 3a94 713c acae 0640 f77a 2f3f
00000140: 97cd 433f 98e1 953e 03d7 093e 093c 0f3f
00000150: db25 3f3f 6567 223f 48d7 4b3f 2972 443f
00000160: 73fa 863f f1d9 523f a928 683d 086e 703e
00000170: 6b43 9e3f fb5f 673e 0ce6 813f 4a76 0d3f
00000180: 7ff0 5d3f af9b 2a3f 3237 1a3f 8db5 233f
1.2307267 0.70938945 0.6027674 0.6563385 0.48912176 0.078653514 -0.19579968 1.4243778
0.57759786 0.91849923 0.6355613 0.7333298 0.44318512 0.54407555 -0.14687274 0.48710963
0.9052075 -0.07458607 0.75056154 0.6916261 0.3004344 1.2745868 0.028198719 -0.34611067
0.7186163 -0.4331362 0.8615065 0.81201005 1.116343 0.9660264 0.5428356 1.1039742
0.12711437 0.28334847 1.0023369 0.71028686 0.3150401 0.41347066 0.5401707 1.3069141
1.2056001 0.49482867 0.49335682 0.3570677 0.53730774 1.0205224 0.0879689 0.8155463
0.68300086 0.8272246 0.5195394 1.1840577 0.4331776 1.5185028 1.0438261 0.15753621
-0.78505707 0.7242896 -0.04539195 0.037602257 1.3152972 0.5961642 0.8846811 0.63283974
0.2013565 0.6105793 0.7506435 0.57526076 0.99566364 0.63094187 1.2964609 0.68399566
0.779576 1.5337276 1.9897083 0.44154513 0.102573715 0.014744813 2.1044111 0.68547004
0.7648558 0.29273677 0.13460927 0.5595098 0.7466714 0.6343902 0.7962537 0.76736695
1.0545181 0.823638 0.0566794 0.23479474 1.2364324 0.22595207 1.014833 0.5525862
0.8669509 0.66643804 0.6024047 0.639489

bn1.bias f4 [100]
00000000: 30e9 8c3e 097c b9be 4477 9b3e 4ad0 1fbe
00000010: 8ebf 4dbd 08ef 37bd f7bf f0bc bd6c a93e
00000020: c16e b93e 6750 d8ba ee98 2ebd 653e 82bd
00000030: 986b 853e c29a 243d 2134 88bd 0648 db3d
00000040: 9625 febe 6ed4 483c ef81 bbbd 943c d83c
00000050: 6129 133e a85d 9f3e 26d0 e63c 2a72 62bd
00000060: f414 973e 90e7 37be ae77 93bd 2bee d63d
00000070: 288d 0a3e 334d 4f3e 145b 2b3c 49ff a03e
00000080: aa24 8dbd 8c15 fb3d 1f7c 7abc bb4e aebe
00000090: 0cd0 c5bd 177f 073e 2dfb 3a3e fd97 82bb
000000a0: 6357 003e ba80 993d 6cbe f13e 69bd c7bd
000000b0: f202 733d 6d94 1abe ff20 b0bd d438 8ebd
000000c0: d4f2 2abd dbe6 233e 8e46 b53d aad9 533e
000000d0: e955 8a3d a265 bb3d b304 33be 71bd bbbd
000000e0: 6f13 1dbf 6396 6fbd 175c 90bc e32c 43bc
000000f0: d5d2 eb3e 874d 233d 9dd7 bd3d 358e 41bd
00000100: afd7 bd3d 7711 cbbc 7903 653e c406 bb3e
00000110: 14e3 fb3d e036 92be 912b eabd 2f95 6fbd
00000120: 235b 4fbd 7ca3 163e fe5e 083f d768 663d
00000130: 726c 01bd a686 4eba 31bc ce3e d887 c33e
00000140: 6b75 22bf 167d 0d3e ae9b 973c 04cc 5cbe
00000150: 3737 c63d c1db 803d 1197 ba3d 412d 593e
00000160: 518c b63e 763a 743e 7c62 5a3d f24c 1f3e
00000170: eb6f 113f 2f43 ee3b 6dce dbbd cb42 13bd
00000180: 5df2 813e f30c 103d 7157 cf3d bc8a a73d
0.27521658 -0.36227444 0.3036443 -0.156068 -0.05023151 -0.044905692 -0.029388411 0.33090773
0.3621731 -0.0016503454 -0.042626314 -0.06359557 0.2605865 0.04018665 -0.06650568 0.10707097
-0.4963805 0.012257678 -0.09155642 0.026396073 0.14371254 0.31126142 0.028175425 -0.055284657
0.29508173 -0.17959428 -0.072005615 0.10494646 0.1353041 0.20244293 0.010458726 0.31444767
-0.06891759 0.12259969 -0.015288382 -0.34044442 -0.096588224 0.13232075 0.18259878 -0.0039854036
0.12533335 0.07495256 0.47215593 -0.09752924 0.05932898 -0.15095682 -0.086000435 -0.06944433
-0.041735485 0.16006033 0.08851348 0.20688501 0.06754667 0.09150244 -0.17482261 -0.091669925
-0.6135778 -0.05849303 -0.017622037 -0.011912557 0.4605929 0.039868858 0.092696406 -0.04725476
0.09269654 -0.024788601 0.22364606 0.365286 0.12299171 -0.2855749 -0.11434091 -0.058491882
-0.050624024 0.14710802 0.53269947 0.056252327 -0.031597562 -0.00078783405 0.40377954 0.38189578
-0.63460416 0.13817248 0.018506851 -0.21562201 0.096785 0.06291915 0.09110845 0.21208669
0.35653928 0.23850426 0.05331658 0.15556696 0.568114 0.0072711925 -0.10732732 -0.03595237
0.2538022 0.0351686 0.101241 0.08180758

bn1.running_mean f4 [100]
00000000: 9225 c540 6e93 d440 fa1a 2d41 a42f 503f
00000010: e1c9 8441 0bdf a441 864c 3040 3366 e93f
00000020: 6737 bc40 32dd d63f d6c2 b43f fb10 ed40
00000030: 3027 0a41 7b3e 063f 42ec 9a3d 8829 7240
00000040: 832a ec3f b7b9 a540 a045 8941 ee94 7341
00000050: e723 2f41 499b 503f eacf 3a41 6e7d a23f
00000060: be5d 6540 f0e8 5d3e 6586 2741 6bc1 5240
00000070: a7ea 0440 d137 6040 38c5 bb40 b6d8 a741
00000080: 963a 2640 e456 d540 0400 0000 3ce5 d93f
00000090: 3613 2841 7c14 f53f fbd5 483f 544c 0c40
000000a0: bef5 ab3f 81e2 0041 8485 ee3e 7fa6 9f41
000000b0: 8614 ee41 bc26 3541 1cab 6341 68ef eb3f
000000c0: 7d06 4241 4cbd e941 66b2 c63f ef89 0940
000000d0: 1113 af29 162b 5241 6884 583e f3b5 223f
000000e0: 5fd6 f13f 622e 6e41 eaee b940 33f4 9441
000000f0: 4425 d33f 5a44 3941 0dd1 4241 a55e 0f41
00000100: da01 5b41 f25e 943d ef78 4140 6b1e 3a41
00000110: d05f 2240 2180 6640 a526 9d3f 8150 a640
00000120: 0590 6441 2861 3e40 9f8b be3f bade cc3d
00000130: 13c7 e83d 5501 4d3d ecae 8d40 f683 2841
00000140: 1fe0 0c41 c210 0841 dc40 9a40 765c 0241
00000150: 0b05 1e41 dad4 4040 200c d33d 7ad3 2741
00000160: 5562 6341 a8c9 5040 77f6 063e 45fb 1141
00000170: 4936 3240 31db c341 52f6 7841 c652 a63c
00000180: cba4 3c41 01c1 763d ffb7 483f a3eb 7540
6.160836 6.642997 10.819086 0.81322694 16.598574 20.608908 2.7546706 1.8234314
5.881763 1.6786253 1.4121959 7.408323 8.634567 0.5243909 0.07564594 3.7837849
1.8450474 5.1789203 17.158997 15.22386 10.946265 0.81486946 11.67576 1.2694528
3.5838466 0.2167089 10.470311 3.2930553 2.076822 3.5034068 5.8678246 20.980816
2.5973258 6.666857 6e-45 1.7023082 10.50469 1.9146876 0.7845151 2.1921587
1.343437 8.055299 0.4658624 19.956297 29.760021 11.321957 14.229275 1.8432436
12.126584 29.21743 1.5523193 2.1490438 7.774869e-14 13.135519 0.21144259 0.6355888
1.8893546 14.886324 5.8104143 18.619238 1.6495748 11.579187 12.176038 8.960607
13.687952 0.07244672 3.0230062 11.632426 2.537098 3.6015704 1.2277418 5.197327
14.285161 2.97468 1.4886359 0.10003419 0.113660954 0.0500501 4.427603 10.532217
8.804717 8.504091 4.8204174 8.147573 9.876231 3.0129914 0.10305047 10.48913
14.211507 3.2623081 0.13179956 9.123845 2.7845633 24.482027 15.560137 0.020303141
11.790233 0.060242657 0.78405756 3.8425071

bn1.running_var f4 [100]
00000000: 2384 8742 da26 dd42 209e a442 6e33 5441
00000010: 42a6 c942 7f69 4b43 e08e 6642 e92e 4d41
00000020: 2bbb 8d42 f98b 1942 caa9 a941 cc82 ad42
00000030: 6f42 f342 4015 de40 27d8 983e 1052 0d42
00000040: e475 c741 6f14 d142 05df a042 b409 a542
00000050: 2d4f 5443 ea34 e040 ea30 d742 e280 b341
00000060: f333 5342 dbdf 3840 20f9 db42 60c4 f941
00000070: 4c81 0242 ddff 7b42 c79b 2643 eea9 f542
00000080: 34d9 8f42 150d 4543 0400 0000 3f18 bc41
00000090: 3dd1 2243 39c7 e041 509b 1841 5101 d641
000000a0: 09f6 aa41 d9a3 c642 7481 f440 3fb5 8242
000000b0: 0a95 4d43 2440 4e42 d5f0 8143 26b5 3542
000000c0: 48e9 d142 542c ac42 c5b4 c541 97a3 1042
000000d0: 5edc 2b2a 1755 5b42 c0f9 0040 93d5 3c41
000000e0: 75e7 f341 bf88 6643 1fcc a642 6d46 1543
000000f0: c6b9 a241 4827 dd42 8aa6 b942 33e0 ce42
00000100: 2c87 0643 83d4 fa3e 7b80 7542 7891 0b43
00000110: b137 3942 90a0 8142 1815 5741 994c 4142
00000120: 536c 0e43 efa7 ea41 db29 4841 2a5b 393f
00000130: 23dd 573f 55e4 9d3e 61a2 ff41 1c8c 0b43
00000140: bb39 8942 4c8b 0843 3f25 8542 d187 0843
00000150: 5e5b e842 2128 b042 2d55 3b3f c16d 9242
00000160: 05ea 2643 2f90 4942 6405 8a3f c447 0b43
00000170: b6a8 e441 f219 1743 3c2e 5942 f3f4 2b3e
00000180: 9a0a 2a43 57b7 a13e bb12 0241 13b4 6e42
67.75808 110.57588 82.30884 13.262556 100.82472 203.4121 57.639526 12.823953
70.86556 38.386692 21.207905 86.75546 121.62975 6.940094 0.2985241 35.33014
24.932564 104.53991 80.435585 82.51895 212.30928 7.006459 107.595535 22.437931
52.80073 2.888663 109.98657 31.220886 32.626266 62.999866 166.6085 122.831894
71.924225 197.0511 6e-45 23.511839 162.81734 28.097277 9.537918 26.750643
21.370134 99.320015 7.6408024 65.354 205.58218 51.562637 259.8815 45.426903
104.95563 86.08658 24.713266 36.159756 1.5264306e-13 54.833096 2.0152435 11.802142
30.488016 230.53416 83.398674 149.2751 20.34071 110.57672 92.82527 103.43789
134.52802 0.4899026 61.37547 139.56824 46.304386 64.8136 13.44265 48.324802
142.42314 29.331999 12.510219 0.7240473 0.843218 0.30838266 31.954287 139.5473
68.612755 136.54413 66.57275 136.53053 116.17845 88.07838 0.7317684 73.21436
166.91414 50.390804 1.0782895 139.28033 28.582378 151.10135 54.29515 0.1679266
170.04141 0.3158519 8.129573 59.675854

fc2.weight f4 [75, 100]
00000000: d4b2 013f 295a 93be e4c3 5ebe b334 983d
00000010: 8702 1bbe e092 a03c 2bc7 ce3e aebf bebe
00000020: e406 06bd 59f8 9dbe fe5d 353f 6cb1 893e
00000030: 0b0d f33d b43e 31be aa41 eabd fc57 9dbe
00000040: 1fba 473e f25b 9d3e 9efd 51bd 7738 13bd
00000050: 3aff 7f3e 8b16 f7bd 4eb2 aa3d 4923 c43b
00000060: 45f8 0ebf bede 97be f1a6 573e 233a 34bf
00000070: 5ded 4abe 84a9 d33e dcd6 e0be 8540 5cbf
00000080: 4e7e fa3d d29e 1fbe 3d88 813e b3cc 883e
00000090: 5505 a63e 51b4 a03e 8bc2 ae3e 45ee 8a3e
000000a0: b9a8 863e e502 aabe f225 1a3e f985 41be
000000b0: 70ef 8bbe 3dd9 99be 59ed 683e 3794 203e
000000c0: 0fb9 aabe 9f6c 043f 67e4 ad3d 307d e73d
000000d0: 648f 993c 3cd1 06bf 38fb ba3d 9c4a 313e
000000e0: 8321 583f a07a 053f 0fec 04bf 7295 a43d
000000f0: 65df 35bf bbd3 46be 9453 423e b744 d4be
00000100: 310c 4dbe 8a63 d43c 1b92 78be 0ff1 a33e
00000110: d7ca 8fbd 302a efbd ab41 7fbe 709f 4cbe
00000120: ecf1 20be 2c2d 84be c4f5 3fbf 0ac5 c6be
00000130: b755 813d 1296 b23d 590c 9dbf f9c2 a8be
00000140: abc8 0dbe 0bfe 83bd 57b1 a23d 1341 e7be
00000150: 65c1 b5be be1e a8bb 2156 093f ee2d 773f
00000160: aacd a33e 5511 6c3d 97fd fe3c aa1d e13e
00000170: a7ba a0bf a72f babc 9e15 acbe 1547 a6be
00000180: 2219 b5bd d96c df3d c852 7ebe cd82 9dbd
00000190: ef5a fbbe bede e4be 46ce d3be c709 f63e
000001a0: 350c d13e 3e0a 403e 983b 433b 15fd 613e
000001b0: db92 5bbe 91d7 76be 5802 243d e579 ef3c
000001c0: cdf0 bfbe 6de9 4abd d708 803e d9b8 403d
000001d0: bbfe 47bd 25d5 59be fc0f f53e 940e 75be
000001e0: f110 d9bd cf13 53bf c790 553b 5a46 15be
000001f0: 9f98 e4be afe1 01be 9315 5e3d b589 a1be
00000200: cdf6 6fbe 48c8 63be b634 723e f154 83be
00000210: 6af7 993e 60f3 03be 2842 8f3d 17ea 253e
00000220: fcb1 49bd 8925 a5bc e13f a8be 1de7 87be
00000230: 0edb e23d 7d23 84be c7ef 42bf 0112 bc3d
00000240: e010 13bd 3dcb c83e 60d3 603b 3413 b2bd
00000250: bbad b63e cbf9 fb3d 1205 c6be 2cfc 743e
00000260: e855 23be 02f0 903e 642c a2bd a05e 373e
00000270: 1558 c03e 0365 fabe 6e92 db3e 67af 213e
00000280: 6447 c9be aefc 9a3e fd0f d73e fc77 99be
00000290: f66c 8b3d 917f abbc 9a0a babe e522 e53c
000002a0: 33c8 163e ddbe 75be a4d1 aa3e 24a0 9a3d
000002b0: cca8 41be e6de 84be 72ad 95be 106a 05bf
000002c0: bf6f 9d3d 5d5c 463d 515d bebf ce41 f3be
000002d0: fc7a d73e 171c ef3d 35e2 83bd 2d0a ad3d
000002e0: a93a 71bc d1c0 38be 706d df39 c49f a73e
000002f0: 94ff b7bd 9f1f 22bf 6423 cdbd 7200 c0bd
00000300: 837c 44bf 38d4 063e 9652 693e d36e 56be
00000310: e0dd d5be 399d fa3d 9161 593d 0c2f 4f3d
00000320: beb7 50be 84d6 8fbe fbb1 24be 7cc6 df3d
00000330: d0a5 7b3f f5c0 6e3e e5ac 093f eca3 153f
00000340: 9233 aa3e fa4a c23d c6db 263e 728e 2f3e
00000350: a4a2 a0bd 5ee0 f2bc f247 6dbe 4bc3 993e
00000360: a9e2 5c3d 2c71 1e3f 3bc0 283f 41a8 b63e
00000370: 9bf0 96bd 9df4 54bd 1fbe ef3e 6cc7 db3e
00000380: a9a6 5a3e 09e2 8e3b 4056 f33c f28e 0d3f
00000390: ab34 ccbc 6068 3a3e 9d4e e6be f15f 4fbf
000003a0: eaa3 a8bd 6ccf 49be b9dc 7dbe dd32 173e
000003b0: 2bfe 623c 0ade c83d 51c7 cf3e 5a3b c63e
000003c0: 848d 9cbe 32f3 273f 9589 5bbe 4414 8bbd
000003d0: 4412 79be 0793 603e 0397 8c3e bade 1bbe
000003e0: e748 1d3f d04f 1bbe 0f4a 29bf a355 1cbe
000003f0: a110 f3bd fb62 173f 30d9 fe3d c12a 5fbe
0.50663495 -0.28779724 -0.21754414 0.074319266 -0.15137683 0.019601285 0.40386328 -0.37255615
-0.032721415 -0.30853537 0.70846546 0.26893175 0.11867722 -0.17309076 -0.11438306 -0.3073119
0.19504593 0.3073421 -0.05126726 -0.03594252 0.24999705 -0.120648466 0.0833479 0.0059856516
-0.5584758 -0.29662126 0.21059777 -0.7040121 -0.1981711 0.41340268 -0.43913925 -0.8603595
0.12231122 -0.15587929 0.25299254 0.26718673 0.32425943 0.3138757 0.341328 0.2713491
0.263006 -0.33205333 0.15053537 -0.18898763 -0.27331114 -0.30048552 0.22746791 0.1568154
-0.33344314 0.5172824 0.0849083 0.113031745 0.018745132 -0.52663016 0.091299474 0.17313617
0.84426135 0.52140236 -0.51922697 0.08036317 -0.71044 -0.19416706 0.18977195 -0.41458675
-0.20024182 0.02592637 -0.24274485 0.3201985 -0.070211105 -0.116779685 -0.24927394 -0.19982696
-0.15717286 -0.25815713 -0.74984384 -0.38822204 0.06315177 0.0872003 -1.2269393 -0.32961252
-0.1384608 -0.06444939 0.07943981 -0.45166835 -0.3549911 -0.005130618 0.5364705 0.9655446
0.31992847 0.057633717 0.03112678 0.43967944 -1.2556962 -0.0227278 -0.33610243 -0.32476106
-0.08842684 0.10909433 -0.24836266 -0.07690964 -0.49092814 -0.4470119 -0.41368312 0.48054335
0.40829626 0.18753907 0.002979016 0.220692 -0.2144274 -0.2410567 0.040041298 0.029232929
-0.37488404 -0.04953902 0.25006744 0.047051284 -0.048826914 -0.21272714 0.47863758 -0.23931342
-0.105989344 -0.824521 0.0032587515 -0.14577618 -0.4464769 -0.12683748 0.054219794 -0.31550375
-0.23433991 -0.2224437 0.2365292 -0.25650743 0.30071574 -0.12885809 0.0699504 0.1620258
-0.049242005 -0.0201595 -0.32861236 -0.26543513 0.110769376 -0.25808325 -0.7614712 0.091831215
-0.035904765 0.39217559 0.0034305677 -0.08695069 0.3567942 0.123035036 -0.38675743 0.23924321
-0.1595074 0.2830811 -0.07918623 0.1790719 0.375672 -0.4890519 0.42885154 0.15789567
-0.3931228 0.30270904 0.42004386 -0.29974353 0.06807892 -0.020934852 -0.36336213 0.02797074
0.14724807 -0.2399859 0.33363068 0.07550076 -0.18912047 -0.25951308 -0.2923389 -0.52114964
0.076873295 0.04842793 -1.4872228 -0.47511142 0.42086017 0.116752796 -0.0643963 0.084492065
-0.014723458 -0.18042304 0.00042615412 0.3273908 -0.089842945 -0.633295 -0.10016516 -0.09375085
-0.7675249 0.13166893 0.2278541 -0.20940714 -0.4177084 0.12237019 0.053071562 0.050581977
-0.20382592 -0.2809335 -0.16083519 0.1092653 0.98299885 0.23315795 0.5377944 0.5845325
0.3324247 0.09486957 0.16294774 0.17144182 -0.07843521 -0.029648002 -0.23171976 0.3003181
0.053927097 0.61891437 0.6591832 0.35675243 -0.073701106 -0.051991094 0.46824738 0.42925584
0.21352638 0.0043604416 0.029704213 0.5529624 -0.024927458 0.18203878 -0.44981852 -0.8100577
-0.08234389 -0.19708031 -0.2479123 0.14765497 0.013854544 0.098079756 0.40581754 0.38717157
-0.30576718 0.6560546 -0.21439202 -0.06790975 -0.24323374 0.21931086 0.27458963 -0.15221682
0.61439365 -0.15167165 -0.6612863 -0.15267043 -0.11868406 0.5913541 0.12443769 -0.21793653

fc2.bias f4 [75]
00000000: 4254 fabd 7392 873c b903 b53d 71aa dc3d
00000010: 647e f4bd de73 88bd c376 c2be 9503 9bbe
00000020: a471 24bf 0c00 1bbe e45a e5be 7911 0bbe
00000030: d310 6d3d c1e1 a2be be05 4fbf 5ef0 06be
00000040: 3624 fcbe 3f74 a8be 599a 573d 02f6 d0be
00000050: 75bf 003e f622 803e 5815 243d 5c27 04bf
00000060: 5b08 f1bd 469c 69be 218f 0abe e783 673d
00000070: d8d2 b2be 9a3b 4dbe e481 58be 2d73 95be
00000080: caf4 00bf 0360 81bb 78a5 1dbf 8a28 68be
00000090: 7b59 093e c34a 0bbf 98bb a2bd ef8d a9be
000000a0: 4ae9 4bbd 5106 91be 4f2c 90be 4fe1 1f3e
000000b0: b640 38be 9ed4 6dbe cee9 c5be 1b70 afbe
000000c0: 021f d5be e72f d6be aca7 5f3d be76 07bf
000000d0: cc62 b6be 9371 863e 58ef 44be 4f03 83bd
000000e0: 3b39 4abe 226b 3ebf 2dee 4d3d a0a9 4b3e
000000f0: 3911 05bf a990 08bf ab0d e73d e27d 3ebf
00000100: 3956 38be 4543 173c 5c54 ddbe 74d0 723d
00000110: 0876 5f3e a05a 69ba a892 583b 26b5 f2be
00000120: 9f14 943c 610f 61be ffdc 13bf
-0.12223102 0.016549325 0.08838601 0.107746966 -0.119381696 -0.06662725 -0.37981233 -0.3027617
-0.642359 -0.15136737 -0.44795907 -0.13580884 0.057877373 -0.31812862 -0.80868137 -0.1317763
-0.49246377 -0.3290119 0.05263743 -0.4081269 0.12573035 0.25026673 0.040059417 -0.5162256
-0.11769172 -0.2281352 -0.13531162 0.056522276 -0.34926486 -0.20042267 -0.211433 -0.29189435
-0.5037352 -0.003948213 -0.6158061 -0.22671714 0.1341304 -0.5441095 -0.07945937 -0.331161
-0.04978303 -0.28325132 -0.28158805 0.15613292 -0.17993435 -0.23225638 -0.3865494 -0.34265217
-0.4162522 -0.41833422 0.054603264 -0.5291556 -0.3562225 0.26258525 -0.19231927 -0.063971154
-0.19748394 -0.7438222 0.05027597 0.19888926 -0.51979405 -0.53345734 0.11281904 -0.7441083
-0.18001641 0.009232347 -0.43228424 0.059280828 0.21822369 -0.0008901749 0.0033046398 -0.4740383
0.01807624 -0.21978523 -0.5775909

fc3.weight f4 [75, 75]
00000000: cd70 b5be 87a8 9abe aa9a 52be 65bc 3b3d
00000010: 33ca 893e e2ef 8cbe d481 1abe b975 14be
00000020: 116c 46bf 99c1 4a3e 4557 133f 31a3 ad3d
00000030: 0c14 f1bd 29af 8c3e 3e72 dbbd e4f4 5cbe
00000040: 0ecd a0be 80e6 6fbf c0f1 163e 2239 0c3e
00000050: 6ebf 073f b4f9 583d 0042 343e a783 09bd
00000060: 664d 1cbf 63a5 7bbe faac 0cbf 6dbe 81be
00000070: 8ba6 013e 057c 18bf f57c 71be 1a99 8a3e
00000080: e6ab b5be 6c25 ca3d 7067 b8be 8d52 91be
00000090: b76c ebbe 3b0f e2be 6daf 0f3e 29a3 623d
000000a0: d17f bebe d4f5 78be 8598 c0bd 11d8 15be
000000b0: b98d 243e c877 15bd 19a5 0c3e 7946 f33c
000000c0: 1309 06be 4faa cf3e a444 9fbd 67e7 04bf
000000d0: 7392 b5be caf6 dabc c7f2 5cbc 3450 84bd
000000e0: 90a0 00be 81a5 05bf 5278 d63d aa37 43be
000000f0: 213b bd3e 71e8 62bc 4a0b 8b3e c909 46be
00000100: 1d72 e73b 3be2 bbbe 6c42 aebe 94ff b2be
00000110: e6dc f2be 9cd0 82bc 8f07 86be b491 d53e
00000120: cb84 82be 83bd ffbe aa81 0d3e 4c15 c73e
00000130: 8ed5 c83e 6a2d 0fbf cad7 15bf eee9 afbe
00000140: 4338 3abf 2c6d a63e 68a6 073f 10d3 063c
00000150: 9e9b 323f b2a5 90bd d886 8ebe 66cf b1bf
00000160: 0fb7 f53d cb42 20be 2101 55be b409 5c3e
00000170: 30c8 8fbe 93d1 d1bd 515b 42be f92b 043f
00000180: 9eb8 c73d 316a 3c3e 2226 0fbf 1eb5 513e
00000190: 71cb 533d 3100 f0be b1d8 46bf 09bc babd
000001a0: 2353 a7bd 735f 113f 3399 debe 5b0b 10be
000001b0: 5bcf fa3c 73ab 02bf feb5 2fbd 7f69 40be
000001c0: 081a fa3d fd81 233e fa57 57bd e7f6 96be
000001d0: d8ed 503b 0b24 dcbe b4f6 55be f86e b23d
000001e0: 43a0 33be fc46 07bf 80b7 4fbd 6d06 6bbc
000001f0: 2cff 6c3c 9976 fc3e dcbd 57bf 514f 91be
00000200: 7728 e6be 633b 1ebe ed69 623e 8a6a 2ebe
00000210: 8e07 54bf 0a6b 25be 69b5 f93e 1e0d b43e
00000220: 0ef4 8fbd 31cb be3e 304b ffbc e05b d53e
00000230: a17e d3bd 1e6e 9f3d 1e58 a73e 982b 87bf
00000240: 52c9 d33e 5c48 5bbe 94cb b23c 0b4c 2bbf
00000250: f87f 0d3d 53e1 9b3d 2348 edbe 24bb 683d
00000260: cbeb e53e 8ffd 5abf f8a4 63bd 07fc 98be
00000270: cf9e acbe 9dc1 63bc 6b0c c23e 004c 5ebe
00000280: 709a 16be df1f 9c3c 8067 b2bd de0a 80be
00000290: 31d7 55be 7d8d 253d 9799 013f fbdf b1bd
000002a0: 3a06 c53e 9076 a7bb c877 a23d d99b ba3e
000002b0: b079 c53e b929 313f ea1d e93e 7a7a 8f3e
000002c0: 2007 89be 8605 f2be b883 fe3e 611c 2c3e
000002d0: 5983 443e 9ede ca3e da8f 23be f9fe 9a3e
000002e0: 5321 243f 2a29 1dbe 8db8 ea3e 816e a73e
000002f0: a3ac 3b3e 00bc 073e 7cc4 c53d b814 213f
00000300: 13fc de3e ed26 aa3e d2b2 c23e 3262 303f
00000310: a1ac b53e bbb6 d13d 65f9 30be 8877 043f
00000320: f60b bdbf ca77 1c3e 5efa 393f 8346 b4be
00000330: 751c 0a3f 937a 00bf 41ab 3ebe 7036 ef3e
00000340: 234a 99bd 262a bdbd e3fe b53d 947c 5cbe
00000350: f027 e53e e7b3 263e 695c c23c 690b ab3d
00000360: 3fc5 5abe cdbe ae3e 5b7f 2abf 6461 06bf
00000370: d322 213f 91f4 a43e 293a 3e39 1616 d9bd
00000380: 113c 1a3f 680f 5fbe 3d30 d3bd d26c 493e
00000390: 3e41 4f3e 8099 12bf 3c19 58bf 350c 28bf
000003a0: 6036 e2be 23f1 e6be 577e 2fbf 65f9 25bf
000003b0: cc28 9aba 3cb2 3abf 53f1 e4bb 735e 77bd
000003c0: 9ddb 7ebe 3932 27bd 2f22 b4bd 7ad7 393d
000003d0: 6869 08bd 1f0b c1be 59a9 c3be 5b07 8f3d
000003e0: 2bce 97bc 4915 bebd f9d8 12bf c590 cb3d
000003f0: 9588 92bf 29e9 aebd 95a3 9bbe e7de 61bf
-0.35437623 -0.302067 -0.20566812 0.045833964 0.26912078 -0.27526766 -0.15088588 -0.14498033
-0.77508646 0.19800414 0.5755504 0.08478392 -0.11771402 0.27477387 -0.10715149 -0.21577793
-0.31406444 -0.9371109 0.14740658 0.1369367 0.53026474 0.05297251 0.17603302 -0.03357282
-0.610556 -0.24574809 -0.5495144 -0.25340596 0.12661187 -0.5956424 -0.23582824 0.27069932
-0.3548271 0.09870419 -0.36016417 -0.28383294 -0.4598138 -0.44152245 0.14031763 0.055331383
-0.3720689 -0.24312526 -0.09404091 -0.14633204 0.16069688 -0.036491185 0.13734855 0.02969669
-0.13089399 0.40559623 -0.07776764 -0.5191559 -0.35463294 -0.026729006 -0.013485617 -0.0646061
-0.1256125 -0.52205664 0.10472168 -0.19064203 0.36959174 -0.013849364 0.2715705 -0.1933967
0.007063164 -0.36696038 -0.3403505 -0.34960616 -0.47434157 -0.015968613 -0.26177642 0.41712725
-0.25491938 -0.49949273 0.13818994 0.38883436 0.3922543 -0.5592867 -0.5853239 -0.34358162
-0.727421 0.32505167 0.5298829 0.008229032 0.69768703 -0.07062854 -0.27837253 -1.3891418
0.11997806 -0.1565048 -0.20801212 0.21488076 -0.28082418 -0.10245051 -0.18980147 0.51629597
0.0975201 0.18399884 -0.5591756 0.20479247 0.05170769 -0.46875146 -0.77674395 -0.09117896
-0.08170154 0.5678627 -0.43476257 -0.14066832 0.030616453 -0.5104286 -0.04289817 -0.18790244
0.12211996 0.15967555 -0.052574135 -0.29485247 0.0031880047 -0.4299625 -0.20894891 0.08712572
-0.17541604 -0.5284269 -0.05071211 -0.014344794 0.014465135 0.49309233 -0.8427408 -0.28380826
-0.44952747 -0.15452342 0.2211072 -0.17032829 -0.8282403 -0.16154113 0.48771217 0.35166258
-0.070289716 0.37264398 -0.031163782 0.41671658 -0.10326887 0.07784675 0.32684416 -1.0560179
0.41364533 -0.21414322 0.02182559 -0.6691291 0.03454587 0.076113366 -0.46344098 0.056819096
0.44906458 -0.8554315 -0.05557725 -0.29879782 -0.3371491 -0.0139011415 0.379001 -0.21708679
-0.1470735 0.019058166 -0.08711147 -0.2500829 -0.2088287 0.040418137 0.50624985 -0.08685299
0.38481313 -0.0051105693 0.07933003 0.36447027 0.38569403 0.6920429 0.45530635 0.2802313
-0.26763248 -0.4726984 0.49709868 0.168077 0.1919073 0.39622968 -0.15972844 0.30272654
0.6411335 -0.15347734 0.45843926 0.32701495 0.18327574 0.1325531 0.09656617 0.6292224
0.43551692 0.33232823 0.38027054 0.68899834 0.35483268 0.10239931 -0.17282636 0.5174489
-1.4769275 0.15280071 0.72647655 -0.35210046 0.5394967 -0.50187033 -0.18620016 0.4672122
-0.074848436 -0.09236555 0.088865064 -0.21531898 0.44757032 0.16279565 0.023725705 0.08351786
-0.21364306 0.34129944 -0.6660058 -0.52492356 0.6294376 0.3221784 0.00018141478 -0.10599916
0.60247904 -0.21783221 -0.10311935 0.19670418 0.20239732 -0.5726547 -0.84413505 -0.65643626
-0.4418211 -0.45105848 -0.68552154 -0.6483367 -0.0011761426 -0.72928214 -0.006986776 -0.06039281
-0.24888463 -0.04081938 -0.087955825 0.04537151 -0.03330365 -0.37703797 -0.3821514 0.06983825
-0.018530926 -0.092814036 -0.57362324 0.09939722 -1.1447932 -0.085405655 -0.3039824 -0.88230747

fc3.bias f4 [75]
00000000: 2c5a 02bf 0263 893d 4b2f c6be c1df 10be
00000010: 6f0b 3fbe df85 9bbe 5c33 59bd 8b23 8cbe
00000020: 8ff3 023f a375 6b3d 9e35 9c3e c133 13bf
00000030: c488 81be 96e0 82bb 2f38 b1be 8fb7 d0be
00000040: 6b1f e7be 6cc8 013c 41b9 c9be 759a e4be
00000050: 577d 63bd dd2d 42bc 43b1 b0be 53f4 ebbd
00000060: 5677 10bf 618e 2c3e d864 21be 5031 10be
00000070: 4823 11bf ae22 a4bd f6d4 e7be 854b f5be
00000080: 8740 c0bd 14b6 b6be 4093 41bf 84c9 e0bd
00000090: f010 51be 40fd 32be 22f2 ecbe 29ba 30bf
000000a0: abf6 233e f453 b9be e740 1fbd cbfc f3bc
000000b0: 7662 9dbd ccaa c2be 33bc 83bd 8f03 94be
000000c0: 2e55 16be d6fb b1be fdee eebe 25a6 8ebe
000000d0: 7642 83be 5db4 13be d481 d2bc 7285 e5be
000000e0: afd9 e1be c0ef a13e 7eb3 b23c d817 2fbe
000000f0: 2da4 7cbe 7cdf 8fbe 2483 bbbe 55ed 0fbf
00000100: 48e3 80bd 573d e9be 8899 8fbe e124 493e
00000110: d4f5 75be cc87 bfbe c55c 0abf 977f 153f
00000120: 2be7 6bbe babd 11be 3094 5dbc
-0.5091884 0.06708337 -0.38707957 -0.14147855 -0.18656705 -0.30375573 -0.053027496 -0.27370867
0.5115289 0.057485234 0.30509657 -0.57500845 -0.25299656 -0.003994058 -0.34613177 -0.40765044
-0.45141158 0.007921319 -0.3939915 -0.4464909 -0.055539455 -0.011851755 -0.3451024 -0.115212105
-0.5643209 0.16851188 -0.15761125 -0.14081311 -0.5669446 -0.08014427 -0.45279664 -0.4790918
-0.093873076 -0.3568579 -0.7561531 -0.10975936 -0.20416617 -0.1747942 -0.46278483 -0.6903406
0.16012065 -0.36196864 -0.038880255 -0.029783627 -0.076847956 -0.38020933 -0.064323805 -0.28908965
-0.14680931 -0.34762448 -0.4666671 -0.27861133 -0.25636643 -0.14424272 -0.025696672 -0.44828373
-0.44111392 0.31628227 0.021814104 -0.1709894 -0.24672003 -0.28100193 -0.3662349 -0.56221515
-0.062933505 -0.4555461 -0.28046823 0.19642974 -0.24019557 -0.37408292 -0.54047805 0.5839781
-0.23037402 -0.14232531 -0.0135241

fc4.weight f4 [2, 75]
00000000: 8c98 493d a1d0 113f 9a85 86bf 9052 92be
00000010: ef81 5c3e e4fa 0b3e 8321 04bf bab5 53bf
00000020: 86cc ec3e 80c2 35bf ffbc b8be 5915 4ebf
00000030: 5b25 10bc 7b50 c8bd 87eb 43bd 3905 a0bd
00000040: 6cc3 353d 53b4 bebe e8c3 703e a484 1e3f
00000050: e5fe ac3e 3ade cbbd 749c d5be c36d 8b3c
00000060: f1f4 5cbf d71c d23d 338c e0bb 8bca 4bbe
00000070: 35bb a6bd b44f f6bd e7c4 c2be 3ddb 4b3f
00000080: cdf4 3bc0 ef9a fe3e bf55 c4be 842d c0be
00000090: 4904 963d 2c74 20bf b0dd 10be 87ba a7bf
000000a0: 2821 7839 81b9 41bf 24f9 51bf b597 873e
000000b0: d627 74bf b064 603f f79c b43d 7ae5 1cbe
000000c0: 38e5 5cbd f04b 58bf 5c24 b8be db3e 473e
000000d0: 3402 84bd e396 3bbe 6575 883e 2d2c 3b3f
000000e0: 3a58 803f 030b 8a3e 5d1b ca3e 4339 d13c
000000f0: 07bd 8e3e 9a98 d4be c290 29bc b9e7 a9bd
00000100: a495 4e3e 1d16 e6be 4066 afbf e74e 043f
00000110: fe0c 883c d0a1 34bf 4d70 8a3f 4d16 a93e
00000120: c4b0 b83e 986e c53b ce8e e4be 6fb2 c43e
00000130: eeab d2be 87e7 c3bc 01ae 713f 4717 443e
00000140: 5753 86bd 8f79 40bf 3e76 8dbe 9f22 63bf
00000150: e4e2 4fbe 9f59 99bf dd01 513e 24b5 01bf
00000160: 1b19 963f c880 11c0 9231 4d3e baa4 873d
00000170: e769 753d 6fbe 00be 826c d9be 0239 133f
00000180: 4ffe c8be 79b6 acbe f6a1 9f3c 7741 70bd
00000190: 4a8e 43bf f6b5 ddbb bbc0 913c b832 22bf
000001a0: 8179 02bf 5667 35be ce51 9d3e e31c e53e
000001b0: 0794 5fbe 1a1f 763e 9941 84be 0eb6 11be
000001c0: c42a debd c7ae 673e 3439 a73e dc69 b43f
000001d0: 1243 54be 3872 d6be 9426 7cbf c667 073f
000001e0: cae3 c93e bf28 9bbf 4682 e8bd f2df b43d
000001f0: dac9 03be 5a2b 743f a937 103f 1f00 8b3e
00000200: 3580 843e 4d11 083f 0b89 97bc f1e4 883e
00000210: 68e7 94bf df33 293f a8f5 eebe 73a3 10bf
00000220: f8b8 3d3f 23ce 7f3c e648 8e3e b828 8abf
00000230: 9f18 e73e d4e8 963d 59bf 4c3d 79e9 76be
00000240: ab20 6a3f 5991 a03d a263 61bf 5b3c 01bf
00000250: ff8f 273c a114 9ebe
0.049217746 0.5695897 -1.0509522 -0.28578615 0.2153394 0.13669926 -0.51613635 -0.8269917
0.4624979 -0.7099991 -0.36081693 -0.80501324 -0.008797969 -0.097809754 -0.04783204 -0.07813496
0.044375822 -0.3724695 0.23512232 0.61921144 0.3378822 -0.09954496 -0.41720927 0.017020112
-0.8631125 0.10259407 -0.0068526505 -0.19901483 -0.08141176 -0.12026921 -0.3804085 0.79631406
-2.9368165 0.4972758 -0.3834667 -0.37534726 0.07325036 -0.62677264 -0.14147067 -1.3103799
0.00023663475 -0.7567368 -0.82020783 0.2648293 -0.95373285 0.87653637 0.08819001 -0.15321913
-0.053929538 -0.8449087 -0.3596524 0.19457571 -0.06445733 -0.18319277 0.26652065 0.7311428
1.0026925 0.26961526 0.39474002 0.02554 0.2787859 -0.41522676 -0.010349454 -0.08296151
0.20174271 -0.44938746 -1.3703079 0.51682895 0.016607758 -0.70559406 1.0815521 0.33024827
0.3607236 0.0060251467 -0.446402 0.38417384 -0.41146797 -0.023914112 0.94406134 0.19149505
-0.065588646 -0.75185484 -0.27629274 -0.887247 -0.20301396 -1.1980475 0.20410867 -0.50667024
1.1726412 -2.2734852 0.20038441 0.06623216 0.05991545 -0.12572645 -0.42465597 0.5750886
-0.39256522 -0.33732966 0.019486409 -0.058656182 -0.7638899 -0.006766076 0.017792096 -0.6335864
-0.5096665 -0.17715201 0.30726475 0.447486 -0.21833812 0.24035302 -0.25831297 -0.14229605
-0.10848001 0.22625266 0.3266083 1.4094806 -0.2072871 -0.41884017 -0.98496366 0.5289272
0.39431602 -1.212181 -0.11352973 0.08831777 -0.12869969 0.9537865 0.5633493 0.2714853
0.25879064 0.531514 -0.018497964 0.26737168 -1.163312 0.66094774 -0.46671796 -0.56499404
0.74110365 0.015613112 0.27789992 -1.0793676 0.45135972 0.07368627 0.04998717 -0.241125
0.914561 0.07840223 -0.8804265 -0.5048272 0.010227202 -0.30875114

fc4.bias f4 [2]
00000000: 2ca6 983e fb76 e0bf
0.2981428 -1.753631
