project_3-Collaboration_and_Competition/solved_checkpoint_critic.pth (torch_old, 54638 bytes, 9 tensors)

fcs1.weight f4 [100, 24]
0	0xbdc951b0	-0.09830034
1	0xbefd2433	-0.4944168
2	0xbd0e0146	-0.034669183
3	0xbce9fdee	-0.028563466
4	0x3e96b1bb	0.29432473
5	0xbf85b12d	-1.0444695
6	0x3d2c09b3	0.042001437
7	0x3d281c96	0.041042887
8	0x3dfa812d	0.122316696
9	0xbe479521	-0.19490482
10	0xbd4e6aef	-0.05039495
11	0xbce95c87	-0.028486503
12	0xbeade0c6	-0.3396055
13	0xbed76861	-0.42071822
14	0x3d45f526	0.048329495
15	0xb60834b4	-2.0296256e-06
16	0x3d85ee42	0.06539585
17	0xbe0943ce	-0.13404772
18	0xbc08441e	-0.008317022
19	0xbde97a1e	-0.11400245
20	0xbf09c261	-0.53812224
21	0x400a9bed	2.165767
22	0x3c4a6179	0.012352341
23	0xbdbbe263	-0.09174039
24	0xbd5783bb	-0.052615862
25	0xbe89d515	-0.2692038
26	0x3d0d7cfc	0.034543023
27	0xbda1f569	-0.079081364
28	0xbf3a3af3	-0.727462
29	0x3dc08f8c	0.094023794
30	0xbd38f8ef	-0.045159277
31	0x3da88dc3	0.08230164
32	0xbd9cb150	-0.07651007
33	0xbd36160c	-0.04445462
34	0x3cc4aadc	0.024007253
35	0x3a1b120e	0.0005915471
36	0xbf350381	-0.7070847
37	0x3ed79189	0.42103222
38	0xbcc01866	-0.023449134
39	0xbd9bcf8a	-0.07607944
40	0x3b05e4a6	0.0020430475
41	0xbec4cd49	-0.3843787
42	0x3cf51531	0.029917331
43	0xbe1e0a15	-0.15433533
44	0x40127fd4	2.289052
45	0xbf57b429	-0.8425928
46	0xbcb926b5	-0.022601465
47	0xbd81e1cb	-0.06341895
48	0x3db24a3b	0.087055646
49	0x3e1f0899	0.15530623
50	0xbe12c9e7	-0.14334832
51	0x3f18bb8a	0.5966116
52	0x3f0c0bf0	0.54705715
53	0xbdd5d209	-0.10440452
54	0xbe0e01fd	-0.13867946
55	0x3f18402d	0.59472924
56	0xbed5a90e	-0.4173054
57	0xbd223d78	-0.039609402
58	0xbd6f6bd6	-0.05845245
59	0x3f4a97a6	0.7913765
60	0x3e1132fc	0.14179605
61	0x3e98a3ac	0.29812372
62	0x3d9792ee	0.074010715
63	0x3f34e0d3	0.70655555
64	0xbf259cc8	-0.64692354
65	0xbc460982	-0.012087228
66	0xbd173a62	-0.036920913
67	0x3f908c0f	1.1292742
68	0xbe47961f	-0.1949086
69	0x3eb16818	0.3464973
70	0x3d42dc24	0.047573224
71	0x3f9a6467	1.206189
72	0x3e199fff	0.1500244
73	0xbf93ce11	-1.1547261
74	0xbdd7dd26	-0.105402276
75	0x3e85eda4	0.26157868
76	0xbf103c43	-0.5634195
77	0x3d91f7e7	0.07127362
78	0x3c9c85b8	0.01910673
79	0x3e93c5f3	0.2886196
80	0x3f078269	0.52933365
81	0xbf285e30	-0.6576872
82	0xbd93527a	-0.071934655
83	0x3eba94a7	0.36441538
84	0xbeee7d20	-0.46579838
85	0x3ddc50ef	0.10757624
86	0xbd517bad	-0.051143337
87	0x3eb37131	0.35047296
88	0x3f534aee	0.8253621
89	0xbef9c67a	-0.48784238
90	0xbdc7dc9f	-0.09758877
91	0xbe8269b4	-0.2547127
92	0xbf2e5bc0	-0.6810875
93	0x3e1d9258	0.15387857
94	0xbd68d68c	-0.056845233
95	0xbe879a01	-0.26484683
96	0x3d49a9d2	0.04923422
97	0x3ed025bf	0.40653798
98	0x3d4f4cdf	0.05061042
99	0xbdd704c1	-0.104989536
100	0x3e8ea257	0.2785823
101	0xbe5c04d3	-0.21486215
102	0x3bf5c994	0.0075008366
103	0xbe68e21c	-0.22742504
104	0xbe552d8e	-0.20818159
105	0xbf041797	-0.51598495
106	0x3d0c6189	0.034272704
107	0xbeb0161a	-0.34391862
108	0x3f04c20f	0.5185861
109	0x3f251775	0.6448892
110	0x3dde6890	0.108597875
111	0xbe821882	-0.25409323
112	0x3e44c855	0.19217046
113	0xbed5124a	-0.41615516
114	0x3da22937	0.07918017
115	0xbd90fd2e	-0.0707954
116	0x3e8ceabf	0.27522847
117	0x400eccaa	2.2312417
118	0x3cc6f2df	0.024285732
119	0xbc48cfd7	-0.012256584
120	0x3e3a6a6f	0.18204664
121	0x3e2fd1b1	0.17169835
122	0x3d1acaf3	0.037791204
123	0xbe16f307	-0.14741145
124	0x3e867420	0.2626047
125	0xbed47b62	-0.41500384
126	0xbd20edf7	-0.03928944
127	0xbe1990cb	-0.1499664
128	0x3d4e001f	0.050293084
129	0xbea92d17	-0.33042213
130	0x3d6e87d4	0.058235005
131	0xbe139048	-0.14410508
132	0x3f061de6	0.5238937
133	0xbe4abc7f	-0.19798468
134	0x3c256b43	0.010096374
135	0xbe130f03	-0.14361195
136	0x3e0f60cf	0.14001773
137	0xbeb32b6f	-0.34994075
138	0x3d49db70	0.049281538
139	0x3d83ebdf	0.06441473
140	0x3d39ddd0	0.045377553
141	0x400881a6	2.132913
142	0x3bdf513f	0.006815105
143	0x3cf5a150	0.029984146
144	0x3e91f1e7	0.2850487
145	0x3eaead6e	0.3411669
146	0xbd2675e4	-0.040639773
147	0xbde4b8be	-0.11168049
148	0xbccc5e39	-0.024947273
149	0xbf2eda75	-0.6830209
150	0x3d08905a	0.03334079
151	0xbd433f02	-0.04766751
152	0x3eba4e72	0.36387974
153	0x3e8cd581	0.2750664
154	0x3aedecc2	0.0018152224
155	0xbe71b4be	-0.23604104
156	0xbf1761f2	-0.5913383
157	0xc01fe308	-2.498232
158	0x3e1846d8	0.14870775
159	0xbe0cd060	-0.13751364
160	0x3d06a6a0	0.03287375
161	0xbe0b3ab3	-0.1359661
162	0x3dc289da	0.09498949
163	0xbe9f649e	-0.31131452
164	0xbf0297ca	-0.5101286
165	0x3e8e5388	0.27798104
166	0xbae87886	-0.0017736114
167	0xbe387902	-0.18014911
168	0x3f2a08cd	0.6641968
169	0x3e8e739f	0.27822587
170	0xbc3ea29a	-0.011635447
171	0x3e05eece	0.13079378
172	0x3e9e9bf7	0.30978367
173	0x3ef43286	0.47694796
174	0x3cee147a	0.029062498
175	0x3e0bad74	0.13640386
176	0x3f415982	0.75527203
177	0x3e02aec6	0.12761983
178	0x3ca1393a	0.019680608
179	0xbf510376	-0.81645906
180	0x3ec9ff00	0.39452362
181	0x3eabcb38	0.3355348
182	0xbda1764a	-0.0788389
183	0xbf43ecc8	-0.76533175
184	0x3f2ba8b4	0.67054296
185	0xbd841ee9	-0.06451208
186	0xbe14f597	-0.1454681
187	0xbf1f4b56	-0.6222433
188	0x3e8726f3	0.26396903
189	0x3d597ee6	0.053099535
190	0xbe0119fb	-0.12607567
191	0xbf1a41b3	-0.602565
192	0xbd97b565	-0.07407645
193	0xbdf4e7bd	-0.11958263
194	0x3d66e23d	0.0563681
195	0x3dcdec37	0.1005482
196	0x3f2d4c24	0.67694306
197	0x3e49d586	0.19710359
198	0xbdd85c4b	-0.105644785
199	0xbd2cc613	-0.042181086
200	0xbea2cd4b	-0.3179725
201	0xbd596336	-0.05307313
202	0x3d847e6d	0.06469426
203	0x3d1ca7fe	0.038246147
204	0xbf2f9b41	-0.68596274
205	0x3dd1df26	0.1024764
206	0xbcc2498f	-0.023716716
207	0x3d80c44d	0.062874414
208	0xbec6f3d1	-0.38857892
209	0x3c931abd	0.017957086
210	0x3b59257d	0.0033133917
211	0x3f988b4f	1.1917514
212	0xbf59abfe	-0.85028064
213	0xbf65c02b	-0.8974635
214	0x3bfb5781	0.0076703434
215	0x3f8718ba	1.0554421
216	0x3ea150ef	0.3150706
217	0x3d2d3c27	0.042293694
218	0x3d442280	0.047884464
219	0xbdeb5db7	-0.11492484
220	0x3edf503d	0.43615904
221	0xbf8a31a3	-1.0796398
222	0xbc5aa15c	-0.013344135
223	0xbd284242	-0.041078813
224	0x3df383b2	0.11890353
225	0xbee5e277	-0.4489934
226	0x3d29b142	0.04142881
227	0x3d7edffe	0.062225334
228	0x3dd9f18e	0.10641776
229	0x3d995d11	0.07488454
230	0x3d2b0042	0.041748293
231	0x3d86af4d	0.06576405
232	0x3da2e896	0.079545185
233	0xbebba43f	-0.36648747
234	0x3bb18d3e	0.0054184487
235	0x3d6e2e19	0.05814943
236	0xbda20ec0	-0.079129696
237	0x3ff3a24a	1.9033902
238	0x3cf1d2df	0.029519496
239	0x3e5638bc	0.2092008
240	0x3f0d8568	0.55281687
241	0x3e861ba1	0.26192954
242	0xbdabdc1f	-0.08391594
243	0x3dd52e83	0.10409262
244	0x3f13649c	0.5757539
245	0x3f088dbd	0.53341275
246	0xbd1d476e	-0.0383982
247	0x3dc4590e	0.09587298
248	0x3ebe4746	0.37163752
249	0x3c2a8266	0.010407066
250	0xbd9dc7c3	-0.07704117
251	0x3e906159	0.2819927
252	0x3f11c514	0.5694134
253	0x3f2a63fa	0.665588
254	0xbd9ff8d0	-0.07811129
255	0x3e5e8d68	0.2173363

fcs1.bias f4 [100]
0	0xbf62ccf8	-0.8859401
1	0x3ea7c170	0.3276477
2	0xbead6971	-0.33869508
3	0xbfa142f0	-1.2598553
4	0xbf01a645	-0.5064433
5	0xbe1ce6f2	-0.15322474
6	0xbf026346	-0.5093273
7	0xbf070675	-0.5274423
8	0xbf1ce580	-0.6128769
9	0xbf20f157	-0.62868255
10	0xbf1cb9dc	-0.612211
11	0xbf6fc64b	-0.93661946
12	0xbf306f02	-0.68919384
13	0xbea38992	-0.31940895
14	0xbe0c2dd5	-0.13689359
15	0x3df428d1	0.119218476
16	0xbf3935c3	-0.7234766
17	0x3e3d5e3f	0.18492983
18	0xbeb4ce0c	-0.3531345
19	0x3e448203	0.1919022
20	0xbeb839c9	-0.35981587
21	0xbf81b2f4	-1.0132737
22	0xbf8850b9	-1.0649635
23	0xbf9cfe82	-1.226517
24	0xbfb1c01b	-1.3886751
25	0xbf826ff3	-1.0190414
26	0xbe7351b7	-0.2376164
27	0xbed45905	-0.41474167
28	0x3eb465c3	0.35233888
29	0xbf000979	-0.50014454
30	0x3ca8a824	0.020587988
31	0x3e6a93f4	0.22908002
32	0xbed7b9ca	-0.42133933
33	0x3f083c7f	0.5321731
34	0x3e233cf4	0.1594122
35	0x3c8b89d5	0.017033497
36	0xbff72afa	-1.930999
37	0xbf86dc70	-1.0536022
38	0xbf457c40	-0.77142715
39	0x3ed7d3ac	0.4215368
40	0xbf5aee70	-0.85520077
41	0xbf604361	-0.8760281
42	0x3e0b7655	0.13619359
43	0xbf3cea09	-0.7379461
44	0xbfd27d54	-1.6444497
45	0x3d5ffc8b	0.054684203
46	0x3debb979	0.115099855
47	0x3ee76dce	0.45200962
48	0xbe84282b	-0.25811896
49	0xbf86ebdb	-1.0540727
50	0xbf3af790	-0.73034
51	0xbeb6b1ab	-0.35682425
52	0x3de39fb5	0.11114446
53	0xc0075686	-2.114656
54	0xbed4922a	-0.41517764
55	0xbf059b10	-0.5218973
56	0xbf43183f	-0.7620887
57	0xbe803e03	-0.2504731
58	0xbf251579	-0.6448589
59	0xbe9f96b7	-0.31169674
60	0x3f3b6dc4	0.73214364
61	0xbee5f696	-0.44914693
62	0xbe9dc883	-0.3081704
63	0xbeb7a8e9	-0.35871056
64	0x3e0c8092	0.1372092
65	0x3bd9ef39	0.006650832
66	0xbe244b05	-0.16044243
67	0xbd678ef8	-0.05653283
68	0xbe7a0c67	-0.24418794
69	0xbf187ae9	-0.59562546
70	0xbf4909de	-0.7853068
71	0xbf8dcfc5	-1.1079031
72	0xbe82a98c	-0.2551998
73	0xbd12e65a	-0.03586421
74	0xbed6864a	-0.4189933
75	0xbf380a2c	-0.7189052
76	0xbf0a85a5	-0.54110175
77	0x3c2953bc	0.010334905
78	0x3e989416	0.2980048
79	0xbea07c93	-0.31345043
80	0x3e4b260c	0.19838732
81	0xbe3c2936	-0.18375096
82	0xbeac87ed	-0.33697453
83	0xbe04f033	-0.12982254
84	0xbf4c1521	-0.7971974
85	0x3e3d02b3	0.18458061
86	0x3c9dce07	0.01926328
87	0x3f46e874	0.77698445
88	0xbe363ed4	-0.17797405
89	0xbed2528a	-0.41078597
90	0xbd54eef8	-0.05198571
91	0xbf2135e9	-0.62972885
92	0xbed3eb03	-0.41390237
93	0x3f08c346	0.53422964
94	0x3dab6aab	0.08369955
95	0xbf2d33a7	-0.6765694
96	0xbeb0e791	-0.3455167
97	0xbd158730	-0.036505878
98	0xbea5ae79	-0.32359675
99	0xbe514308	-0.20435727

bn1.weight f4 [100]
0	0x3f1c03fd	0.60943586
1	0x3f1303a4	0.5742743
2	0x3de96326	0.11395864
3	0x3db4249f	0.087960474
4	0x3deb1866	0.11479263
5	0x3e83f019	0.25769117
6	0x3e1b94c9	0.15193476
7	0x3ddfe224	0.10931805
8	0x3e3f7b68	0.1869942
9	0x3e7b8225	0.24561365
10	0x3da237a8	0.07920772
11	0x3de4c054	0.11169496
12	0x3f4add48	0.792439
13	0x3d60640f	0.054782923
14	0x3e709acd	0.23496552
15	0x3e151fa1	0.14562847
16	0x3e0efdb8	0.13963974
17	0x3f024c3d	0.5089758
18	0x3e93dc3f	0.28878972
19	0x3dae8e6f	0.08523261
20	0x3daa971e	0.083296046
21	0x3f3aa43f	0.7290687
22	0x3d9f294c	0.07771549
23	0xbe0fb632	-0.14034346
24	0x3e49ddf9	0.19713582
25	0x3e07a2ca	0.13245693
26	0x3e7e440a	0.24830642
27	0x3d5d4d27	0.054028656
28	0x3f484b54	0.7823994
29	0x3f09dfb5	0.53856975
30	0x3d2f6797	0.0428234
31	0x3dbe4453	0.092903756
32	0x3e16d765	0.14730604
33	0x3d91eeac	0.07125601
34	0x3dcb3f60	0.09924197
35	0x3c04752f	0.008084579
36	0x3eeb7187	0.45985052
37	0x3e2185fe	0.1577377
38	0x3e0102df	0.12598751
39	0x3dc5be9a	0.09655495
40	0x3e35f1c7	0.17768012
41	0x3e40ea69	0.1883942
42	0x3eca5dba	0.39524633
43	0x3eab05cf	0.3340287
44	0x3e554572	0.20827273
45	0xbc168d91	-0.0091890255
46	0x3db12815	0.08650223
47	0x3f2b5a65	0.66934806
48	0x3deb4f53	0.11489739
49	0x3ed04b94	0.40682662
50	0x3d9922f6	0.074773714
51	0x3e1d4c76	0.15361199
52	0x3e445b37	0.1917542
53	0x3e81ae7c	0.25328434
54	0x3ef5735c	0.47939575
55	0x3df6b0f7	0.12045472
56	0xbdf045e5	-0.11732081
57	0x3e268f1c	0.1626553
58	0x3f13f5d8	0.57797
59	0x3d5056dc	0.050864086
60	0xbe8c071e	-0.2734918
61	0x3d8e0c47	0.069359355
62	0x3e223e6e	0.15844128
63	0x3d968820	0.073501825
64	0x3f92fcb6	1.1483371
65	0x3e68f3cd	0.22749253
66	0x3e945235	0.2896897
67	0x3daf8445	0.0857015
68	0x3e071f04	0.13195425
69	0xbe965be8	-0.29366994
70	0x3ec61c5b	0.38693509
71	0x3e6dfb25	0.23240335
72	0x3e0a18ff	0.13486098
73	0x3d0e7013	0.03477485
74	0x3ed80ca7	0.42197153
75	0x3de4bea8	0.11169177
76	0xbe2154e8	-0.15755045
77	0x3e49ffbd	0.19726463
78	0x3e955eb2	0.2917381
79	0x3e2e90f5	0.17047484
80	0xbdcec9b8	-0.100970685
81	0x3e6c95fb	0.23104088
82	0x3eec38c3	0.46137056
83	0x3e116365	0.14198072
84	0x3e73a8cb	0.23794858
85	0x3e92cdc5	0.28672615
86	0x3e876fc8	0.2645247
87	0x3ec8c4a5	0.39212528
88	0x3e5543d4	0.20826656
89	0x3da7f5cc	0.08201179
90	0xbc0eda47	-0.008719034
91	0x3d8c2405	0.06842808
92	0x3e4c974f	0.19979595
93	0x3e5cb1d8	0.21552217
94	0xbea186d6	-0.31548184
95	0x3ec84321	0.39113715
96	0x3d234764	0.039863005
97	0x3b433cb4	0.002979082
98	0x3eb27cea	0.34860927
99	0x3e38c598	0.18044126

bn1.bias f4 [100]
0	0xbd9883e7	-0.074470334
1	0x3e68bac7	0.227275
2	0x3d374675	0.044744927
3	0xbbdc8437	-0.0067296284
4	0x3dcf4f2f	0.10122525
5	0x3e1b0f15	0.15142472
6	0x3d555983	0.05208732
7	0x3cacd2ba	0.021096576
8	0x3d71b37a	0.059009053
9	0x3dbd1ce5	0.09234027
10	0x3c744bdb	0.0149106635
11	0x3ae3dfb8	0.0017385399
12	0x3ea82f1c	0.32848442
13	0x3be97cd6	0.0071254773
14	0x3dbc9f64	0.09210089
15	0x3cc58ce2	0.02411503
16	0x3d019569	0.03163663
17	0x3e5551ee	0.20832035
18	0xbd752cda	-0.059857227
19	0xbca086f4	-0.0195956
20	0x3acf8a1b	0.0015834005
21	0x3e40d727	0.18832074
22	0xbb181473	-0.0023205548
23	0xbd20e156	-0.039277397
24	0xbd5d17f2	-0.053977914
25	0x3da06f00	0.078336716
26	0x3e0e55df	0.13899945
27	0x3ba57757	0.005049627
28	0x3e6cc4d2	0.23121956
29	0x3e91068a	0.283253
30	0x3c27a06c	0.010231119
31	0x3d600242	0.054689653
32	0x3d008db5	0.031385142
33	0x3bf4bcaa	0.0074687796
34	0x3c039899	0.008031988
35	0xb8e72cec	-0.00011023306
36	0x3e347cfd	0.17625804
37	0x3cb6f29f	0.022332488
38	0x3c227897	0.009916446
39	0x3bb901af	0.0056459527
40	0x3d03c661	0.03217161
41	0x3d4b425b	0.04962383
42	0x3d86995b	0.06572219
43	0x3e742c6c	0.2384507
44	0x3cabd8a1	0.02097732
45	0xb912d5d6	-0.00014003305
46	0x3b97cfc7	0.0046329233
47	0x3ed21e11	0.41038564
48	0x3cab0b50	0.020879418
49	0x3df32b66	0.11873512
50	0x3b7dc736	0.0038723475
51	0x3d37f500	0.044911385
52	0x3de8a5b3	0.113597296
53	0xbb5ed8ee	-0.0034003812
54	0x3d88b18b	0.06674489
55	0x3ca8762b	0.02056416
56	0x3e52fe7f	0.20604895
57	0x3ab31ac9	0.0013664599
58	0x3e047914	0.12936813
59	0x3c2453a1	0.010029704
60	0xbd301e9c	-0.04299794
61	0x3be19312	0.006883987
62	0x3cc3ae27	0.023886753
63	0x3a488c96	0.00076503435
64	0x3e9f6295	0.311299
65	0x3dbd7748	0.09251267
66	0x3dcaec43	0.099083446
67	0x3bc7a724	0.0060929228
68	0x3cd7b230	0.026330084
69	0xbdde9453	-0.10868134
70	0x3d45c16f	0.048280176
71	0x3dd3f978	0.10350317
72	0x3ce04567	0.027376844
73	0x3bb01918	0.005374085
74	0x3e6d76c0	0.23189831
75	0x3ce4cfd0	0.027931124
76	0xbd12b8df	-0.035820838
77	0x3da512d3	0.08060231
78	0x3e711937	0.23544775
79	0x3d9efe83	0.07763388
80	0xbe35e1b1	-0.17761876
81	0x3d3b2a7b	0.04569481
82	0x3dacca97	0.084370784
83	0x3d8ddc18	0.06926745
84	0x3d5f09ef	0.054452833
85	0x3e1551ef	0.14582036
86	0x3d9d62a1	0.076848276
87	0x3ddd930f	0.10819065
88	0x3dc63ad1	0.09679187
89	0x3cde9071	0.027168484
90	0xb8cc444e	-9.740201e-05
91	0x3c96bd0e	0.018400695
92	0x3d27e077	0.04098555
93	0x3e26c3c7	0.1628562
94	0xbe8567dd	-0.26055804
95	0x3e06cfd9	0.13165225
96	0x3bfac474	0.0076528136
97	0xba042550	-0.00050409604
98	0x3dfdab30	0.12386167
99	0x3d743104	0.059617057

bn1.running_mean f4 [100]
0	0x4027fd33	2.624829
1	0x403f4545	2.9886029
2	0x415c106f	13.754012
3	0x3ef6fe95	0.48241106
4	0x412535b1	10.325608
5	0x4084d8d2	4.1514673
6	0x3f61c1ff	0.8818664
7	0x3ecf23f8	0.4045713
8	0x40ddd788	6.93256
9	0x3fc17bc2	1.5115893
10	0x3fb235cb	1.3922666
11	0x3f4f5cb5	0.81000835
12	0x4115af25	9.35526
13	0x3ea2de06	0.31810015
14	0x4024be47	2.5741136
15	0x4081aee7	4.0526004
16	0x3ec5a6d9	0.38603857
17	0x41843fae	16.531094
18	0x4150cb61	13.049653
19	0x3f59acdc	0.8502939
20	0x3b72ef0c	0.0037068753
21	0x3ebb8321	0.3662348
22	0x3fc41693	1.5319389
23	0x4037f25b	2.8741672
24	0x40903c23	4.507341
25	0x40db64d9	6.8560605
26	0x40106732	2.2562985
27	0x3d4efba4	0.050532952
28	0x3fd292dd	1.6451069
29	0x40c8ef77	6.2792315
30	0x409d1e77	4.909969
31	0x41190f22	9.566195
32	0x3efc7f98	0.49316096
33	0x416b97b9	14.724542
34	0x3eec527d	0.46156684
35	0x3da30daf	0.07961594
36	0x3f5f1cbb	0.87153214
37	0x40063e42	2.09755
38	0x4054b9d9	3.3238432
39	0x402614a0	2.5950089
40	0x3ec647df	0.38726708
41	0x3e0c6183	0.13709073
42	0x3e91341c	0.2836007
43	0x4126f20e	10.434095
44	0x40054650	2.0824165
45	0x3d5171bd	0.05113386
46	0x3ff15cc1	1.8856431
47	0x41abbce9	21.467241
48	0x4069bc7b	3.652129
49	0x3f20e44e	0.62848365
50	0x401f3400	2.4875488
51	0x4099574e	4.7919073
52	0x4020689c	2.5063848
53	0x3f37431f	0.71586794
54	0x3d3df9cf	0.046380814
55	0x40c335df	6.100326
56	0x3ec8ef26	0.39244956
57	0x00000004	6e-45
58	0x3eefd42c	0.46841562
59	0x40b8c80c	5.77442
60	0x3f2626cf	0.6490297
61	0x3d18c7a4	0.037299767
62	0x3e6847cf	0.22683643
63	0x3d31c34f	0.04339915
64	0x41c3d822	24.480534
65	0x40e0a1d3	7.019754
66	0x3f3dad04	0.74092126
67	0x40d30628	6.5945015
68	0x40640539	3.5628188
69	0x3fc69245	1.5513388
70	0x3f2333b4	0.6375077
71	0x4084c654	4.14921
72	0x3fa437d3	1.2829536
73	0x407c85bb	3.9456623
74	0x400af4d7	2.1711938
75	0x40014dfb	2.0203846
76	0x3e295e5c	0.16539901
77	0x404f340a	3.2375512
78	0x40809106	4.017703
79	0x3f3f4c7c	0.7472608
80	0x40eae3ef	7.340324
81	0x414a81bd	12.656674
82	0x3f9bff1e	1.218723
83	0x40852f7f	4.162048
84	0x3fcd8cb1	1.6058561
85	0x410017c6	8.005804
86	0x3f237883	0.6385576
87	0x3ef16dd6	0.4715411
88	0x41554eda	13.331751
89	0x3f395454	0.723943
90	0x3ee336ed	0.44377843
91	0x3f8162b9	1.0108253
92	0x4007866a	2.117579
93	0x40d405d6	6.6257124
94	0x40cc9d79	6.3942227
95	0x3f1e5809	0.6185308
96	0x3e04ba75	0.12961753
97	0x4082ac5f	4.0835414
98	0x40927f78	4.57806
99	0x3ff99e46	1.9501426

bn1.running_var f4 [100]
0	0x41205272	10.020128
1	0x417819f4	15.506336
2	0x4312e64e	146.89963
3	0x4032e444	2.7951822
4	0x424b8d0d	50.887745
5	0x418590ec	16.695763
6	0x4104ead0	8.307327
7	0x4071b45c	3.7766333
8	0x425d240e	55.28521
9	0x410913ed	8.567365
10	0x415ffe51	13.999589
11	0x4093cdb7	4.6188617
12	0x430c7f8f	140.49828
13	0x4038709c	2.8818731
14	0x418299b4	16.32505
15	0x4283f5ea	65.9803
16	0x4042f993	3.0464828
17	0x43cce56c	409.79236
18	0x4387ebb7	271.84152
19	0x41084465	8.516698
20	0x3c1aee82	0.009456279
21	0x3fd250e1	1.6430932
22	0x41e55bb4	28.669777
23	0x41ae861b	21.815481
24	0x421972cc	38.362106
25	0x4349bc52	201.73563
26	0x41d81bf5	27.01365
27	0x3ead7040	0.33874702
28	0x410647a7	8.392493
29	0x4286c0d4	67.37662
30	0x4250f695	52.240803
31	0x433603a4	182.01422
32	0x4072e03d	3.7949364
33	0x42f727af	123.57751
34	0x40c8eac4	6.278658
35	0x3f135552	0.57552063
36	0x4081bb89	4.0541425
37	0x41392bea	11.573221
38	0x41dba03c	27.45324
39	0x4245dcfd	49.46581
40	0x4082d7ac	4.088827
41	0x3f46adb7	0.7760882
42	0x3ffdbf7c	1.9824061
43	0x43305687	176.338
44	0x41378c74	11.47179
45	0x3e8a29b2	0.26984936
46	0x41f924f7	31.14305
47	0x44251c40	660.4414
48	0x4268b325	58.174946
49	0x409b95fc	4.8620586
50	0x424804a6	50.00454
51	0x42a2805c	81.2507
52	0x41a92315	21.14213
53	0x3ff6b5b6	1.9274204
54	0x3e0ba684	0.1363774
55	0x422f1221	43.767704
56	0x40166f1e	2.350532
57	0x00000004	6e-45
58	0x40b8b7f3	5.7724547
59	0x424f82e9	51.877842
60	0x40aa7199	5.326367
61	0x3ebcf3be	0.3690471
62	0x3febbd31	1.8417112
63	0x3e61f33f	0.22065447
64	0x4465f335	919.8001
65	0x429a688e	77.20421
66	0x409a81ff	4.8283687
67	0x432605d2	166.02274
68	0x4286be23	67.37136
69	0x41371725	11.4431505
70	0x40975b49	4.729893
71	0x4207f3a6	33.987938
72	0x413abeaa	11.671549
73	0x41355e03	11.335452
74	0x418cba3f	17.59094
75	0x41678d51	14.472001
76	0x3f9a96da	1.2077286
77	0x42653879	57.30515
78	0x41e7943b	28.947378
79	0x401e4668	2.4730473
80	0x42b39606	89.793015
81	0x43810418	258.03198
82	0x405172d7	3.2726343
83	0x41a8e376	21.111065
84	0x416ef2b2	14.934252
85	0x42361974	45.524857
86	0x4099b284	4.8030415
87	0x3f9c4fe8	1.2211885
88	0x43926154	292.76038
89	0x409e2951	4.9425435
90	0x4069413f	3.6446073
91	0x40b72c66	5.7241697
92	0x41b47734	22.558205
93	0x425201e9	52.501865
94	0x4292c13e	73.377426
95	0x40c0adde	6.021224
96	0x3f56d40d	0.83917314
97	0x429dd4bf	78.91552
98	0x41aeba71	21.841036
99	0x41b24297	22.282515

fc2.weight f4 [100, 102]
0	0x3cdf1794	0.027232923
1	0xbd932b2b	-0.07185968
2	0xbe01120c	-0.1260454
3	0x3dd29980	0.10283184
4	0xbcd59418	-0.026071593
5	0xbd51558f	-0.051106986
6	0x3cbd112d	0.02307948
7	0xbe047fb3	-0.12939338
8	0x3c87836c	0.016542159
9	0xbdcb3182	-0.09921552
10	0x3d8eacb6	0.06966536
11	0x3bc41ee5	0.005985128
12	0xbca3315e	-0.019921001
13	0x3d8097aa	0.062789276
14	0xbdd2f6fb	-0.10301014
15	0xbc88928d	-0.016671443
16	0xbdd1d593	-0.10245814
17	0xbdcb9163	-0.0993984
18	0x3d049f2d	0.032378364
19	0x3d28f39b	0.041247945
20	0xbd932a50	-0.07185805
21	0xbd497f33	-0.049193572
22	0xbe282d39	-0.16423501
23	0xbc06d61d	-0.0082297595
24	0x3ca475c0	0.020075679
25	0xbe872354	-0.2639414
26	0xbd9618d1	-0.07328952
27	0x3e0796f0	0.13241172
28	0x3d8eccbb	0.06972643
29	0xbde09b2a	-0.10967095
30	0xbdf142b4	-0.11780301
31	0xbe3c5bac	-0.18394345
32	0xbdccbef8	-0.09997362
33	0xbdbd9570	-0.092570186
34	0x3d85f53b	0.065409146
35	0xbbde36e3	-0.0067814454
36	0xbdae982f	-0.085251205
37	0x3bd57e36	0.0065152897
38	0x3d943247	0.07236152
39	0xbcf30f63	-0.029670423
40	0xbda8a246	-0.08234076
41	0xbd7e127b	-0.062029343
42	0x3d2707f2	0.04077906
43	0x3be16df6	0.0068795634
44	0xbe3ad5fe	-0.18245694
45	0x3d52b241	0.051439527
46	0xbdd1ead2	-0.102498665
47	0xbba4bcca	-0.005027388
48	0xbbae7cc6	-0.0053249327
49	0xbe0480f3	-0.12939815
50	0x3d6b4960	0.057443023
51	0x3bb2ef9f	0.005460694
52	0xbd87f5c8	-0.06638676
53	0xbdb07a22	-0.08617045
54	0xbd65b94b	-0.056084912
55	0x3c814daf	0.015784113
56	0xbe537f02	-0.20653918
57	0xbdf96e08	-0.1217919
58	0xbd9468c8	-0.07246548
59	0x3d484a36	0.048898898
60	0x3d1b1f80	0.037871838
61	0xbc7258a8	-0.014791645
62	0x3d88d299	0.06680793
63	0x3de83403	0.113380454
64	0xbc9654d2	-0.018350992
65	0xbda0686b	-0.07832416
66	0xbdcdee7e	-0.100552544
67	0xbe17efad	-0.14837523
68	0xbd32c053	-0.043640446
69	0xbda51a93	-0.08061709
70	0xbd9edeb4	-0.07757321
71	0xbca675de	-0.020319875
72	0x3c9c8b42	0.019109372
73	0x3d99a839	0.07502789
74	0xbd3437f2	-0.043998666
75	0xbd956a9a	-0.07295723
76	0xbc92a926	-0.017902922
77	0x3cbcd2c0	0.023049712
78	0xbd8554e2	-0.06510331
79	0x3d3e1f9f	0.046416875
80	0x3e3ca55f	0.18422459
81	0x3c130071	0.008972273
82	0xbd890190	-0.06689751
83	0xbd95b1a4	-0.07309273
84	0x3de48263	0.11157682
85	0xbd67c4a7	-0.056584027
86	0xbe2bf387	-0.16792117
87	0x3cc0c87a	0.023533095
88	0x3daf59cb	0.085620485
89	0xbdb127b7	-0.08650153
90	0xbd460849	-0.048347745
91	0x3d630c95	0.05543192
92	0xbe3655bb	-0.17806141
93	0x3bceb0fd	0.0063077197
94	0x3e8b58bc	0.27216136
95	0xba5dfc80	-0.00084681064
96	0x3b96cc9c	0.004602028
97	0x3b1eeb01	0.002424896
98	0xbde6f06a	-0.11276324
99	0xbe29549a	-0.16536179
100	0x3b9a9237	0.004717137
101	0xbd9f9a37	-0.07793086
102	0xbd5e1bb6	-0.054225646
103	0x3d669b79	0.056300614
104	0xbc852e22	-0.01625735
105	0xbd8556e9	-0.065107174
106	0xbdc909e2	-0.09816338
107	0xbd0088c6	-0.031380437
108	0xbd2932b6	-0.041308127
109	0xbd4befbd	-0.04978918
110	0xbde9ed51	-0.11422218
111	0xbd1e4548	-0.03864029
112	0xbca3379a	-0.019923974
113	0x3d767a28	0.06017509
114	0x3b8ad2f6	0.0042365743
115	0x3bea4b96	0.007150124
116	0xbde37830	-0.11106908
117	0x3d8378eb	0.06419548
118	0xbd60016d	-0.05468886
119	0xbe000338	-0.12501228
120	0xbd83206e	-0.0640267
121	0xbc92aebd	-0.017905587
122	0x3cc2d83d	0.023784751
123	0x3b4a1728	0.0030836556
124	0xbcc821e8	-0.02443023
125	0x3d7def6d	0.061995912
126	0x3d4b6983	0.04966117
127	0xbe4dfd0b	-0.2011606
128	0xbd81e9fd	-0.06343458
129	0xbc2025ac	-0.009774607
130	0xbe36d838	-0.17855918
131	0xbd376c3e	-0.044780962
132	0xbdba2761	-0.09089542
133	0xbe1eb6b3	-0.15499382
134	0xbd0fe32f	-0.03512877
135	0x3b81b77b	0.00395864
136	0xbd5aa4b4	-0.05337973
137	0x3c702561	0.014657349
138	0xbca061ce	-0.019577887
139	0xbcdad37a	-0.026712168
140	0xbcf45412	-0.029825244
141	0xbd6b8542	-0.05750013
142	0xbd6e96f5	-0.058249433
143	0xbd12730d	-0.035754252
144	0xbd439bd8	-0.047756046
145	0xbd8597ec	-0.065231174
146	0xbda67b93	-0.08129039
147	0xbb92a9f6	-0.0044758273
148	0xbcfbe138	-0.030747041
149	0x3c81c830	0.015842527
150	0xbd6ed09c	-0.058304414
151	0x3da8c4f7	0.08240693
152	0xbb851a41	-0.0040619676
153	0xbcf2d219	-0.029641198
154	0x3dd1e8c3	0.10249474
155	0x3de365d1	0.11103404
156	0xbd1b5bb2	-0.037929244
157	0x3d8ff791	0.070296414
158	0xbe2987c9	-0.16555704
159	0xbe2bfa8e	-0.16794798
160	0xbd791b2a	-0.06081692
161	0xbcc70461	-0.02429408
162	0x3deda461	0.116036184
163	0xbcd60b0d	-0.026128316
164	0x3b9321fe	0.004490136
165	0xbd8708e9	-0.06593496
166	0x3d3ceef1	0.04612631
167	0xbc800771	-0.015628548
168	0xbd92d171	-0.07168854
169	0x3d310073	0.04321332
170	0xbcf3d093	-0.029762542
171	0x3dc00b67	0.09377175
172	0xbd8f9fcb	-0.070129
173	0xbd58f448	-0.05296734
174	0xbdf1eaae	-0.1181234
175	0x3d81fc3c	0.06346938
176	0xbcbcfee9	-0.02307077
177	0xbd220f68	-0.039565474
178	0x3d9035e2	0.07041527
179	0x3beed06f	0.007288031
180	0x3d6d28c3	0.0579002
181	0x3bd07435	0.006361509
182	0x3e865a42	0.26240736
183	0x3d8ecaab	0.069722496
184	0xbd7ac44e	-0.061222367
185	0xbdd3b5d7	-0.103374176
186	0xbd2450da	-0.04011617
187	0x3dba14fe	0.09086035
188	0x3d177699	0.036978338
189	0xbc2048ad	-0.009782952
190	0xbd577d94	-0.052609995
191	0xbd0d18c4	-0.034447446
192	0x3c9265fa	0.017870892
193	0xbe385ac9	-0.18003382
194	0xbe38ab26	-0.18034038
195	0xbb8d3423	-0.0043091937
196	0x3e204a8f	0.15653442
197	0xbd657d51	-0.056027714
198	0x3dfa38c7	0.12217861
199	0x3bf5f1d0	0.007505633
200	0xbdc18617	-0.09449404
201	0xbddc9277	-0.107701235
202	0xbc80d3e8	-0.015726045
203	0x3c97528b	0.018471977
204	0x3e848a85	0.25886932
205	0xbe930546	-0.2871496
206	0xbd301e84	-0.042997852
207	0x3cd6db69	0.02622767
208	0x3e393f11	0.18090464
209	0x3f12443e	0.5713538
210	0xbdc6321e	-0.09677528
211	0x3e04126d	0.12897654
212	0xbeae4225	-0.3403484
213	0x3e135969	0.14389576
214	0x3eb478b0	0.35248327
215	0xbed3c627	-0.41362116
216	0x3e2e5ddb	0.1702799
217	0x3e893b35	0.26802984
218	0xbec0de7d	-0.37669745
219	0xbe99cc36	-0.30038613
220	0x3e3afe1e	0.18261
221	0x3dabbda3	0.0838578
222	0xbebe464e	-0.37163013
223	0xbde0d8c8	-0.10978848
224	0xbb0dd371	-0.0021640921
225	0xbdea2f35	-0.11434785
226	0xbe81f373	-0.2538105
227	0xbc9b4909	-0.018955724
228	0xbe7ac4d3	-0.24489145
229	0xbd5e5ee2	-0.054289706
230	0x3e755d9b	0.23961489
231	0x3ecd97c0	0.4015484
232	0xbd705472	-0.058674283
233	0xbdf28d78	-0.11843389
234	0x3cf81baf	0.030286638
235	0xbdaaefb5	-0.08346502
236	0xbe13cef3	-0.14434414
237	0x3eb4c5c2	0.35307127
238	0x3c8a565d	0.016886884
239	0x3c8795de	0.016550954
240	0xbf194ee8	-0.59886026
241	0x3f22681d	0.63440114
242	0xbd382472	-0.044956632
243	0x3f052284	0.5200579
244	0xbe36b77a	-0.17843428
245	0xbe94bb1f	-0.29049012
246	0xbf1e75fb	-0.61898774
247	0x3f03f60e	0.51547325
248	0xba1672a0	-0.00057391264
249	0x3c8441df	0.016144691
250	0x3e62c2dd	0.22144647
251	0xbed86c19	-0.42269972
252	0x3e3a24de	0.18178126
253	0xbecd20d7	-0.40064117
254	0x3e8d5585	0.2760431
255	0x3e217dc0	0.15770626

fc2.bias f4 [100]
0	0xbe6dddf4	-0.232292
1	0xbe683436	-0.22676167
2	0xbe82ea4f	-0.25569388
3	0xbe8b4271	-0.27199128
4	0xbe577432	-0.21040419
5	0xbe8f9ce2	-0.2804938
6	0xbebe0a3d	-0.37117186
7	0xbe51d532	-0.20491484
8	0xbec63591	-0.38712743
9	0xbe82ba33	-0.25532684
10	0xbe2c1c84	-0.16807753
11	0xbe67172f	-0.22567438
12	0xbea7d932	-0.32782894
13	0xbe43671d	-0.19082303
14	0xbe67ca39	-0.22635736
15	0xbe1a7b71	-0.15086152
16	0xbda4a6ab	-0.08039602
17	0xbec286a4	-0.37993348
18	0xbec01501	-0.37516025
19	0xbe26afdf	-0.16278027
20	0xbe561892	-0.2090781
21	0xbe6628bb	-0.22476475
22	0xbe9860f6	-0.29761475
23	0xbe38d7cb	-0.18051068
24	0xbe925618	-0.2858131
25	0xbe5144eb	-0.20436446
26	0xbe9412df	-0.28920648
27	0xbe7b5cc4	-0.24547106
28	0xbe552787	-0.2081586
29	0xbea67421	-0.32510474
30	0xbeb09e16	-0.3449561
31	0xbe671d2d	-0.22569723
32	0xbeda534f	-0.42641684
33	0xbe7154f7	-0.23567568
34	0xbdb68958	-0.08912915
35	0xbe9cfb0d	-0.30660287
36	0xbe8f567f	-0.2799568
37	0xbeccc083	-0.39990625
38	0xbea1ae99	-0.3157852
39	0xbebec696	-0.37260884
40	0xbe92b110	-0.28650713
41	0xbed46f34	-0.4149109
42	0xbe2b7d4e	-0.16747019
43	0xbe684125	-0.226811
44	0xbe20d39e	-0.15705726
45	0xbe390700	-0.18069077
46	0xbe8ab470	-0.27090788
47	0xbea6a790	-0.32549715
48	0xbe926f03	-0.2860032
49	0xbeac2db4	-0.3362862
50	0xbebc3991	-0.3676267
51	0xbe23832e	-0.1596801
52	0x3dd8a4ba	0.10578294
53	0xbec45d76	-0.38352555
54	0xbeb75d3e	-0.35813326
55	0xbe9468ae	-0.28986114
56	0xbea4eefe	-0.32213587
57	0xbd637da8	-0.055539757
58	0xbea9fa89	-0.33198956
59	0xbe4aa3d5	-0.1978906
60	0xbe4ad04e	-0.19806024
61	0xbe8db311	-0.2767568
62	0xbe7996fa	-0.24373999
63	0xbe6285c6	-0.22121343
64	0xbecb6e20	-0.39732456
65	0xbe896039	-0.26831225
66	0xbe823f9d	-0.25439158
67	0xbea1090b	-0.31452212
68	0xbe1b60b6	-0.15173611
69	0xbe94d80c	-0.2907108
70	0xbe255c19	-0.16148414
71	0xbe8881cd	-0.2666153
72	0xbe5fa44e	-0.21840021
73	0xbea6f94d	-0.32612076
74	0xbea83ace	-0.32857364
75	0xbeabfb08	-0.3358996
76	0xbe28a97c	-0.16470903
77	0xbe77f813	-0.24215727
78	0xbc83211d	-0.016007
79	0xbebe8c07	-0.37216207
80	0xbe8cc710	-0.27495623
81	0xbe82d75b	-0.25554928
82	0xbda90304	-0.08252528
83	0xbe16069a	-0.14650956
84	0xbe458c42	-0.19291785
85	0xbdada2b5	-0.084782995
86	0xbe9e5901	-0.3092728
87	0xbe307e39	-0.1723565
88	0x3e45e5bb	0.19325916
89	0xbe483b81	-0.19553949
90	0xbecf8905	-0.40534225
91	0xbeacebba	-0.33773595
92	0xbe78cb35	-0.24296267
93	0xbe35e490	-0.17762971
94	0xbec9b823	-0.39398298
95	0xbe08ba88	-0.13352406
96	0xbe63e220	-0.22254229
97	0xbe88ada0	-0.26694965
98	0xbebaae71	-0.36461213
99	0xbe98cee0	-0.29845333

fc3.weight f4 [1, 100]
0	0x3d06eb96	0.032939516
1	0xbcbe7e04	-0.023253448
2	0xbc9f49ff	-0.019444464
3	0x3cb3d339	0.021951305
4	0x3d194de1	0.037427787
5	0x3d06e4af	0.032932933
6	0x3d345919	0.044030283
7	0xbc3a0ca2	-0.011355551
8	0xb7d60993	-2.5515246e-05
9	0xbc7b068e	-0.015321387
10	0xbc56e036	-0.0131149795
11	0xbca3ab3c	-0.019979112
12	0x3e1f7944	0.15573603
13	0x3be5bd07	0.007011059
14	0x3d0737bb	0.033012133
15	0x3b46f43b	0.0030357975
16	0xbbff6062	-0.007793472
17	0x3d2d6f9d	0.04234277
18	0x3bb9d3f0	0.005671017
19	0xbd1b38a8	-0.03789583
20	0xbc23a0e3	-0.009987089
21	0xbc839078	-0.016060099
22	0xbbd4cf0a	-0.0064944075
23	0xbd40a916	-0.047036253
24	0xbc3ccfc1	-0.011524142
25	0xbe0dd5a5	-0.1385103
26	0x3d1a54fe	0.03767871
27	0x3bbab2a1	0.0056975638
28	0xbbdc5c14	-0.0067248438
29	0x3ce13ceb	0.027494868
30	0xbd0f9e4a	-0.035063066
31	0x3c09420a	0.008377561
32	0xbd88cde0	-0.066798925
33	0xbcf1a8ce	-0.029499438
34	0x3cbca041	0.023025634
35	0xbca80046	-0.020507943
36	0x3c8917e6	0.016735028
37	0xbc8952e2	-0.016763154
38	0xbd4cb0cb	-0.04997329
39	0x3be0924f	0.006853379
40	0x3d1f6072	0.038910337
41	0xbd238577	-0.039922204
42	0xbbf1e4c0	-0.0073820055
43	0x3c241b7d	0.010016319
44	0x3a9657b4	0.0011470229
45	0xbc8b71c4	-0.017022021
46	0xbd15463b	-0.03644393
47	0xba2833c6	-0.0006416406
48	0x3b9fed19	0.004880559
49	0x3c6ea0bb	0.014564688
50	0x3dcd8e3a	0.10036893
51	0xbd3b1b21	-0.04568017
52	0x3d4c5632	0.04988689
53	0xbcc8deaf	-0.024520246
54	0x3c406ec7	0.011745161
55	0x3c93550a	0.017984886
56	0x3c562c9c	0.013072159
57	0x3cac16f3	0.021007037
58	0xbb6de905	-0.003630222
59	0xbbba6e16	-0.005689393
60	0xbc3f9525	-0.011693274
61	0xbd218434	-0.03943272
62	0xbca7892e	-0.020451155
63	0x3c8330ea	0.016014535
64	0xbcfbc416	-0.03073315
65	0xbaa6811f	-0.0012703276
66	0x3c8fa350	0.017533928
67	0x3bc82c0c	0.0061087664
68	0x3c6fb4e7	0.014630533
69	0x3d1dc177	0.03851458
70	0x3c1df987	0.0096420115
71	0xbb8811b9	-0.0041525033
72	0xbcbb9038	-0.022895917
73	0xbd99dd65	-0.07512931
74	0x3a8f6f65	0.0010943232
75	0xbcfa88a2	-0.03058273
76	0x3cd13f2c	0.025542818
77	0x3bd552f7	0.0065101343
78	0x3d6d3626	0.057912968
79	0x3c295ca6	0.0103370305
80	0xbc5749c9	-0.01314015
81	0x3ce0e9c1	0.027455213
82	0xbd2bc94b	-0.041940015
83	0x3c37d39f	0.011219888
84	0x3ccf405b	0.025299242
85	0x3c8e8aee	0.017400231
86	0x3bf439f9	0.0074532
87	0xbd2d6c94	-0.042339876
88	0x3d23a80f	0.039955195
89	0x3c27d4d4	0.010243613
90	0x3ca6d541	0.02036536
91	0x3da1b01b	0.078949176
92	0xbba799bb	-0.0051147616
93	0x3b561a97	0.0032669657
94	0xbd1aac5e	-0.03776204
95	0x3e484b78	0.19560039
96	0xbc074d31	-0.00825815
97	0x3c412096	0.011787554
98	0x3cd958ec	0.026531659
99	0x3b901d72	0.0043980414
