project_2-Continuous_Control/actor.pth (torch_old, 548580 bytes, 10 tensors)

fc1.weight f4 [400, 33]
0	0xbf61d29d	-0.88211995
1	0x3f52933a	0.822559
2	0xbfcf1ef7	-1.6181325
3	0x3f8c8dd7	1.0980786
4	0xc008830b	-2.1329982
5	0x407ad91c	3.9195013
6	0xbf0754ff	-0.5286407
7	0xbeb9c1d8	-0.36280704
8	0x3fafc195	1.3730952
9	0xbfc5120b	-1.5396131
10	0xbfdcb17c	-1.7241664
11	0xbed33a71	-0.41255525
12	0xbe2741d7	-0.1633371
13	0x3dcfa70b	0.10139283
14	0x3d547bc8	0.05187586
15	0x40001935	2.0015385
16	0x3f8c82e7	1.0977448
17	0xbf101793	-0.5628597
18	0xbf1d28fc	-0.6139066
19	0x3ec6385d	0.38714877
20	0x3d631ea5	0.055449147
21	0x3ea382db	0.31935772
22	0xbe442706	-0.19155511
23	0xbeefaf03	-0.4681321
24	0xbe2d1c17	-0.16905247
25	0x3e902627	0.28154108
26	0x3ec4cef4	0.38439143
27	0xbc9833cc	-0.018579386
28	0xbf45320a	-0.7702948
29	0x3d4b65c9	0.049657617
30	0x3c7448b7	0.014909915
31	0xbcea4fb7	-0.028602464
32	0x3fb2941c	1.3951449
33	0xbee3db2f	-0.4450316
34	0xbfc98382	-1.5743258
35	0xbdcfa82f	-0.101395
36	0xbfe674b0	-1.800436
37	0x3e003b41	0.12522604
38	0xbf7516eb	-0.95738095
39	0x3fa0e9ba	1.2571328
40	0x3edf1547	0.4357092
41	0x3fdb1242	1.7114947
42	0x3f98936d	1.1919991
43	0xbeab5aea	-0.334678
44	0xbef1f715	-0.4725882
45	0xbe9807bc	-0.296934
46	0x3fa0bd74	1.2557817
47	0x3feac859	1.8342391
48	0xbff683ff	-1.9259032
49	0x3f87b609	1.0602428
50	0xbf8f5240	-1.1196976
51	0xbf29c5b0	-0.6631727
52	0x3eb0b87e	0.34515756
53	0x3e941880	0.28924942
54	0xbfcd6b78	-1.6048422
55	0x3d6db2a5	0.058031697
56	0x3f3440b7	0.70411247
57	0x3ec3b57a	0.38224393
58	0x3f1debbd	0.61687833
59	0xbf3951e8	-0.72390604
60	0x3cacb991	0.021084579
61	0xbf3a316e	-0.72731674
62	0xbd28afc3	-0.041183244
63	0x3ca345c7	0.019930733
64	0xbc3b03ec	-0.011414509
65	0xbf107551	-0.5642901
66	0xbf1a4e56	-0.6027578
67	0x3f8284de	1.0196798
68	0x3fc29452	1.5201514
69	0xbf146ccc	-0.5797851
70	0x3f4af1f3	0.79275435
71	0xbfbd3f3b	-1.4784921
72	0x3ffdf4c5	1.9840323
73	0xbe1d564a	-0.15364948
74	0x3fbeb492	1.4898856
75	0xbec7fa3d	-0.39058104
76	0x3dd25f0a	0.102720335
77	0x3e9cb7f6	0.306091
78	0x4005d257	2.0909631
79	0x3ea77998	0.32709956
80	0x3faedeae	1.3661706
81	0x3fa6c44e	1.3028657
82	0x3f15d484	0.585274
83	0x400996f6	2.149839
84	0x3e79ef4b	0.2440769
85	0x401ef683	2.483796
86	0xbf360d2e	-0.7111386
87	0x3c8b403d	0.016998405
88	0x3d926789	0.07148654
89	0xbed380a5	-0.41309085
90	0x3f991fdb	1.1962847
91	0xbeb3f585	-0.35148254
92	0xbe9179f7	-0.28413364
93	0xbd0d0fd7	-0.034438934
94	0x3eb30e0e	0.3497166
95	0xbd0bd4ec	-0.034138605
96	0xbcdd9e55	-0.027053038
97	0x3d3cb22b	0.04606835
98	0xbf2cc962	-0.67494786
99	0xbfd71eb9	-1.6806251
100	0xc01ebd4e	-2.4803042
101	0xbf1e4c4d	-0.61835176
102	0x3f836f25	1.0268294
103	0x3fb1c068	1.3886843
104	0x3ff8fb1d	1.9451634
105	0x3f981d20	1.1883888
106	0xbf0e9c95	-0.55707675
107	0x3c9fa323	0.01948697
108	0x3f16fcc1	0.5897942
109	0xbf12f119	-0.57399136
110	0xbe0aa5ba	-0.13539782
111	0xbf9c12bd	-1.2193218
112	0x3f26a63e	0.65097415
113	0x400ca9ee	2.1978717
114	0x3e9e3ea2	0.3090716
115	0x3feefffa	1.8671868
116	0x403ce436	2.951429
117	0x400589d5	2.0865376
118	0xbd590508	-0.052983314
119	0x3f9bc504	1.2169499
120	0xbeb20abd	-0.34773818
121	0xbf659472	-0.89679635
122	0x3f163c9c	0.5868623
123	0xbf0a3d45	-0.5399974
124	0x3f1a1588	0.60189104
125	0x3dca0b00	0.09865379
126	0xbcc56589	-0.024096267
127	0xbee1f47c	-0.4413184
128	0xb8545800	-5.0626695e-05
129	0xbc719758	-0.014745556
130	0xba080380	-0.000518851
131	0x3e99be1f	0.30027863
132	0xbf1163ce	-0.56792915
133	0xbf317b80	-0.6932907
134	0x3f70adee	0.94015396
135	0x3f2fd4ac	0.68683887
136	0xbf45696f	-0.77114004
137	0x3eaf3913	0.34223232
138	0x3f710510	0.9414835
139	0x3f2c6b93	0.67351645
140	0xbf88fd37	-1.0702275
141	0xbfad8bb5	-1.355826
142	0xbdb028a6	-0.08601503
143	0xbeb9760d	-0.36222878
144	0xbe00560b	-0.12532823
145	0x3f4ee866	0.8082336
146	0x3f5fa426	0.87359846
147	0xbe3f34f1	-0.1867254
148	0x3ee2f589	0.44327953
149	0x3ea12496	0.31473225
150	0x3daa701d	0.08322165
151	0xbf27db0c	-0.65568614
152	0xbf3ffb1c	-0.7499254
153	0xbf9f959c	-1.2467532
154	0x3e58f59b	0.21187441
155	0x3fc5de92	1.5458548
156	0x3f5cc9b1	0.86245257
157	0x3f35c05d	0.7099665
158	0xbfb7b3a4	-1.4351697
159	0x3c5bb326	0.013409412
160	0xbf827d42	-1.0194476
161	0xbd1b80e0	-0.0379647
162	0xbd1f212e	-0.038850002
163	0xbc19c468	-0.009385206
164	0x40081203	2.1260993
165	0xbee27cfa	-0.44235975
166	0xc0134c18	-2.3015194
167	0xbf8ca638	-1.0988226
168	0x3f79e4b7	0.97614616
169	0xbf0bb153	-0.5456745
170	0x3d04705c	0.032333717
171	0x3f41775b	0.75572747
172	0xbf608d86	-0.8771595
173	0xbeff21f2	-0.49830586
174	0x3da1a21e	0.078922495
175	0xbeba6ea8	-0.3641255
176	0xbf8892fe	-1.0669858
177	0x3ea33db7	0.31883022
178	0x3fbcae47	1.4740685
179	0x3fc6c721	1.5529519
180	0x3f562f18	0.8366561
181	0x3ecfc76c	0.40581834
182	0x3f5193d6	0.81866205
183	0x3e8a6d73	0.27036628
184	0x3dcc708c	0.09982404
185	0x3e0b2b2c	0.13590688
186	0xbf31cbb3	-0.69451445
187	0xbeddbb6f	-0.43307063
188	0x3f627e87	0.88474315
189	0x3f83f467	1.0308961
190	0x3edaec47	0.4275839
191	0xbf8d58f3	-1.104277
192	0x3cac6392	0.021043573
193	0x3f43078c	0.7618339
194	0x3d402789	0.046912704
195	0x3cca488a	0.024692792
196	0x3a713ec0	0.0009202771
197	0xbe030899	-0.12796248
198	0x3f8eb863	1.115002
199	0x3ed41eac	0.4142965
200	0x3e967218	0.29383922
201	0x3f10ee2c	0.5661342
202	0xbf215ba0	-0.63030434
203	0x3db10998	0.08644408
204	0xbe473170	-0.19452453
205	0x3ddd3d94	0.10802761
206	0x3f9fbd78	1.2479696
207	0x3f5015e3	0.81283396
208	0x3ed906a5	0.42387882
209	0x3e4fddef	0.20299505
210	0xbe2ff46f	-0.17183088
211	0xbf97ddbb	-1.1864542
212	0x3e121e76	0.14269432
213	0xbf981120	-1.1880226
214	0x3e2ab61f	0.16671036
215	0x3f1acc32	0.6046783
216	0x3ed481a8	0.4150517
217	0xbf08cc41	-0.53436667
218	0xbc930a86	-0.017949354
219	0x3e44375b	0.19161741
220	0xbd80e473	-0.06293573
221	0xbe893d14	-0.2680441
222	0x3e96b327	0.29433557
223	0xbf0ebb1f	-0.55754274
224	0x3fd9d50a	1.7018139
225	0x3cc77ec0	0.024352431
226	0x3ebb7d98	0.36619258
227	0xbd2f707f	-0.042831894
228	0xbd394d0a	-0.045239486
229	0x3c2ce8ac	0.01055352
230	0xc0e213b5	-7.0649056
231	0xbe7de4ea	-0.24794355
232	0xc001c288	-2.0274982
233	0x3e8d9e6a	0.27659923
234	0x3eb61da0	0.35569477
235	0xbf857d13	-1.0428795
236	0xbdddb2e4	-0.10825136
237	0xbef201d2	-0.47267014
238	0x3deb3c02	0.11486055
239	0xbdb914dd	-0.090371825
240	0xbeb90b7e	-0.3614158
241	0xbf382298	-0.71927786
242	0xbf768a3e	-0.9630469
243	0xbda33662	-0.07969357
244	0x3f3cfffb	0.73828095
245	0x3fc386ab	1.5275472
246	0x3eae274c	0.34014356
247	0x3f6cce70	0.925025
248	0xbf0378f2	-0.5135642
249	0xbf497dc8	-0.7870755
250	0x3f6d1d6b	0.92623013
251	0xbf2eb23d	-0.6824072
252	0xbfa98ffa	-1.3247063
253	0xbf75e8cb	-0.9605834
254	0xbdf2a45a	-0.11847754
255	0xbdd95d24	-0.10613468

fc1.bias f4 [400]
0	0xbda4a3d2	-0.08039059
1	0xbd92cc50	-0.07167876
2	0x3e2da2c2	0.16956618
3	0x3ce2c4e0	0.027681768
4	0xbe178670	-0.14797378
5	0xbe1e29a3	-0.1544557
6	0xbe18f816	-0.14938387
7	0xbe0174d2	-0.1264222
8	0xbdd7701b	-0.10519429
9	0xbdbc71e2	-0.09201409
10	0x3e04b3e0	0.12959242
11	0xbd924bc6	-0.07143359
12	0x3e23fedc	0.1601519
13	0xbd22ec85	-0.039776344
14	0xbe0ffb3a	-0.14060679
15	0xbd8302e6	-0.06397037
16	0xbd9e1a5a	-0.0771987
17	0xbdf542d9	-0.11975641
18	0xbe266db4	-0.16252786
19	0x3bcba0fd	0.0062142597
20	0xbe0a97a8	-0.13534415
21	0xbd4d7d42	-0.050168283
22	0xbd3b975a	-0.045798637
23	0xbdcdfa41	-0.10057498
24	0xbbdabe4b	-0.0066755167
25	0xbe09e0bf	-0.1346464
26	0xbd67cd11	-0.05659205
27	0x3e1dad7b	0.15398209
28	0x3e24d7ed	0.16097994
29	0x3c6ec94b	0.014574359
30	0x3d2838aa	0.041069664
31	0x3e1e711e	0.15472838
32	0x3e2b007a	0.166994
33	0xbda7c731	-0.081922896
34	0x3ce1cb4a	0.027562756
35	0xbd0ca723	-0.03433908
36	0xbdf4cb72	-0.119528666
37	0x3e1e1a70	0.15439773
38	0x3e0d607f	0.13806342
39	0x3bf4f16a	0.007475068
40	0x3e12fb8c	0.1435377
41	0x3d3ea769	0.046546374
42	0x3deb5400	0.11490631
43	0x3d96cc93	0.07363238
44	0x3da80d99	0.082057185
45	0x3d7f7f93	0.062377524
46	0x3db298ed	0.087205745
47	0x3e1d0267	0.15332948
48	0x3d8aed87	0.06783586
49	0xbde39908	-0.11113173
50	0x3d83a2ba	0.06427522
51	0x3e326a8f	0.17423461
52	0x3e13f45d	0.14448686
53	0x3de075ff	0.10960006
54	0xbd883458	-0.06650609
55	0x3e303e1a	0.1721119
56	0x3d01c5fb	0.03168295
57	0xbdc03c43	-0.09386494
58	0xbbdfe844	-0.006833108
59	0x3e023b6d	0.12717982
60	0xbe23cb7d	-0.15995593
61	0xbd23283e	-0.0398333
62	0x3e04d416	0.1297153
63	0xbd47680c	-0.04868321
64	0xbd900a3f	-0.07033204
65	0xbd407270	-0.046984136
66	0x3d6b4e98	0.057448
67	0xbe097d7d	-0.13426776
68	0x3cb3d11a	0.021950293
69	0x3d375412	0.04475791
70	0x3d3c8a97	0.046030607
71	0xbb6d973b	-0.003625347
72	0x3daf610b	0.08563431
73	0xbc27abd5	-0.010233839
74	0x3e0b0a9d	0.13578267
75	0x3debf0b3	0.11520519
76	0xbdf653fd	-0.12027738
77	0xbd09f1e4	-0.03367795
78	0x3e0a5239	0.13507928
79	0xbc90c23f	-0.017670749
80	0xbd595be4	-0.05306615
81	0xbc323800	-0.010877609
82	0xbd223384	-0.03959991
83	0xbd78f1da	-0.060777523
84	0x3d1f8a8f	0.0389505
85	0x3e163bf6	0.14671311
86	0x3ccf5236	0.025307756
87	0x3dc7edad	0.0976213
88	0x3e09f73c	0.13473219
89	0xbde7efc7	-0.11325031
90	0xbdfeb500	-0.12436867
91	0xbcd280ac	-0.025696121
92	0x3d53137c	0.051532254
93	0xbcadb0dd	-0.021202499
94	0xbda7388e	-0.08165084
95	0xbdf5743d	-0.11985061
96	0x3baddbb0	0.00530573
97	0x3e04a321	0.12952854
98	0x3bf330b1	0.007421576
99	0x3e29aa1b	0.16568796
100	0xbda91b97	-0.082572155
101	0x3e245bb1	0.16050602
102	0xbde5392b	-0.111925445
103	0x3e0dd1a4	0.13849503
104	0x3c9bd116	0.019020598
105	0x3e30d585	0.17268951
106	0x3e29b466	0.16572723
107	0xbd73fc5d	-0.059566844
108	0xbc54e855	-0.012994845
109	0xbd41ad9f	-0.04728472
110	0x3d1db2ba	0.038500525
111	0xbdaf94f8	-0.085733354
112	0xbd255ede	-0.040373676
113	0xbdd86331	-0.10565794
114	0x3dd8fa39	0.10594601
115	0x3e0c5ead	0.13707991
116	0x3c9fbb91	0.019498618
117	0xbbb61d28	-0.005557675
118	0xbe05a9e3	-0.13053088
119	0xbe225e8d	-0.15856381
120	0xbe097a5e	-0.13425586
121	0xbe03f732	-0.12887266
122	0xbe125429	-0.14289917
123	0x3da751e3	0.081699155
124	0xbe07fa10	-0.13278985
125	0x3daaf348	0.083471835
126	0x3ded460b	0.11585625
127	0xba03b041	-0.00050235173
128	0x3d251dbd	0.040311564
129	0x3dde64a1	0.10859037
130	0xbe21ab36	-0.15787968
131	0x3e1a0378	0.15040386
132	0x3e2fb3af	0.17158388
133	0x3e2a2d1b	0.16618769
134	0xbd8cf12b	-0.06881937
135	0x3ddb35eb	0.107036434
136	0xbd8366df	-0.064161055
137	0x3cddf281	0.027093174
138	0x3e14e44a	0.1454021
139	0x3d14f628	0.036367565
140	0x3d8291cd	0.063754655
141	0xbd3de394	-0.046359614
142	0xbda98e18	-0.08279055
143	0x3e119251	0.14215972
144	0xbe20d300	-0.1570549
145	0x3cfa37f1	0.030544253
146	0xbc87e6bd	-0.016589517
147	0xbd487502	-0.048939712
148	0xbe2e1657	-0.1700071
149	0xbdd42390	-0.103583455
150	0xbdcbd2ce	-0.09952317
151	0x3cd70744	0.026248582
152	0x3d8c898d	0.06862173
153	0xbe22099b	-0.15823977
154	0xbd896a3c	-0.06709716
155	0xbe2a478e	-0.16628858
156	0x3df3f32e	0.11911617
157	0xbe23d55f	-0.15999363
158	0xbcbef26f	-0.02330896
159	0xbcc5764c	-0.02410426
160	0xbdc2de6f	-0.09515082
161	0x3e000668	0.12502444
162	0x3d97cb46	0.07411818
163	0x3dba08b3	0.090836905
164	0x3dfac598	0.12244719
165	0xbdb23c19	-0.08702869
166	0x3dabb481	0.08384038
167	0x3e0fe782	0.14053157
168	0xbd23d64b	-0.039999288
169	0xbc68b96a	-0.014204362
170	0x3c86b990	0.016445905
171	0xbe2f1ece	-0.17101595
172	0xbc9c6cb7	-0.019094808
173	0xbcaa5757	-0.0207936
174	0xbe013032	-0.12616041
175	0x3e026546	0.12733945
176	0xbe1cebb3	-0.15324287
177	0xbd8ead20	-0.06966615
178	0x3dd246c8	0.10267407
179	0x3cdd0135	0.026978115
180	0x3d909722	0.07060076
181	0x3bfacaf9	0.0076535908
182	0xbe2611e7	-0.16217767
183	0xbdffe3ec	-0.124946445
184	0xbd7139d5	-0.058893044
185	0xbdeec099	-0.11657829
186	0xbdddd76e	-0.108321056
187	0xbd66de3c	-0.056364283
188	0x3e1eb165	0.15497358
189	0x3e0a25da	0.13491002
190	0x3d0f5e44	0.035002008
191	0xbde40f19	-0.11135692
192	0xbdd6a6e4	-0.104810506
193	0x3e2ea488	0.17054951
194	0x3cb0e6cf	0.021594433
195	0x3c9f3d7e	0.019438501
196	0xbdc9d5c0	-0.09855223
197	0xbdb4ec31	-0.088341124
198	0x3daf64ba	0.08564134
199	0xbc74f143	-0.014950099
200	0xbc964228	-0.018342093
201	0xbdafad0b	-0.08577927
202	0xbe041daf	-0.12901948
203	0xbde5eca4	-0.11226776
204	0xbe2f723d	-0.17133422
205	0x3e235b4b	0.15952794
206	0x3cd292b6	0.025704723
207	0x3cc8fef9	0.024535643
208	0x3e0603de	0.13087413
209	0x3db30ba1	0.087424524
210	0xbccf91c3	-0.02533806
211	0x3ddcbee5	0.10778598
212	0x3b3b0618	0.0028537568
213	0xbe2e38cb	-0.17013852
214	0x3e1086f1	0.14113976
215	0xbdd24099	-0.10266227
216	0xbe06a6b9	-0.13149537
217	0xbd249603	-0.040182125
218	0x3d2bce3f	0.04194474
219	0x3e0c56d3	0.13704996
220	0xbe304b1c	-0.17216152
221	0xbe26dd09	-0.16295256
222	0xbdedb7b7	-0.116073065
223	0xbdcff1f7	-0.10153573
224	0x3e2f38cf	0.17111515
225	0xbb3189e7	-0.0027090253
226	0x3e011c1c	0.12608379
227	0x3d493fa2	0.04913295
228	0x3dd00eb7	0.10159057
229	0xbdb845cf	-0.0899769
230	0x3d9b2361	0.07575107
231	0x3d8154d6	0.06315009
232	0x3d75b126	0.059983395
233	0xbe05dcd6	-0.13072523
234	0xbd754c7f	-0.059887405
235	0x3e17b731	0.14815976
236	0xbd1c3361	-0.038134936
237	0xbe01694a	-0.12637821
238	0xbe170d1f	-0.14751099
239	0xbd114ac3	-0.03547169
240	0x3da4f4c6	0.08054499
241	0xbd52fb64	-0.051509276
242	0x3dfdd65b	0.12394401
243	0x3d981fde	0.07427953
244	0xbe0eb829	-0.13937439
245	0x3af18c46	0.0018428646
246	0x3e229297	0.15876232
247	0x3dddc587	0.10828691
248	0xbd7f1f46	-0.062285684
249	0xbe049ef8	-0.12951267
250	0x3d39c5b9	0.04535458
251	0x3dab1a55	0.08354632
252	0xbd129865	-0.035789866
253	0xbe182b31	-0.14860226
254	0x3e2c1d25	0.16807993
255	0x3dacbe4e	0.08434735

bn1.weight f4 [400]
0	0x3f2f1e06	0.6840519
1	0x3f42935b	0.76006097
2	0x3f357602	0.7088319
3	0x3eaaf16a	0.3338731
4	0x3f547951	0.82997614
5	0x3f1d4333	0.6143066
6	0x3fa6cc48	1.3031092
7	0x3f208e29	0.6271692
8	0x3ed34c5d	0.41269198
9	0x3f7662a5	0.9624427
10	0x3f541b30	0.82853985
11	0x3f91d249	1.1392299
12	0x3f5741ae	0.84084594
13	0x3f46f3a3	0.7771551
14	0x3f4f1c5a	0.80902636
15	0x3fa6ca64	1.3030515
16	0x3e5c069e	0.214869
17	0x3f595ac1	0.84904104
18	0x3ed589b3	0.4170662
19	0x3f222995	0.633447
20	0x3f2beace	0.6715516
21	0x3f949e88	1.161088
22	0x3f0e633f	0.5562019
23	0x3f2a8af7	0.66618294
24	0x3f6906c3	0.9102594
25	0x3f99108e	1.1958177
26	0x3f87b951	1.0603429
27	0x3f3388fe	0.7013091
28	0x3e7ffc53	0.24998598
29	0x3fb78478	1.4337301
30	0x3fa80906	1.3127754
31	0x3f5c1c5d	0.8598078
32	0x3f56215c	0.8364465
33	0x3f8d390a	1.1033032
34	0x3f692bda	0.9108254
35	0x3f6093ea	0.877257
36	0x3f2402cf	0.64066786
37	0x3f46301f	0.77417177
38	0x3f30cc90	0.6906214
39	0x3f4652e2	0.7747022
40	0x3f4c200d	0.79736406
41	0x3edd8f33	0.43273315
42	0x3f74f369	0.95683914
43	0x3f94476f	1.15843
44	0x3f8334f7	1.0250539
45	0x3f0815fc	0.53158545
46	0x3f38994d	0.7210892
47	0x3f28591e	0.6576098
48	0x3f444a13	0.7667553
49	0x3f130811	0.57434183
50	0x3f56cba0	0.8390446
51	0x3f10544d	0.5637863
52	0x3f670f26	0.9025749
53	0x3f5de79b	0.86681527
54	0x3f085269	0.5325075
55	0x3f780492	0.96881974
56	0x3f6dcad6	0.9288763
57	0x3ec3b292	0.38222176
58	0x3f2cfece	0.675763
59	0x3f10e604	0.56600976
60	0x3f5a0c84	0.8517535
61	0x3e09abc6	0.13444433
62	0x3f337ec0	0.7011528
63	0x3f930762	1.1486628
64	0x3f2fd818	0.6868911
65	0x3f641e63	0.89108866
66	0x3f5c5987	0.8607411
67	0x3f444cd7	0.7667975
68	0x3f120c6e	0.57050216
69	0x3f623957	0.88368744
70	0x3f850b16	1.0394008
71	0x3f6286e0	0.8848705
72	0x3e5b4a37	0.2141503
73	0x3f5a08d5	0.85169727
74	0x3f9b092e	1.2112176
75	0x3f1b9061	0.6076718
76	0x3e8bc7cf	0.2730088
77	0x3f6029fd	0.8756407
78	0x3f1f938b	0.6233451
79	0x3f983ce5	1.1893584
80	0x3f503e08	0.8134465
81	0x3f476b5e	0.77898204
82	0x3f51affb	0.8190915
83	0x3f35f31d	0.71074086
84	0x3fa1a281	1.2627717
85	0x3f3ad47a	0.72980464
86	0x3f4c5532	0.798175
87	0x3f6e5ab1	0.93107134
88	0x3f571ba6	0.84026563
89	0x3f6aab79	0.91667897
90	0x3fad8094	1.3554864
91	0x3f43b49f	0.7644748
92	0x3f7b514c	0.98170924
93	0x3efc3bce	0.49264377
94	0x3f68fc61	0.910101
95	0x3f54c416	0.83111703
96	0x3f5e9680	0.86948395
97	0x3ef95faa	0.48705798
98	0x3ec2efe8	0.3807366
99	0x3f9bbfd9	1.2167922
100	0x3f509f0e	0.814927
101	0x3f6ed7ed	0.93298227
102	0x3fcc0bc2	1.5941088
103	0x3f862150	1.0478916
104	0x3f8af82f	1.085699
105	0x3f79b919	0.9754806
106	0x3f3b84fe	0.73249805
107	0x3f7d1dc9	0.98873574
108	0x3f5d8b86	0.8654102
109	0x3ef0e189	0.4704707
110	0x3f7de09c	0.9917085
111	0x3f3ed33c	0.7454107
112	0x3f90339d	1.1265751
113	0x3f775add	0.9662302
114	0x3fb9ec89	1.452531
115	0x3f9f68d6	1.2453868
116	0x3f7f745d	0.9978693
117	0x3f483113	0.7819988
118	0x3f3e919e	0.74440944
119	0x3f8609e4	1.0471768
120	0x3f5674fe	0.83772266
121	0x3f40e93b	0.7535588
122	0x3eb86779	0.36016443
123	0x3f816e7d	1.0111843
124	0x3f2e5dd6	0.6811193
125	0x3f5d9e1d	0.86569387
126	0x3f528de4	0.8224776
127	0x3f4552cd	0.7707947
128	0x3eae1719	0.34001997
129	0x3f2a7f7d	0.6660078
130	0x3f4ef17a	0.80837214
131	0x3f0d5b8a	0.552178
132	0x3f4c347d	0.7976759
133	0x3fa970ce	1.323755
134	0x3fe0fb8b	1.7576765
135	0x3f4c3ce4	0.7978041
136	0x3f3ceeb1	0.73801714
137	0x3f8fd638	1.1237249
138	0x3f51d016	0.8195814
139	0x3f1f418a	0.6220938
140	0x3f830e07	1.0238656
141	0x3f8c4190	1.0957508
142	0x3ef8affb	0.48571762
143	0x3f3aed99	0.73018795
144	0x3f889bf6	1.0672596
145	0x3f2a84b8	0.6660876
146	0x3f655b8d	0.8959282
147	0x3f527f31	0.8222533
148	0x3eeae526	0.4587795
149	0x3f4ac87c	0.79212165
150	0x3f0fa527	0.5611138
151	0x3ecd2078	0.40063834
152	0x3f5bbccb	0.8583495
153	0x3f493560	0.7859707
154	0x3edaceab	0.427358
155	0x3f320894	0.6954434
156	0x3f1fe0c3	0.62452334
157	0x3f8958c3	1.0730213
158	0x3e64e0f3	0.22351436
159	0x3f725bf9	0.9467159
160	0x3f129c2d	0.57269555
161	0x3f4bb8ea	0.7957903
162	0x3f73b027	0.9519066
163	0x3f92683b	1.1438059
164	0x3f2508e3	0.64466685
165	0x4003daec	2.060237
166	0x3f9f79e4	1.2459073
167	0x3f685d74	0.907676
168	0x3f32a10a	0.69776976
169	0x3f2d244a	0.676335
170	0x3f80a1fd	1.0049435
171	0x3f88575c	1.065166
172	0x3f5fa934	0.8736756
173	0x3f1b35e8	0.6062913
174	0x3f9a6422	1.2061808
175	0x3f8580cf	1.0429934
176	0x3f4223e8	0.7583604
177	0x3f394337	0.72368187
178	0x3f65a2c4	0.89701486
179	0x3f7c3c72	0.9852973
180	0x3f7a06a7	0.976664
181	0x3f816fdf	1.0112265
182	0x3f2c96aa	0.67417395
183	0x3fa1b7f4	1.2634263
184	0x3f31f2ee	0.69511306
185	0x3fa126bc	1.2589946
186	0x3f2a6990	0.66567326
187	0x3f2cb0ef	0.6745748
188	0x3f53ff2c	0.82811236
189	0x3f572da8	0.8405404
190	0x3f144d9f	0.5793094
191	0x3f7d4bd8	0.98943853
192	0x3f6f31e4	0.934355
193	0x3f513eb9	0.8173633
194	0x3e7c1974	0.24619085
195	0x3e954145	0.2915136
196	0x3f7a90a8	0.9787698
197	0x3f8f3fcf	1.1191348
198	0x3f3df7ec	0.74206424
199	0x3f4aa02c	0.7915065
200	0x3f869a32	1.0515807
201	0x3f2625ec	0.64901614
202	0x3f75bfec	0.95995975
203	0x3f72a74c	0.94786525
204	0x3f5c50be	0.860607
205	0x3f31e172	0.6948463
206	0x3f3e1e3e	0.74264896
207	0x3f663be8	0.8993516
208	0x3f9caae8	1.2239656
209	0x3ed62732	0.4182678
210	0x3f2f5e4d	0.68503267
211	0x3f8eff14	1.1171594
212	0x3f783a3b	0.9696385
213	0x3ffd121e	1.9771154
214	0x3f7fbe51	0.99899775
215	0x3f2f61d8	0.6850867
216	0x3f6f6ae2	0.93522465
217	0x3f46b9c0	0.7762718
218	0x3f729ca9	0.94770294
219	0x3f90fb22	1.132664
220	0x3f680014	0.9062512
221	0x3f4f6047	0.8100628
222	0x3f7d0a71	0.9884406
223	0x3f9f184b	1.2429289
224	0x3f86cf56	1.0532024
225	0x3f81abad	1.0130516
226	0x3f4a6f57	0.7907614
227	0x3f67c0c6	0.90528524
228	0x3f602ac8	0.8756528
229	0x3f807d82	1.0038302
230	0x3f3572f9	0.7087856
231	0x3f749cf4	0.9555199
232	0x3f41e492	0.75739396
233	0x3f075f7c	0.5288007
234	0x3f69326e	0.91092575
235	0x3f4941cf	0.7861604
236	0x3f5cbcaa	0.8622538
237	0x3f58ee2c	0.8473842
238	0x3f2e29fe	0.68032825
239	0x3f3bfefe	0.7343596
240	0x3f502834	0.81311345
241	0x3f6c95fa	0.92416346
242	0x3f51bf29	0.8193231
243	0x3f73bbd0	0.95208454
244	0x3ee6b639	0.450609
245	0x3f6f278a	0.93419707
246	0x3f93383c	1.1501536
247	0x3f38c49e	0.72175014
248	0x3f9f8a72	1.2464125
249	0x3f85bf4e	1.0449007
250	0x3f06a280	0.52591705
251	0x3f1caa30	0.61197186
252	0x3f8d1819	1.1022979
253	0x3f676759	0.9039207
254	0x3f892ab0	1.0716152
255	0x3fa601cd	1.29693

bn1.bias f4 [400]
0	0xbeef51dd	-0.46742144
1	0xbf84a485	-1.0362707
2	0xbf513ed4	-0.81736493
3	0xbe3b53cc	-0.18293685
4	0xbf7c2672	-0.9849616
5	0x3e8cb97d	0.27485266
6	0xbf9aa69a	-1.2082093
7	0xbf4d090a	-0.8009192
8	0xbe964189	-0.29346874
9	0xbecc04c2	-0.3984738
10	0xbfa45338	-1.2837896
11	0xbfaca09c	-1.3486514
12	0xbf9859d8	-1.1902418
13	0xbfbdf6f7	-1.4840993
14	0xbf9620e8	-1.1728792
15	0xbf61e6d1	-0.8824282
16	0xbfb5df5e	-1.4208791
17	0xbf4e2d30	-0.805377
18	0xbeeef2db	-0.4666966
19	0xbf25e515	-0.64802676
20	0xbf788f26	-0.9709343
21	0xbfca5d94	-1.5809808
22	0xbf041248	-0.51590395
23	0xbf8b6f77	-1.0893391
24	0xbf846839	-1.0344306
25	0xbf75a87d	-0.9596022
26	0xbfa412b5	-1.2818209
27	0xbf5f943b	-0.87335557
28	0xbf9f4853	-1.2443947
29	0xbead51a1	-0.3385134
30	0xbf7f515d	-0.99733526
31	0xbf8a72bd	-1.0816265
32	0xbf9507a4	-1.1642957
33	0xbf9efa2b	-1.2420095
34	0xbf948a69	-1.160474
35	0xbf9bc844	-1.2170491
36	0xbf2404ee	-0.6407002
37	0xbfb48d27	-1.4105576
38	0xbf8170ab	-1.0112509
39	0xbf75e5f6	-0.9605402
40	0xbf6cc97c	-0.9249494
41	0xbfe29e2f	-1.7704524
42	0xbf3a0361	-0.72661406
43	0xbfb29890	-1.3952808
44	0xbff82388	-1.9385843
45	0xbf15b810	-0.5848398
46	0xbf89c7b5	-1.0764071
47	0xbe1cea96	-0.15323862
48	0xbf537ad8	-0.8260932
49	0xbf1d7f1d	-0.61522084
50	0xbfc523f6	-1.54016
51	0xbeda9c62	-0.42697436
52	0xbfbc7ffb	-1.4726557
53	0xbf33b438	-0.70196867
54	0xbf14fe24	-0.5820029
55	0xbf9e31a6	-1.2358902
56	0xbf5bdcde	-0.8588389
57	0xbe760c1c	-0.24028057
58	0xbf230290	-0.63675785
59	0x3f3ba68e	0.7330102
60	0xbfaf52cf	-1.3697146
61	0x3f5c063e	0.85947025
62	0xbf8bf9bf	-1.0935591
63	0xbe4c25db	-0.19936316
64	0xbf83a60e	-1.0285051
65	0xbf30dc30	-0.6908598
66	0xbf4f8091	-0.8105555
67	0xbfadf724	-1.3591046
68	0xbeb05fdf	-0.34448144
69	0xbfbbbf61	-1.4667779
70	0xbf7c7b30	-0.9862547
71	0xbec50bf4	-0.38485682
72	0xbf96130d	-1.1724564
73	0xbfd00aab	-1.6253256
74	0xbfa419a5	-1.2820326
75	0xbf0446ae	-0.5167035
76	0x3d454a8a	0.04816679
77	0xbf456361	-0.77104765
78	0xbf3b2a4c	-0.73111415
79	0xbfc52f12	-1.540499
80	0xbf0c77ca	-0.54870284
81	0xbf1d276d	-0.61388284
82	0xbf66a7e7	-0.9009995
83	0xbeef3699	-0.46721342
84	0x3ef1afe2	0.472045
85	0xbf787d44	-0.9706614
86	0xbfb53c9c	-1.4159122
87	0xbecffe6a	-0.4062379
88	0xbfb72c7b	-1.4310449
89	0xbfaa9839	-1.3327705
90	0xbf709a51	-0.9398547
91	0xbfa4518f	-1.283739
92	0xbfbebde5	-1.4901701
93	0xbf4546d3	-0.77061194
94	0xbfc8c542	-1.5685198
95	0xbfb8b2fb	-1.442962
96	0xbf610ba3	-0.8790838
97	0xbfcd9c89	-1.6063396
98	0xbfe4f898	-1.7888365
99	0xbfdecbbe	-1.7405927
100	0xbf8cf568	-1.1012392
101	0xbf78dce9	-0.9721208
102	0xbf8b7749	-1.0895778
103	0xbfbb3942	-1.4626849
104	0xbeae7af0	-0.3407817
105	0xbf8cda9e	-1.1004217
106	0xbf9ca66a	-1.2238286
107	0xbfac4114	-1.345736
108	0xbf615b82	-0.88030255
109	0xbff6042a	-1.9220021
110	0xbf68b098	-0.9089446
111	0xbf729045	-0.9475139
112	0xbfcaa6b0	-1.5832119
113	0xbf539b48	-0.82658815
114	0xbfb87baf	-1.4412745
115	0xbfafbc19	-1.3729278
116	0xbfa69549	-1.3014308
117	0xbef9ec2d	-0.48813
118	0xbf7d3104	-0.98902917
119	0xbf85ec06	-1.0462654
120	0xbf8b1a9d	-1.0867497
121	0xbf18103c	-0.5939977
122	0xbe0528ab	-0.13003795
123	0xbf88a726	-1.067601
124	0xbf67ecfb	-0.9059598
125	0xbf7176b7	-0.9432177
126	0xbf48f3fd	-0.78497297
127	0xbf6c6cae	-0.9235333
128	0x3e455734	0.19271547
129	0xbf44d442	-0.7688638
130	0xbfa23b1f	-1.2674292
131	0xbf9ebc3a	-1.2401192
132	0xbfca1229	-1.5786792
133	0xbfc3a197	-1.5283688
134	0xbf56451d	-0.8369921
135	0xbf43d352	-0.76494324
136	0xbf6d8d24	-0.9279349
137	0xbfd58a69	-1.6682864
138	0xbf9a32a6	-1.2046707
139	0xbf7cc06c	-0.9873111
140	0xbfaeacbe	-1.3646467
141	0xbfae1fc5	-1.3603445
142	0xbfef3ba1	-1.8690072
143	0xbf4288d1	-0.75990015
144	0xbf9a337c	-1.2046962
145	0xbf20cda2	-0.6281377
146	0xbfc04a03	-1.5022587
147	0xbf84d32a	-1.0376942
148	0xbed9f26b	-0.42567763
149	0xbf178d23	-0.5919973
150	0xbf3252d7	-0.69657654
151	0xbfaf2678	-1.3683615
152	0xbed6a025	-0.41919056
153	0xbf136c07	-0.5758671
154	0x3e9faf15	0.31188264
155	0xbf42b433	-0.7605621
156	0xbea9f817	-0.3319709
157	0xbf656784	-0.8961108
158	0xbfcb84e4	-1.589993
159	0xbf6cdce1	-0.92524534
160	0xbe935a2e	-0.2877974
161	0xbf837107	-1.0268868
162	0xbf907455	-1.1285502
163	0xbf35e29f	-0.7104892
164	0xbeb80ca8	-0.35947156
165	0xbe234e1a	-0.15947762
166	0xbfd74bd7	-1.682002
167	0xbfa627cc	-1.2980895
168	0xbffa54a3	-1.9557079
169	0xbf78d8c3	-0.9720575
170	0xbf97e1b3	-1.1865753
171	0xbf9aa6f6	-1.2082202
172	0xbf7ec269	-0.99515396
173	0xbf8141d3	-1.0098213
174	0xbfa531e5	-1.2905852
175	0xbf865d30	-1.0497189
176	0xbf1fc36b	-0.6240756
177	0xbfbdb6f5	-1.4821459
178	0xbf04645b	-0.5171563
179	0xbf97efdd	-1.1870075
180	0xbec65027	-0.38733026
181	0xbf87b1a7	-1.060109
182	0xbf0cf877	-0.5506663
183	0xbfe75a14	-1.8074365
184	0xbf64792f	-0.8924741
185	0xbfba7707	-1.4567574
186	0xbf51b645	-0.81918746
187	0xbf76b5f6	-0.963714
188	0xbf26b486	-0.65119207
189	0xbfc3bef7	-1.5292653
190	0xbfa03bc2	-1.2518237
191	0xbf60aafc	-0.877609
192	0xbfdcffec	-1.7265601
193	0xbf8dc764	-1.1076474
194	0x3e3297ec	0.17440766
195	0x3fb62379	1.4229575
196	0xbf402b8e	-0.7506646
197	0xbf20a7fd	-0.6275633
198	0xbedb349d	-0.42813578
199	0xbf23708e	-0.6384362
200	0xbfbbd559	-1.4674484
201	0xbfb7fc88	-1.4373941
202	0xbfb5f83b	-1.4216379
203	0xbfcbf7f7	-1.5935048
204	0xbec6846c	-0.38772905
205	0xbf703c49	-0.9384199
206	0xbf448b15	-0.7677472
207	0xbf2ea607	-0.6822209
208	0xbfac3bbf	-1.3455733
209	0xbecc5e4c	-0.39915693
210	0xbf8caf5d	-1.0991017
211	0xbfd53376	-1.665633
212	0xbfa3242c	-1.2745414
213	0xc0043c04	-2.066163
214	0xbfa29e22	-1.2704508
215	0xbf522e09	-0.82101494
216	0xbf894973	-1.072554
217	0xbfa7918c	-1.3091292
218	0xbf6a12ac	-0.9143474
219	0xbf9102d5	-1.1328989
220	0xbf93fb9e	-1.1561162
221	0xbf7897a0	-0.9710636
222	0xbf7a97df	-0.97887987
223	0xbfd60f23	-1.6723369
224	0xbf91b23a	-1.1382515
225	0xbfe55426	-1.7916305
226	0xbfc731bf	-1.5562056
227	0xbfc9da5d	-1.5769764
228	0xbf270da9	-0.6525522
229	0x3edfcf6d	0.4371294
230	0xbeaefa33	-0.34175262
231	0xbfbd6e32	-1.4799254
232	0xbf0ddd5c	-0.5541589
233	0xbf4e2f5d	-0.8054102
234	0xbfaeec6b	-1.3665899
235	0x3e69ee65	0.22844847
236	0xbf71704c	-0.94311976
237	0xbf82776c	-1.0192695
238	0xbf9bf304	-1.2183537
239	0xbf24ee56	-0.6442617
240	0xbf7ee05e	-0.9956111
241	0xbf358a73	-0.7091438
242	0xbfb40ce9	-1.406644
243	0xbf260e6c	-0.64865756
244	0xbea07ca3	-0.3134509
245	0xbf9b4de2	-1.2133143
246	0xbf8e150a	-1.1100171
247	0xbf158d43	-0.58418673
248	0xbf4e889e	-0.8067721
249	0xbfaebec6	-1.365197
250	0xbf88c2ac	-1.0684409
251	0xbeafe1a6	-0.34351844
252	0xbfa63517	-1.2984952
253	0xbfa36c56	-1.2767437
254	0xbfa938d0	-1.3220463
255	0xbf976604	-1.1828008

bn1.running_mean f4 [400]
0	0xc0169e1c	-2.3534002
1	0xc03ce394	-2.9513903
2	0xc0d37444	-6.6079426
3	0xc005c7f8	-2.0903301
4	0xbee4111a	-0.44544297
5	0x3ee8cc3c	0.45468318
6	0xbfb1dbb4	-1.3895173
7	0xbfc12855	-1.5090433
8	0x3f885247	1.0650109
9	0x3f4bd708	0.79624987
10	0xc07b0c49	-3.9226248
11	0xc09a0382	-4.812928
12	0x3e9df75f	0.30852792
13	0x3fef1624	1.8678632
14	0xc0cbd574	-6.3698063
15	0xbfe3f961	-1.7810479
16	0xc068014b	-3.625079
17	0xc039eb3b	-2.9049823
18	0xbeb7912c	-0.35852945
19	0x40dcd51f	6.9010158
20	0x3fa9de0a	1.3270886
21	0xc061f161	-3.5303576
22	0x408a90b7	4.3301654
23	0xc097ed6f	-4.7477336
24	0xbf8b61c3	-1.088921
25	0x3e95a5d6	0.29228085
26	0xbf4d1a1f	-0.8011798
27	0x3f2a495c	0.6651819
28	0x40228cb5	2.539838
29	0x40a1bbd8	5.05418
30	0x3eaf27f4	0.3421017
31	0x3eeb953d	0.46012297
32	0xc09086f7	-4.516475
33	0x3fb42d7c	1.4076381
34	0x403461ff	2.8184812
35	0x4023e3a2	2.5607686
36	0xc0d14bc9	-6.540501
37	0x4044f0f1	3.077206
38	0x3fd075ed	1.6285988
39	0xc0e3395d	-7.1007524
40	0x410bd249	8.738839
41	0xbfc0ef72	-1.5073073
42	0xc0370b3a	-2.8600602
43	0xbf5661dd	-0.8374308
44	0xbee851a3	-0.45374784
45	0xc0abfcb3	-5.374597
46	0x3f8139ae	1.0095727
47	0xbf7a2619	-0.9771438
48	0xc0500955	-3.2505696
49	0x4038a0ae	2.884807
50	0xc0b5f128	-5.685688
51	0xc0206b27	-2.50654
52	0xc0edb12e	-7.4278784
53	0xbee196d1	-0.44060376
54	0x3f834f81	1.0258638
55	0xbefcd724	-0.4938289
56	0xbf777f56	-0.96678674
57	0xc047ab9f	-3.11985
58	0xc082be42	-4.085725
59	0x40154d73	2.3328521
60	0xc02f2333	-2.7365234
61	0x40a2d43b	5.088407
62	0x40811e7e	4.034972
63	0xbde1e5fb	-0.110301934
64	0xc027debc	-2.6229696
65	0x4091b17e	4.5529165
66	0x408baf82	4.3651743
67	0xc0f5e2cb	-7.6839347
68	0xc04048b7	-3.0044382
69	0xc095f518	-4.6861687
70	0x3faed788	1.3659525
71	0x4060f0c8	3.5146961
72	0x3fb906b8	1.4455175
73	0xc09ab770	-4.8348923
74	0x3f69be54	0.9130604
75	0x3f07fb50	0.5311785
76	0xc0576677	-3.365629
77	0xc0fc3834	-7.8818607
78	0x400e732f	2.2257802
79	0x408a045d	4.3130326
80	0x407e75b4	3.975934
81	0xbef1a5b0	-0.47196722
82	0xbfb1f459	-1.3902694
83	0xc0c27f83	-6.0780654
84	0xc003713b	-2.053786
85	0x3fb89c94	1.4422784
86	0x3f8ce016	1.1005886
87	0xbfaa61b9	-1.3311073
88	0x3e5ab53d	0.213582
89	0xbfebb1c0	-1.841362
90	0xbe072d3d	-0.13200851
91	0xc083592a	-4.1046343
92	0xbf5ba48c	-0.85797954
93	0xbfbca550	-1.4737949
94	0x3f2e5b98	0.6810851
95	0x3ff1632b	1.8858389
96	0xc0741ab9	-3.814131
97	0xbc9503e3	-0.01819033
98	0xbe82b10c	-0.255257
99	0x40e14641	7.039826
100	0xc090b26c	-4.52178
101	0xc0687c7f	-3.6325986
102	0x3f66afce	0.90112007
103	0xc0231abe	-2.5485072
104	0x3f6db324	0.9285147
105	0xbf0c2874	-0.54749227
106	0x40ba6260	5.8245087
107	0x3ffea830	1.9895077
108	0xc062d829	-3.5444434
109	0xbfab0d84	-1.33635
110	0xbfadca9f	-1.357746
111	0xc06d0c3b	-3.7038715
112	0xbf73de58	-0.95261145
113	0x40c57518	6.1705437
114	0xbf7b9823	-0.9827902
115	0x4072213f	3.7832792
116	0xc09dcb4b	-4.931066
117	0xbf18370b	-0.5945899
118	0x3fd8ae11	1.6928121
119	0x400a9207	2.1651628
120	0xc011aa03	-2.2760017
121	0x3ff96629	1.9484302
122	0x40940a62	4.6262674
123	0x40de8569	6.9537854
124	0xc09c4709	-4.8836713
125	0xbfd58861	-1.6682245
126	0xc047abf8	-3.1198711
127	0xbff4967c	-1.9108424
128	0x3ed0493f	0.40680882
129	0xbf905e7a	-1.1278832
130	0xbf415537	-0.7552065
131	0xc01666de	-2.3500285
132	0x410d0302	8.813234
133	0x3f9f82aa	1.246175
134	0xbe445154	-0.19171649
135	0xbfe46420	-1.7843056
136	0xbe5c5e67	-0.21520387
137	0xc0079909	-2.1187155
138	0x4025c380	2.5900574
139	0xc0adc197	-5.4298816
140	0xc0b75212	-5.7287683
141	0x3f30cbaf	0.69060796
142	0xc0b48e4a	-5.6423693
143	0x3f9bb3e8	1.2164278
144	0xbdcf2629	-0.101147
145	0xc00cfb46	-2.2028365
146	0xc0c0887b	-6.01666
147	0xc032dd41	-2.7947543
148	0xc03ec689	-2.9808676
149	0x3eb39831	0.3507705
150	0xc01249a0	-2.2857437
151	0x3f32f845	0.6991008
152	0x3ff0c003	1.8808597
153	0xc01f920d	-2.4932892
154	0x40a34b92	5.102975
155	0xbfbd648a	-1.4796307
156	0xc02e34e8	-2.7219791
157	0xc0b84ec5	-5.7596154
158	0x3da7ab4f	0.081869714
159	0xc02b7188	-2.6788044
160	0x4080af99	4.0214353
161	0xbf9c9d07	-1.2235421
162	0xbe00250d	-0.12514134
163	0xbf00b64a	-0.5027815
164	0x4003b5b7	2.057966
165	0xbf0d4579	-0.5518413
166	0x3feb359e	1.8375738
167	0xc00d4718	-2.2074642
168	0xc13b6043	-11.711001
169	0xbf775df1	-0.9662772
170	0x40998fae	4.798789
171	0xc011a8b2	-2.2759213
172	0xbf3d4725	-0.7393668
173	0xc00ca000	-2.1972656
174	0x40134599	2.301123
175	0x40067efe	2.101501
176	0x40a71367	5.2211185
177	0xc04d3b67	-3.2067506
178	0x3feb6627	1.839055
179	0x3f9b9b8a	1.2156842
180	0xbe9ce0a3	-0.30640134
181	0x4043e04e	3.0605655
182	0xc0528971	-3.2896388
183	0x40bd4dd0	5.9157486
184	0x3fea2dfc	1.8295283
185	0xc05e9d51	-3.4783518
186	0x4081ec0c	4.0600643
187	0xc0aa4e95	-5.3220925
188	0xbfa15024	-1.2602582
189	0xc11dae5a	-9.855066
190	0xc0e96fcf	-7.2948985
191	0xc003ae61	-2.0575182
192	0xc09ca97a	-4.895688
193	0x3f8167f7	1.0109853
194	0xc0336122	-2.8028035
195	0x408f4209	4.476811
196	0x3fd795f1	1.6842633
197	0xc00df4cc	-2.2180662
198	0x40093d32	2.14436
199	0x40921ec1	4.566254
200	0x3f579aac	0.84220386
201	0xbef4f148	-0.47840333
202	0x3e880e84	0.26573575
203	0x3f3e6aec	0.743819
204	0x3e827b5f	0.2548475
205	0x3f0ec37e	0.5576705
206	0x3f86676f	1.0500315
207	0x3fd38336	1.6524417
208	0x40ecd45e	7.4009237
209	0xbf022d04	-0.5084994
210	0xc00cdd91	-2.2010233
211	0xc1026933	-8.150683
212	0xc0ae70ad	-5.4512544
213	0x3eae69d7	0.34065124
214	0x403e43cf	2.9728887
215	0xbf803cb3	-1.0018524
216	0x407399b4	3.8062563
217	0x409ce05d	4.902388
218	0x3ee93d22	0.45554453
219	0x3cdc6b2c	0.026906572
220	0xc0ae4270	-5.44561
221	0xc118aff3	-9.542956
222	0xbf07d7c3	-0.530636
223	0x4081e3af	4.0590434
224	0xbffda17a	-1.9814904
225	0x4042bae5	3.0426571
226	0xc0a644fe	-5.195922
227	0xc09756a0	-4.7293243
228	0xbff6a061	-1.9267694
229	0x3f1d60d6	0.61475885
230	0xc1059386	-8.348516
231	0x3ff28b45	1.8948752
232	0x40bb4430	5.8520737
233	0x3dcfbc57	0.10143345
234	0xc1104d75	-9.01891
235	0x405cb398	3.4484615
236	0xc087541a	-4.2290163
237	0xbf9eb036	-1.2397525
238	0xbf0a413d	-0.54005796
239	0xc0bfd84d	-5.995154
240	0xbf9962e3	-1.1983303
241	0x4010112c	2.251048
242	0xc0da0dad	-6.8141694
243	0x402f64ea	2.7405343
244	0xc058e539	-3.3889906
245	0xc0c64cd0	-6.1968765
246	0x4027e528	2.6233616
247	0x3f401ae8	0.75041056
248	0x3fb280ec	1.3945594
249	0xbfc60898	-1.5471373
250	0xc0f29ff6	-7.5820265
251	0x3fc97a3f	1.5740432
252	0x3f6a4f60	0.91527367
253	0xc0ba62ea	-5.8245745
254	0x3fa5b262	1.2945063
255	0xbf95745b	-1.1676134

bn1.running_var f4 [400]
0	0x4231c831	44.4455
1	0x435ffeef	223.99583
2	0x43461dae	198.11594
3	0x42349270	45.143005
4	0x42b56c44	90.71146
5	0x42851fb8	66.56195
6	0x429665c1	75.19874
7	0x4364331d	228.19966
8	0x42f8e9ee	124.456894
9	0x42a9c062	84.87575
10	0x43a354a3	326.66122
11	0x432b715f	171.44286
12	0x43b9f2f0	371.89795
13	0x430d82a5	141.51033
14	0x42d1543e	104.664536
15	0x42c05ad3	96.17739
16	0x42d04a08	104.14459
17	0x431da317	157.63707
18	0x426aeeca	58.733192
19	0x435a53ef	218.32787
20	0x43062806	134.15634
21	0x43b2b5ac	357.4193
22	0x42ea0e8a	117.0284
23	0x42b499ec	90.30063
24	0x427c3b03	63.05763
25	0x428ac080	69.37598
26	0x425228c2	52.539803
27	0x426d9840	59.39868
28	0x42cde256	102.94206
29	0x42825657	65.16863
30	0x42712f77	60.296352
31	0x43a2f4ff	325.91403
32	0x42e256b6	113.16936
33	0x428c0870	70.01648
34	0x438f55b7	286.66965
35	0x434e16e0	206.08936
36	0x430597ef	133.59349
37	0x435f0f13	223.05888
38	0x4284d7d9	66.42158
39	0x42cfe739	103.95161
40	0x432a9b5f	170.60692
41	0x43052bf2	133.17166
42	0x430b59b8	139.35046
43	0x4263665b	56.849957
44	0x431debad	157.92061
45	0x42cf8381	103.75684
46	0x42e73a96	115.614426
47	0x429166ef	72.70104
48	0x437e8a87	254.54112
49	0x42d402c1	106.00538
50	0x42f1311d	120.595924
51	0x42c6a85a	99.32881
52	0x42b28b80	89.27246
53	0x43069cc6	134.6124
54	0x41eb7611	29.43265
55	0x435990cf	217.56566
56	0x426424da	57.035988
57	0x425826a1	54.037724
58	0x42732f74	60.79634
59	0x42d1bd72	104.87001
60	0x429d8db2	78.77675
61	0x42d6dc8b	107.43075
62	0x4306f82b	134.9694
63	0x41cd3c56	25.65446
64	0x42803dc6	64.12065
65	0x4309d04f	137.8137
66	0x42b643a8	91.13214
67	0x42a9fe45	84.99662
68	0x42b828da	92.07979
69	0x42d39e54	105.809235
70	0x428a639f	69.19457
71	0x42620590	56.505432
72	0x4315ac2b	149.67253
73	0x42da61d7	109.19109
74	0x4285ded5	66.93522
75	0x42e72675	115.57511
76	0x43470ef7	199.05846
77	0x428d6bad	70.710304
78	0x437c414a	252.25504
79	0x42b64cdd	91.15012
80	0x42b83bdc	92.11691
81	0x430af233	138.94609
82	0x42f4fd2b	122.49447
83	0x429fb803	79.8594
84	0x42109404	36.144547
85	0x42c0b9ff	96.36327
86	0x427214e1	60.52039
87	0x4288ba6d	68.36411
88	0x43397ec5	185.4952
89	0x4338570e	184.34006
90	0x425f6d97	55.85702
91	0x435aed6e	218.92746
92	0x422eca73	43.697704
93	0x42916518	72.69745
94	0x430023af	128.13939
95	0x4329cdb3	169.80351
96	0x42efc25e	119.87962
97	0x4370d09f	240.81493
98	0x42ff23dd	127.570045
99	0x43259463	165.57964
100	0x4287f7c0	67.98389
101	0x42882a28	68.08234
102	0x433871f7	184.44518
103	0x43849775	265.18326
104	0x42d0eb6a	104.45979
105	0x42b8fd7a	92.49507
106	0x431081ec	144.5075
107	0x428a2580	69.07324
108	0x427f8328	63.878082
109	0x43c08b52	385.08844
110	0x42b71673	91.543846
111	0x42cac0aa	101.3763
112	0x42bed7aa	95.42122
113	0x4346c331	198.76247
114	0x41f2e8cb	30.363668
115	0x42697912	58.368233
116	0x434d74e0	205.45654
117	0x42936769	73.70197
118	0x42aeb560	87.35425
119	0x43279af6	167.60532
120	0x43a92a2c	338.32947
121	0x42a05b8d	80.17881
122	0x426b1bc0	58.7771
123	0x432b9a5c	171.60297
124	0x4340962b	192.5866
125	0x4312511c	146.31683
126	0x433f98b4	191.5965
127	0x42d2fc4c	105.49277
128	0x4286c0ec	67.3768
129	0x42467b42	49.62037
130	0x42d48801	106.26563
131	0x42eedd34	119.43204
132	0x42552192	53.282784
133	0x43caed48	405.85376
134	0x42afedda	87.964554
135	0x42988d11	76.27552
136	0x42c4334a	98.100174
137	0x42f1ebd2	120.96059
138	0x4309daa7	137.85411
139	0x436fe288	239.88489
140	0x43ad5c2f	346.72018
141	0x427f613c	63.844955
142	0x431a881b	154.53166
143	0x420e06ea	35.506752
144	0x42b9a63b	92.82467
145	0x42a02645	80.074745
146	0x42a2c55c	81.38547
147	0x42ca2916	101.080246
148	0x4280afc2	64.34328
149	0x4309affe	137.68747
150	0x42a960d7	84.68914
151	0x4329ed24	169.92633
152	0x41df363b	27.90148
153	0x43146573	148.39629
154	0x43ad70f9	346.8826
155	0x422e717c	43.610825
156	0x42d52062	106.56325
157	0x43100215	144.00813
158	0x423fca4c	47.947556
159	0x4281301d	64.59397
160	0x42932231	73.56678
161	0x42b9f156	92.97136
162	0x42e293aa	113.28841
163	0x42c27d80	97.24512
164	0x42ba1d34	93.05704
165	0x42ed3e90	118.62219
166	0x42b60eab	91.02865
167	0x4380aa9f	257.33298
168	0x42cd2cf3	102.58779
169	0x420d4d93	35.325756
170	0x43aff1d4	351.88928
171	0x431e033b	158.01262
172	0x41d552a8	26.66536
173	0x42a00aa9	80.02082
174	0x422060b5	40.09444
175	0x438d48c6	282.56854
176	0x4273a3c5	60.90993
177	0x42cd66a2	102.700455
178	0x42f75a90	123.67688
179	0x42a6ac24	83.33621
180	0x424881ec	50.126877
181	0x4300729c	128.4477
182	0x42258205	41.376972
183	0x43019265	129.57185
184	0x42d50040	106.50049
185	0x425f90b3	55.891308
186	0x429694c6	75.29057
187	0x42a78863	83.76638
188	0x4245d399	49.45664
189	0x42c4086f	98.01647
190	0x42c8fb55	100.49088
191	0x4348e268	200.8844
192	0x42e49abc	114.302216
193	0x42bfb4f1	95.8534
194	0x42dfaf86	111.84282
195	0x432771a6	167.44394
196	0x43aaa3d3	341.27988
197	0x41db18da	27.387135
198	0x4283c16f	65.8778
199	0x42dad221	109.41041
200	0x4284bd99	66.37031
201	0x4331ae3d	177.68062
202	0x438286f0	261.0542
203	0x42fcc8a2	126.39186
204	0x438b5141	278.6348
205	0x42d54f75	106.65519
206	0x43316ba1	177.42043
207	0x4300b988	128.72473
208	0x434c808a	204.5021
209	0x42301295	44.018147
210	0x42580def	54.013607
211	0x4303e18d	131.88106
212	0x43d2bc14	421.46936
213	0x429d15dc	78.542694
214	0x438bc0cb	279.5062
215	0x42ab29a3	85.58132
216	0x43595f14	217.3714
217	0x42d20590	105.010864
218	0x425fd69f	55.95959
219	0x437afd8f	250.99046
220	0x42e272d4	113.22427
221	0x428d3a2b	70.61361
222	0x43998f73	307.1207
223	0x42cb76d6	101.7321
224	0x4368a8eb	232.65984
225	0x430a0b39	138.04384
226	0x4302dff1	130.87477
227	0x42b2ac5d	89.33665
228	0x41c18666	24.190624
229	0x4342e5ba	194.89737
230	0x42f97772	124.73329
231	0x432ec66c	174.77509
232	0x431f4158	159.25525
233	0x422058f4	40.08687
234	0x431c6f09	156.43373
235	0x4310fbb4	144.98322
236	0x43191432	153.07889
237	0x43c53bbc	394.46667
238	0x436cc765	236.77888
239	0x42a43dc4	82.120636
240	0x42c5a0dd	98.814186
241	0x42fcce0b	126.40243
242	0x426e7761	59.61658
243	0x432d9430	173.57886
244	0x4281a5e9	64.82404
245	0x43cc3e66	408.4875
246	0x424c3ddc	51.06041
247	0x42b2c074	89.375885
248	0x42d12f64	104.59256
249	0x4230eb2c	44.22966
250	0x434796f0	199.5896
251	0x4262cceb	56.700115
252	0x43a3f45c	327.90906
253	0x425acab0	54.697937
254	0x42ec3e92	118.12221
255	0x42474b20	49.823364

fc2.weight f4 [300, 400]
0	0xbe2386f9	-0.15969457
1	0x3cdab11b	0.026695779
2	0x3e6a5404	0.22883612
3	0xbe02d6af	-0.12777208
4	0xbdfa5729	-0.12223656
5	0xbe6a746f	-0.22895978
6	0xbf1f68c5	-0.6226924
7	0xbe25b562	-0.16182473
8	0x3dbe50c6	0.0929275
9	0xbde195f7	-0.11014932
10	0xbe4ff101	-0.2030678
11	0xbe9784b3	-0.2959343
12	0xbf06f081	-0.5271073
13	0xbe4ca197	-0.19983517
14	0xbe8110df	-0.25208184
15	0x3e2656c3	0.16244034
16	0x3d67107c	0.056412205
17	0xbd2961a8	-0.041352898
18	0xbe0dc233	-0.13843612
19	0xbe06cf91	-0.13165118
20	0xbca2c8c7	-0.019871129
21	0xbeecf6f2	-0.46282154
22	0xbc831fe1	-0.016006412
23	0xbeb56053	-0.35425052
24	0xbe9d6e6e	-0.30748314
25	0xbe6575c6	-0.22408208
26	0xbdfa5aa3	-0.12224319
27	0xbcaddcbf	-0.021223424
28	0xbd4c321a	-0.049852468
29	0xbd9b23b6	-0.07575171
30	0xbea2db95	-0.31808153
31	0xbf05552b	-0.5208308
32	0xbe28d609	-0.16487898
33	0xbe82f99b	-0.2558106
34	0x3e41601d	0.1888432
35	0x3e4c193f	0.19931506
36	0xbd9b493b	-0.07582327
37	0x3bc3bfd0	0.0059737936
38	0xbd63600a	-0.05551151
39	0xbef9bb9c	-0.48775947
40	0x3ed6e8d7	0.41974518
41	0xbed09f47	-0.4074652
42	0xbd8f4755	-0.069960274
43	0xbf04435f	-0.516653
44	0xbe08800f	-0.133301
45	0xbd1c2c7f	-0.038128372
46	0x3df1c7f9	0.1180572
47	0xbe960f76	-0.2930867
48	0xbdd3c31e	-0.1033995
49	0xbc26d5c5	-0.010182803
50	0xbebb68df	-0.36603448
51	0xbdc39a02	-0.09550859
52	0xbf24943f	-0.64288706
53	0xbf33913e	-0.70143497
54	0x3d819aa4	0.063283235
55	0x3d63c97b	0.05561207
56	0xbf0042bd	-0.50101835
57	0x3daf20d9	0.08551187
58	0xbd35b50d	-0.044362117
59	0x3d9d21fe	0.07672499
60	0xbe6b8ddb	-0.23003332
61	0xbe1b33f3	-0.15156536
62	0xbe3a32f7	-0.18183504
63	0x3e976788	0.29571176
64	0xbebb5cb5	-0.36594167
65	0xbe0acfd6	-0.13555846
66	0x3cd8c536	0.026461225
67	0xbe436d1a	-0.19084588
68	0x3e43f764	0.19137341
69	0xbcb90ea2	-0.022589985
70	0xbeb68305	-0.35646835
71	0xbeba1319	-0.36342695
72	0xbee723f7	-0.45144626
73	0xbdadcec2	-0.084867015
74	0xbdd594e7	-0.104287915
75	0xbe56ff1a	-0.20995751
76	0xbd3e761c	-0.046499357
77	0xbc884c71	-0.016638013
78	0xbe1f2ff1	-0.15545632
79	0xbd0136c8	-0.031546384
80	0xbe40f622	-0.18843892
81	0xbdf86f81	-0.12130643
82	0xbe96a415	-0.2942206
83	0xbe277ad5	-0.1635545
84	0xbe9810b3	-0.2970024
85	0x3e95b929	0.29242828
86	0xbea38d99	-0.31943968
87	0xbd386dc6	-0.045026563
88	0xbe36a1f5	-0.17835219
89	0xbbb444f3	-0.0055013834
90	0xbf385cee	-0.720168
91	0xbee4fc3c	-0.4472369
92	0xbd5508bd	-0.052010287
93	0xbee3c042	-0.4448262
94	0xbe9f8c06	-0.31161517
95	0x3e80732f	0.25087878
96	0xbdf003b8	-0.11719459
97	0x3dc79bfb	0.09746548
98	0x3cd49948	0.025951996
99	0x3e697c88	0.22801411
100	0xbe387356	-0.18012747
101	0xbede0c81	-0.43368915
102	0xbea47cbb	-0.32126412
103	0xbd7fd32b	-0.062457245
104	0xbe4a8d33	-0.19780426
105	0xbcd8db2c	-0.026471697
106	0x3c84fa16	0.016232532
107	0xbe99d7ee	-0.30047554
108	0x3da1858b	0.078867994
109	0xbeafde7a	-0.34349424
110	0xbe830e68	-0.2559693
111	0xbe871ec0	-0.26390648
112	0xbe950b6b	-0.29110274
113	0xbf05b840	-0.5223427
114	0x3c51efb2	0.0128134955
115	0xbd9e26cc	-0.07722244
116	0xbe66214c	-0.22473639
117	0x3ead6eb5	0.33873525
118	0xbddb7ac1	-0.10716773
119	0xbd1059b1	-0.035241786
120	0x3e462ced	0.19353075
121	0xbe9dda79	-0.30830744
122	0xbf0a5881	-0.54041296
123	0xbe572970	-0.21011901
124	0x3d952676	0.072827265
125	0xbe1dde70	-0.15416884
126	0xbe85c2f8	-0.26125312
127	0x3d88cecf	0.066800706
128	0xbf0e2067	-0.5551819
129	0x3e5aee16	0.21379885
130	0xbe400c27	-0.18754636
131	0xbdf019c5	-0.11723665
132	0xbe064da0	-0.13115549
133	0xbe8bb21c	-0.27284324
134	0x3c9eb6f7	0.019374354
135	0x39f8a05f	0.00047421732
136	0x3ebc8085	0.36816803
137	0xbd02c21d	-0.031923402
138	0xbb764f9e	-0.0037584077
139	0xbcc0bb25	-0.023526737
140	0xbea9e146	-0.33179682
141	0x3e594fe1	0.21221878
142	0xbea1ab53	-0.31576023
143	0xbea1739d	-0.31533518
144	0xbce5d6cf	-0.02805653
145	0xbe536d3f	-0.20647143
146	0xbd7a660a	-0.06113247
147	0xbef7e749	-0.48418644
148	0x3e04042b	0.12892215
149	0x3e681d91	0.22667529
150	0xbcf67be6	-0.030088376
151	0x3ca2771f	0.019832192
152	0xbe1d5b1a	-0.15366784
153	0x3ccd04e1	0.02502674
154	0xbc38dd98	-0.011283301
155	0xbdf6ff74	-0.120604426
156	0xbd105aec	-0.03524296
157	0x3e6d8ba6	0.23197803
158	0xbe9be387	-0.30447027
159	0xbe84a708	-0.25908685
160	0xbe3d5c77	-0.18492304
161	0xbebf8ad1	-0.37410596
162	0xbe99b479	-0.30020502
163	0xbe697158	-0.22797143
164	0x3c9e2888	0.019306436
165	0xbdf8b6c1	-0.121442325
166	0xbde5f09a	-0.11227532
167	0xbc984841	-0.01858914
168	0xbe784922	-0.24246648
169	0xbe8c5989	-0.2741206
170	0xbda4a134	-0.080385596
171	0xbe25b6d4	-0.16183025
172	0x3e2c6ea2	0.16839078
173	0xbe63472f	-0.22195123
174	0xbf215d0f	-0.6303262
175	0x3d6912f0	0.056902826
176	0xbdd71b7d	-0.1050329
177	0x3e85cc12	0.26132256
178	0xbe9267a4	-0.28594697
179	0x3d041432	0.032245822
180	0x3c6e620b	0.014549742
181	0xbe9bcb2a	-0.3042844
182	0xbcb6324a	-0.022240777
183	0xbef8e14e	-0.48609394
184	0xbea695e8	-0.32536244
185	0xbe0637ec	-0.1310727
186	0xbe4cc50a	-0.1999704
187	0xbd1a6955	-0.03769811
188	0xbe1a6d9c	-0.15080875
189	0xbe82f2c3	-0.25575837
190	0xbe22ac40	-0.1588602
191	0xbe501570	-0.20320678
192	0xbd87e6c3	-0.06635811
193	0x3e0c3752	0.13692978
194	0xbeff5a53	-0.498736
195	0xbe399d1d	-0.1812634
196	0xbe9843d3	-0.29739246
197	0xbf1058ab	-0.56385297
198	0xbd5cc826	-0.053901814
199	0x3c447e2a	0.0119929705
200	0xbed4cc60	-0.41562176
201	0xbebec210	-0.37257433
202	0x3d04f334	0.0324585
203	0xbeb10d2b	-0.3458036
204	0xbe32f315	-0.17475541
205	0xbce11385	-0.027475128
206	0xbc432fb4	-0.011913229
207	0xbd9d076e	-0.07667433
208	0xbe3056f7	-0.17220674
209	0xbe18d444	-0.14924723
210	0x3e216dab	0.15764491
211	0xbe59dc88	-0.21275532
212	0xbeddb24c	-0.43300092
213	0xbeedd0ab	-0.46448264
214	0xbf021722	-0.5081655
215	0xbed0d922	-0.4079066
216	0xbf0b0501	-0.5430451
217	0xbe790b17	-0.24320637
218	0xbe105e23	-0.1409841
219	0xbe47c070	-0.19507003
220	0x3d7d92e7	0.061907675
221	0xbe895e05	-0.26829544
222	0xbe2ce24b	-0.16883199
223	0xbd5b9d0c	-0.05361657
224	0xbc9b33d7	-0.018945618
225	0xbec76d4a	-0.38950568
226	0xbd35e789	-0.044410262
227	0xbd8ec6cd	-0.06971512
228	0xbd48f59a	-0.04906235
229	0xbeb66695	-0.3562514
230	0xbe87062c	-0.26371896
231	0x3c95d809	0.01829149
232	0x3df5eab4	0.12007657
233	0x3d458252	0.048219986
234	0x3dd54e60	0.104153395
235	0xbdd1d620	-0.10245919
236	0x3dcc5e94	0.09978977
237	0xbf2c9261	-0.67410856
238	0xbde30504	-0.11084941
239	0xbd5c0186	-0.05371239
240	0x3d9e6792	0.07734598
241	0xbec1846b	-0.3779634
242	0xbdccb592	-0.09995569
243	0x3dbcfa02	0.09227373
244	0xbe10f31d	-0.1415524
245	0xbf038a5c	-0.51382995
246	0x3e36a7ce	0.1783745
247	0x3db911e5	0.09036616
248	0xbee75c1b	-0.45187458
249	0xbe995a59	-0.29951742
250	0xbc03eb0a	-0.008051643
251	0xbe4bc3bb	-0.19898884
252	0xbd08e940	-0.03342557
253	0x3e3bb5a5	0.1833101
254	0x3d85c747	0.0653215
255	0xbf043e57	-0.51657623
