project_2-Continuous_Control/critic.pth (torch_old, 549768 bytes, 9 tensors)

fc1.weight f4 [400, 33]
0.3417882 -1.2143058 1.2700981 -0.135778 0.21628255 1.3773825 -0.36783543 1.8490677
-1.266418 -2.3499613 -0.041917372 -0.0009632583 -0.40884602 0.11969616 1.4105762 -0.010200299
0.29300752 1.3598976 2.5290709 -2.6516483 -1.6747191 0.7597578 1.4355967 -0.014050471
0.90976715 0.012875748 -0.004637709 0.026578948 -0.9034992 0.018859606 -0.0347499 0.015230153
-2.582432 1.6081709 -0.8794606 -1.4540514 -0.36659685 -0.00020985547 -0.08367027 0.3665761
-0.03723259 1.51012 1.8172548 -0.033359647 -0.39958653 -0.27172357 -1.2574958 0.1835022
1.5106122 0.12362411 0.26339978 0.21711165 -0.30545303 0.013059446 0.2884839 -0.18749493
-0.4661099 0.014977695 0.44521996 0.49133557 -0.009313092 -1.0529586 -0.022063881 -0.019014657
0.04709514 -4.0277796 1.6048368 -0.081214555 -0.92434454 0.8382756 1.0732979 -1.0480306
-1.6676614 0.043758415 -0.48777384 1.1440257 0.49578863 0.56882215 0.56899905 -1.1859729
-0.95594966 1.0854013 -1.5791 0.8234248 -0.8147966 1.7345861 -0.23517825 -0.38056627
-0.9216521 -1.0408531 -0.6425894 0.2804011 0.90701795 0.013566637 -0.060573757 0.009961344
0.028576937 -0.03622645 3.116287 0.108073294 -0.4658021 0.58571225 0.33409107 -2.307165
-0.67012393 0.15056692 0.29084966 1.4823545 -0.3690992 -0.1174115 -0.0571637 -0.14165819
1.2650623 -0.101542 0.523651 -1.2516834 0.046315182 -2.1924965 1.9488306 -0.042199902
-0.061113212 -0.019194406 1.3031616 -0.2539195 0.5193474 -2.2330215 0.021642843 -1.4921527
-0.016846754 0.046056777 -0.011744641 -0.55232316 0.9476177 -0.6995962 -0.46434706 -0.64912134
0.25294596 -1.4599948 -1.2855934 0.121760845 -0.21889022 -0.11683763 -0.32912573 0.35392007
0.90071887 -2.597795 1.2839695 0.26682657 -1.1792287 -1.4856738 0.43669292 -1.1706431
-0.09746056 -0.27833018 0.1029192 -0.9323884 0.629454 -0.3580262 -0.77231073 -0.028864644
0.8242284 0.008769434 -0.01013109 -0.017129146 -1.3238714 0.011354481 0.8969486 0.86638916
0.8651018 -1.768367 1.1921052 -0.11374066 0.30167824 -0.9006665 1.7740878 0.34961957
-0.018008592 -0.12777759 0.23212297 -0.479784 0.310887 -0.009391576 0.97100383 2.2793407
2.199809 0.2560395 -0.040209584 -0.22974606 0.7390819 -0.4497986 -0.05323729 -0.4451173
0.03975881 -0.20968242 0.038334835 -0.0052417535 0.03429221 -9.0741005 -1.6093903 0.96385235
1.1371511 -0.77457696 -1.4999017 -1.097404 0.17967995 -1.0301803 -2.1450934 -0.44257995
-1.4400394 0.2640583 0.7581058 1.2377433 0.794447 0.13231988 0.3858494 0.4971208
0.5938053 -1.6124569 0.2028251 0.0026788702 0.08915373 1.4660361 -0.18431443 0.9027996
0.15010697 0.047878966 -0.5680874 0.01482043 0.022847973 -0.027319385 4.7165017 -1.3111727
-0.097089544 1.7146451 -1.3441385 0.21189149 -1.0817035 -0.27529162 0.073922284 -1.3814305
4.6192646 -0.830136 -0.26127708 0.3716809 0.44812572 0.5094957 -0.24092135 1.1232831
-0.3705703 0.61625445 0.37674072 1.063561 -0.9305428 -0.5986091 0.671615 0.560594
00000000: ddfe ae3e 5f6e 9bbf 9392 a23f 6309 0bbe
00000010: 2c79 5d3e 124e b03f ed54 bcbe 40ae ec3f
00000020: fc19 a2bf c465 16c0 8db1 2bbd 2c83 7cba
00000030: 4454 d1be 4323 f53d c38d b43f 281f 27bc
00000040: 1505 963e 2011 ae3f 4cdc 2140 9bb4 29c0
00000050: 325d d6bf 7d7f 423f a2c1 b73f f233 66bc
00000060: 80e6 683f cdf4 523c ecf7 97bb 18bc d93c
00000070: b94b 67bf 767f 9a3c e955 0ebd e487 793c
00000080: 9146 25c0 8bd8 cd3f 5424 61bf 5b1e babf
00000090: 95b2 bbbe a60c 5cb9 525b abbd ddaf bb3e
000000a0: 3381 18bd 9d4b c13f ce9b e83f 20a4 08bd
000000b0: 9b96 ccbe 5a1f 8bbe 9ff5 a0bf 00e8 3b3e
000000c0: be5b c13f a32e fd3d 56dc 863e 8452 5e3e
000000d0: 5764 9cbe 49f7 553c 29b4 933e acfe 3fbe
000000e0: f5a5 eebe 0265 753c dff3 e33e 5690 fb3e
000000f0: f095 18bc 59c7 86bf 50bf b4bc a0c4 9bbc
00000100: d5e6 403d 92e3 80c0 4b6b cd3f d153 a6bd
00000110: d8a1 6cbf 3b99 563f d361 893f de25 86bf
00000120: ee75 d5bf 063c 333d 7ebd f9be 6f6f 923f
00000130: 02d8 fd3e 549e 113f eca9 113f f6cd 97bf
00000140: 1eb9 74bf 6eee 8a3f f31f cabf f8cb 523f
00000150: 8396 50bf eb06 de3f 91d2 70be 95d9 c2be
00000160: 64f1 6bbf ad3a 85bf bd80 24bf bc90 8f3e
00000170: 5432 683f 9a46 5e3c 301c 78bd e834 233c
00000180: 2e1a ea3c 3062 14bd 3f71 4740 8855 dd3d
00000190: 9d7d eebe 3df1 153f fc0d ab3e 97a8 13c0
000001a0: 3e8d 2bbf 372e 1a3e 3fea 943e cbbd bd3f
000001b0: 92fa bcbe 7175 f0bd 7c24 6abd d80e 11be
000001c0: 90ed a13f 41f5 cfbd fe0d 063f 2937 a0bf
000001d0: fdb4 3d3d dd51 0cc0 4873 f93f ced9 2cbd
000001e0: d951 7abd 963d 9dbc 00ce a63f bd01 82be
000001f0: f4f3 043f d3e9 0ec0 554c b13c dcfe bebf
00000200: 3402 8abc 08a6 3c3d 986c 40bc 0d65 0dbf
00000210: 1397 723f bd18 33bf e6be edbe d12c 26bf
00000220: 2282 813e 1ce1 babf 538e a4bf c05d f93d
00000230: c224 60be 9148 efbd 2b83 a8be 0335 b53e
00000240: 8395 663f 4642 26c0 1d59 a43f 7e9d 883e
00000250: f7f0 96bf 8f2a bebf 3796 df3e a2d7 95bf
00000260: 6799 c7bd 4b81 8ebe 4dc7 d23d 02b1 6ebf
00000270: e623 213f 364f b7be 28b6 45bf 8c75 ecbc
00000280: a200 533f acad 0f3c dffc 25bc 6c52 8cbc
00000290: 9e74 a9bf 2508 3a3c 6c9e 653f aecb 5d3f
000002a0: 5077 5d3f da59 e2bf e796 983f ddf0 e8bd
000002b0: 9275 9a3e 1492 66bf 4f15 e33f 5601 b33e
000002c0: c186 93bc 21d8 02be a5b1 6d3e 40a6 f5be
000002d0: 952c 9f3e 20df 19bc b593 783f b8e0 1140
000002e0: acc9 0c40 9c17 833e ceb2 24bd 8d42 6bbe
000002f0: 7934 3d3f 014c e6be 580f 5abd 6ae6 e3be
00000300: 22da 223d fdb6 56be fd04 1d3d 04c3 abbb
00000310: fd75 0c3d 842f 11c1 8000 cebf 07bf 763f
00000320: 2b8e 913f ad4a 46bf c7fc bfbf bc77 8cbf
00000330: 05fe 373e f3dc 83bf 3649 09c0 d799 e2be
00000340: 3653 b8bf a632 873e 3913 423f 5f6e 9e3f
00000350: e160 4b3f dd7e 073e 0d8e c53e 9e86 fe3e
00000360: a003 183f fd64 cebf 62b1 4f3e fc8f 2f3b
00000370: 3b96 b63d 12a7 bb3f ecbc 3cbe e01d 673f
00000380: a4b5 193e bc1c 443d 2d6e 11bf 64d1 723c
00000390: ac2b bb3c e7cc dfbc 95ed 9640 82d4 a7bf
000003a0: e2d6 c6bd 7e79 db3f bb0c acbf 15fa 583e
000003b0: 4375 8abf 06f3 8cbe 9164 973d b7d2 b0bf
000003c0: 04d1 9340 cb83 54bf 1cc6 85be f54c be3e
000003d0: bc70 e53e 4f6e 023f 16b4 76be bec7 8f3f
000003e0: 64bb bdbe dac2 1d3f 29e4 c03e c422 883f
000003f0: 0e38 6ebf 723e 19bf f6ee 2b3f 1783 0f3f

fc1.bias f4 [400]
-0.080800146 -0.075709894 0.16950086 0.027720163 -0.14788385 -0.154693 -0.1497468 -0.12611823
-0.1051129 -0.09173136 0.12974057 -0.07199985 0.15997739 -0.03970494 -0.14145966 -0.06355296
-0.07773645 -0.119899 -0.1626282 0.00608812 -0.13493238 -0.050026808 -0.046051517 -0.100550994
-0.0059863646 -0.13489644 -0.056773487 0.15377758 0.16138095 0.014522811 0.04055407 0.1544476
0.16660279 -0.082056396 0.027572935 -0.03420058 -0.119837314 0.15478802 0.13850641 0.007818907
0.14391534 0.047289345 0.1152045 0.07422235 0.08263288 0.061812185 0.08741564 0.15286866
0.06728681 -0.11090885 0.06339772 0.17379682 0.14427632 0.10965868 -0.06638165 0.17163755
0.03215643 -0.094311394 -0.0063965353 0.12629957 -0.15945289 -0.039814807 0.13207492 -0.049434826
-0.07033392 -0.04701495 0.057773083 -0.13419959 0.02277833 0.044535533 0.046230663 -0.0037390022
0.08585956 -0.010364459 0.13479884 0.11468098 -0.120595984 -0.033780962 0.13585967 -0.017747408
-0.053106643 -0.011127363 -0.038815513 -0.060705785 0.038401697 0.14646451 0.02543711 0.097661644
0.13437723 -0.113048345 -0.123591505 -0.02577425 0.05212194 -0.021593397 -0.08154669 -0.119107105
0.0050191744 0.12890078 0.0075577255 0.16332838 -0.08251004 0.16182326 -0.11244434 0.13836774
0.01934539 0.17340578 0.16598643 -0.059100773 -0.012733052 -0.047489747 0.038984668 -0.08558377
-0.04025048 -0.10618745 0.105722405 0.13732317 0.018898403 -0.004632607 -0.12971751 -0.1592926
-0.13706651 -0.12873146 -0.14346246 0.08146981 -0.1327398 0.08360488 0.11643744 -0.0006871077
0.04132603 0.10857595 -0.15784506 0.15076955 0.17177136 0.1656444 -0.0675085 0.10641342
-0.06389316 0.027109453 0.14535984 0.036589794 0.06352628 -0.04576941 -0.08262912 0.14198625
-0.1569264 0.030654592 -0.01623674 -0.048922535 -0.16989146 -0.1033552 -0.09928329 0.026053568
0.06788649 -0.15814707 -0.06693016 -0.1660957 0.11886132 -0.15987071 -0.023225544 -0.025476422
-0.095657766 0.12541617 0.07557262 0.090551175 0.12294732 -0.08690228 0.08409485 0.14086595
-0.039945964 -0.014106277 0.016799565 -0.1710562 -0.018175514 -0.02083408 -0.12358686 0.12759873
-0.15318505 -0.06983387 0.102512136 0.027389798 0.070425496 0.0075537018 -0.16133767 -0.12491986
-0.058787737 -0.11724892 -0.108524285 -0.03427835 0.15471199 0.13467073 0.035051376 -0.111576796
-0.105271675 0.17030258 0.021198325 0.019138576 -0.0985933 -0.08892994 0.08531784 -0.014707968
-0.018288895 -0.08603343 -0.12934215 -0.1116635 -0.1716271 0.15920068 0.024894563 0.019943211
0.13055812 0.08686522 -0.025573686 0.10775911 0.0023935027 -0.16938725 0.14164673 -0.10287157
-0.13154124 -0.04022279 0.04276904 0.137368 -0.17209777 -0.16235352 -0.11554794 -0.10156176
0.1711117 -0.0027556552 0.12632716 0.04938405 0.10219013 -0.0905757 0.076108 0.06404287
0.059877228 -0.13105921 -0.059684794 0.1479943 -0.038284786 -0.11823758 -0.1469875 -0.035200275
0.080365844 -0.051820338 0.12420819 0.07426569 -0.13961063 0.002040136 0.1589236 0.108224206
-0.06238008 -0.12929477 0.045255773 0.08353472 -0.03601335 -0.1480815 0.16840512 0.08558134
00000000: 8c7a a5bd ca0d 9bbd a291 2d3e 6515 e33c
00000010: dd6e 17be d767 1ebe 3a57 19be 2325 01be
00000020: 6f45 d7bd a7dd bbbd b6da 043e a874 93bd
00000030: 1dd1 233e a6a1 22bd cdda 10be 0e28 82bd
00000040: 4a34 9fbd 9b8d f5bd 0288 26be da7e c73b
00000050: b72b 0abe e9e8 4cbd 84a0 3cbd aeed cdbd
00000060: 4429 c4bb 4b22 0abe 518b 68bd df77 1d3e
00000070: 0c41 253e 16f1 6d3c 061c 263d 8327 1e3e
00000080: ec99 2a3e 2f0d a8bd a3e0 e13c e815 0cbd
00000090: 446d f5bd c080 1e3e a0d4 0d3e df1a 003c
000000a0: 8b5e 133e 79b2 413d 56f0 eb3d e301 983d
000000b0: 6d3b a93d c62e 7d3d f906 b33d 9a89 1c3e
000000c0: abcd 893d 2e24 e3bd aad6 813d cbf7 313e
000000d0: 2cbd 133e bb94 e03d 1af3 87bd c1c1 2f3e
000000e0: 76b6 033d 5526 c1bd 079a d1bb ad54 013e
000000f0: 9e47 23be da14 23bd a63e 073e 2c7c 4abd
00000100: 3b0b 90bd c092 40bd 78a3 6c3d 9e6b 09be
00000110: 9f99 ba3c e46a 363d 5d5c 3d3d 0c0a 75bb
00000120: 23d7 af3d b1cf 29bc b508 0a3e dddd ea3d
00000130: 07fb f6bd e85d 0abd cc1e 0b3e 0363 91bc
00000140: 5a86 59bd 8b4f 36bc 04fd 1ebd a1a6 78bd
00000150: 194b 1d3d cbfa 153e 7c61 d03c d402 c83d
00000160: 2f9a 093e e485 e7bd 8b1d fdbd 8524 d3bc
00000170: d17d 553d a3e4 b0bc f301 a7bd 6dee f3bd
00000180: e377 a43b 91fe 033e cca6 f73b 8e3f 273e
00000190: 06fb a8bd ffb4 253e 3849 e6bd 46b0 0d3e
000001a0: 397a 9e3c 4991 313e 59f8 293e a713 72bd
000001b0: 4a9e 50bc 9c84 42bd 63ae 1f3d 8b46 afbd
000001c0: b0dd 24bd ce78 d9bd fd84 d83d 729e 0c3e
000001d0: d3d0 9a3c 20cd 97bb abd4 04be 991d 23be
000001e0: 2a5b 0cbe 2ed2 03be d3e7 12be a5d9 a63d
000001f0: f1ec 07be 0939 ab3d c176 ee3d 041f 34ba
00000200: 7c45 293d 115d de3d 23a2 21be 5563 1a3e
00000210: d5e4 2f3e b09e 293e e541 8abd 47ef d93d
00000220: 6bda 82bd a514 de3c 36d9 143e 2edf 153d
00000230: 111a 823d b478 3bbd 7539 a9bd d864 113e
00000240: 50b1 20be 571f fb3c e902 85bc ff62 48bd
00000250: 07f8 2dbe e4ab d3bd 0a55 cbbd 4b6e d53c
00000260: 1208 8b3d 4ef1 21be ae12 89bd fe14 2abe
00000270: 906d f33d 26b5 23be 7f43 bebc eeb3 d0bc
00000280: 38e8 c3bd 196d 003e d1c5 9a3d e572 b93d
00000290: cecb fb3d d3f9 b1bd ec39 ac3d 2a3f 103e
000002a0: 619e 23bd 041e 67bc 3e9f 893c 5b29 2fbe
000002b0: d1e4 94bc 3cac aabc 1c1b fdbd 3ea9 023e
000002c0: 8bdc 1cbe 0f05 8fbd e2f1 d13d 9260 e03c
000002d0: 3e3b 903d 0b85 f73b b435 25be fcd5 ffbd
000002e0: 69cb 70bd 3420 f0bd fb41 debd 7567 0cbd
000002f0: d26c 1e3e 20e7 093e 0892 0f3d 6082 e4bd
00000300: ad98 d7bd cd63 2e3e 1ca8 ad3c 81c8 9c3c
00000310: 49eb c9bd e620 b6bd 1fbb ae3d b0f9 70bc
00000320: 98d2 95bc 4c32 b0bd 4572 04be d5af e4bd
00000330: 04bf 2fbe 8105 233e afef cb3c f25f a33c
00000340: 07b1 053e 64e6 b13d e87f d1bc cfb0 dc3d
00000350: 50dc 1c3b da73 2dbe d70b 113e 54ae d2bd
00000360: bfb2 06be a7c0 24bd 972e 2f3d 32aa 0c3e
00000370: 663a 30be 0040 26be 66a4 ecbd 9dff cfbd
00000380: e837 2f3e 3998 34bb e85b 013e ee46 4a3d
00000390: 0f49 d13d c17f b9bd 83de 9b3d e928 833d
000003a0: d341 753d 6334 06be 0b78 74bd d18b 173e
000003b0: 82d0 1cbd 8b26 f2bd e483 16be 2a2e 10bd
000003c0: d996 a43d 9041 54bd dd60 fe3d 9c18 983d
000003d0: 17f6 0ebe cdb3 053b debc 223e a7a4 dd3d
000003e0: 4182 7fbd d965 04be 1e5e 393d 4014 ab3d
000003f0: bc82 13bd ada2 17be 6472 2c3e 4545 af3d

bn1.weight f4 [400]
0.4021371 0.5995259 0.3703998 0.79780936 0.78055584 0.45000246 0.36336985 0.56619513
0.4966101 0.66756207 0.4338019 0.7151411 0.38790515 0.38475108 0.3451462 0.43293163
0.5573695 0.808519 0.51152146 0.34657142 0.9520247 0.27280566 0.51514876 0.3605821
0.4893292 0.8893384 0.7809462 0.8278479 0.67415386 0.6049813 0.7752702 0.73606235
0.3617889 0.5674387 0.39921936 0.66807604 0.5716532 0.4932372 1.6812966 0.417989
0.6070864 1.0943817 0.65786463 0.5268227 0.59586203 0.60029507 0.40217727 0.59635806
0.76069164 0.39964622 0.55692 0.56654364 0.714266 0.37777475 0.5338899 0.81392294
0.583944 0.27407426 0.5550807 0.5589134 0.6203369 0.633555 1.1125103 0.49195367
0.54604775 0.5793657 0.5561445 0.5214283 0.74544007 0.75373805 0.6117189 0.77467746
0.68754375 0.6315961 0.49241114 0.41666082 0.57864344 0.57581747 0.5032242 0.71329045
0.7286779 0.6990727 0.934883 0.4061985 0.50198793 0.8391171 0.6389993 0.49707854
0.43915838 0.37160543 0.74819016 0.4159422 0.5248889 0.56024235 0.581715 0.5010612
0.5188128 0.6377684 0.57016134 0.8995706 0.27446705 0.3863505 0.23782004 0.6109539
0.419097 0.72569513 0.67733765 0.7360135 0.36430198 0.6249292 0.6898443 0.6508863
0.37221384 0.3528954 0.6454833 0.49749804 0.6423669 0.7435327 1.0405673 0.76430666
1.3757882 0.8636892 0.55268127 0.35112926 0.40594742 0.5173535 0.2644365 0.46944335
0.7718049 0.73572266 0.49664062 0.2639315 0.5867403 0.25260958 0.8163203 0.72960615
0.7531433 0.44335368 0.7093662 0.60247064 0.41230282 0.6275659 0.6128715 0.49134627
0.69909805 0.3450694 0.9824789 1.0197486 0.47072783 0.4261495 0.53924876 0.60648614
0.65489113 0.475684 0.63644415 0.41294485 0.3826684 0.32607448 0.4884444 1.0271257
0.5636019 0.66146946 0.83365005 0.7083961 0.18673155 0.4479654 0.4367494 0.43661138
0.6080527 0.67492646 0.5779393 0.50095016 0.6219838 0.26762837 1.434189 0.31071812
0.41942614 0.65846425 0.39406487 0.31748733 0.30758405 0.29718137 0.5706316 0.5907586
1.0424459 0.5171399 0.48402143 2.888075 0.76137996 0.5399075 0.39348212 0.55823964
0.54466957 0.35470793 0.47552902 0.8293171 0.63133174 0.48833483 0.49471232 0.5025966
0.66460836 0.47867486 0.4880639 0.7482361 0.47954217 0.46617082 0.6448178 1.5232334
0.50271535 0.6964367 0.48051846 0.4049444 0.37112522 0.60429335 0.55391306 0.47700265
0.52158105 1.110066 0.706791 0.47424564 0.6152331 0.30002758 0.34484935 0.4704558
0.36686814 0.5672102 0.5255106 0.64020497 0.5841034 0.69146335 0.54049194 0.84071
0.31948018 0.50771123 0.7350193 0.4467462 0.37878463 2.5945425 0.34073383 0.8225115
0.518132 0.5655764 0.81495833 0.493233 0.615834 0.54336613 0.47308898 0.6469986
0.3318507 0.45902708 0.4636671 0.36302164 0.70515615 0.46213406 0.3568656 1.1046964
00000000: eae4 cd3e 887a 193f 0ba5 bd3e 3c3d 4c3f
00000010: 82d2 473f b966 e63e 9d0b ba3e 2af2 103f
00000020: ae43 fe3e 59e5 2a3f 481b de3e 7d13 373f
00000030: 819b c63e 18fe c43e 01b7 b03e 37a9 dd3e
00000040: c4af 0e3f 1afb 4e3f 12f3 023f cf71 b13e
00000050: e4b7 733f 2fad 8b3e cae0 033f 389e b83e
00000060: 5b89 fa3e aeab 633f 17ec 473f d7ed 533f
00000070: 5995 2c3f 0ee0 1a3f 1c78 463f 956e 3c3f
00000080: 653c b93e aa43 113f 7b66 cc3e 0807 2b3f
00000090: dd57 123f 9689 fc3e ba34 d73f a702 d63e
000000a0: 046a 1b3f b314 8c3f d169 283f dadd 063f
000000b0: 6a8a 183f f0ac 193f 2eea cd3e ecaa 183f
000000c0: b0bc 423f 6e9e cc3e 4f92 0e3f 0109 113f
000000d0: 23da 363f b16b c13e 02ad 083f 415d 503f
000000e0: 5b7d 153f 7653 8c3e c519 0e3f f314 0f3f
000000f0: 66ce 1e3f a930 223f bd66 8e3f 5ae1 fb3e
00000100: c9c9 0b3f 4f51 143f 7c5f 0e3f 537c 053f
00000110: 29d5 3e3f faf4 403f 9c99 1c3f 4351 463f
00000120: de02 303f 48b0 213f 501d fc3e 9154 d53e
00000130: fa21 143f c668 133f 4dd3 003f 349a 363f
00000140: a38a 3a3f 6ef6 323f 7e54 6f3f 40f9 cf3e
00000150: 4882 003f 61d0 563f 7595 233f 1481 fe3e
00000160: 5ed9 e03e 1143 be3e 6489 3f3f 60f6 d43e
00000170: 1e5f 063f 0b6c 0f3f 46eb 143f 8c45 003f
00000180: ead0 043f ca44 233f 18f6 113f 424a 663f
00000190: f286 8c3e bccf c53e 1987 733e 7a67 1c3f
000001a0: e293 d63e 28c7 393f 0066 2d3f 616b 3c3f
000001b0: ca85 ba3e 5cfb 1f3f a399 303f 7ca0 263f
000001c0: d092 be3e b5ae b43e 653e 253f 10b8 fe3e
000001d0: 2872 243f 2958 3e3f 4f31 853f 9aa9 433f
000001e0: d419 b03f bc1a 5d3f 857c 0d3f 37c7 b33e
000001f0: 57d8 cf3e 4771 043f 3964 873e e15a f03e
00000200: 0295 453f 5258 3c3f ae47 fe3e 0822 873e
00000210: 9d34 163f 0b56 813e 5efa 503f 78c7 3a3f
00000220: 00ce 403f 41ff e23e 0699 353f 843b 1a3f
00000230: 5b19 d33e 29a8 203f 26e5 1c3f bd91 fb3e
00000240: 17f8 323f f0ac b03e bd83 7b3f 1f87 823f
00000250: 3d03 f13e 4430 da3e 350c 0a3f ad42 1b3f
00000260: f2a6 273f da8c f33e 01ee 223f 826d d33e
00000270: 1ded c33e 3cf3 a63e 6215 fa3e db78 833f
00000280: 3748 103f 1056 293f 176a 553f 7259 353f
00000290: 8e36 3f3e b95b e53e 9e9d df3e 878b df3e
000002a0: 57a9 1b3f fbc7 2c3f d4f3 133f 453e 003f
000002b0: 553a 1f3f 9606 893e 8193 b73f 7216 9f3e
000002c0: 06bf d63e 1d91 283f dfc2 c93e b38d a23e
000002d0: a87b 9d3e 2828 983e ea14 123f f53b 173f
000002e0: de6e 853f 4863 043f a8d1 f73e 39d6 3840
000002f0: cce9 423f 6137 0a3f 7d76 c93e cbe8 0e3f
00000300: 776f 0b3f 479c b53e 8a78 f33e 204e 543f
00000310: f59e 213f 0607 fa3e ef4a fd3e 2caa 003f
00000320: c623 2a3f df14 f53e 83e3 f93e 678c 3f3f
00000330: 8d86 f53e f1ad ee3e c812 253f 50f9 c23f
00000340: f4b1 003f ad49 323f 8406 f63e df54 cf3e
00000350: 2004 be3e f8b2 1a3f 3fcd 0d3f b139 f43e
00000360: 5686 053f a516 8e3f 41f0 343f 53d0 f23e
00000370: eb7f 1d3f 379d 993e 1890 b03e 95df f03e
00000380: 24d6 bb3e b034 113f dd87 063f 79e4 233f
00000390: cd87 153f be03 313f ae5d 0a3f c538 573f
000003a0: e892 a33e 5df9 013f 3a2a 3c3f ebbb e43e
000003b0: 0ff0 c13e fc0c 2640 aa74 ae3e 1d90 523f
000003c0: 4ca4 043f 9dc9 103f 1ca1 503f 0989 fc3e
000003d0: 4ca7 1d3f 0b1a 0b3f b838 f23e b3a1 253f
000003e0: 56e8 a93e 9905 eb3e c665 ed3e f9dd b93e
000003f0: 1d85 343f d69c ec3e 17b7 b63e b166 8d3f

bn1.bias f4 [400]
-0.2270257 -0.44527826 -0.16420893 -1.0790508 -1.1101803 -0.41883603 -0.24559939 -0.7646286
-0.84289235 -0.6489731 -0.58981097 -0.9639425 -0.45207468 -0.26120436 -0.18667269 -0.36128503
-0.8518054 -1.2970186 -0.03582549 -0.5163105 -0.73546016 0.0495675 -0.59764385 -0.26236498
-0.45342064 -0.9553135 -1.2323226 -1.1006377 -0.55835074 -1.0922508 -0.760479 -0.7004392
-0.4433518 -0.86438406 -0.2713788 -0.76426154 -0.64562654 -0.609173 0.13227963 -0.42400333
-1.0653782 -1.0727172 -1.2104437 -0.80457085 -1.0276116 -0.82368875 -0.43757272 -0.72950196
-0.6655806 -0.64372146 -0.44157237 -0.97423875 -1.3270736 -0.3604109 -0.349796 -1.0636925
-0.974968 0.008889897 -0.6879004 -0.65240645 -0.846406 -1.341318 -0.72907835 -0.0102043385
-0.9343598 -0.61542416 -0.61896104 -0.6933568 -0.7106636 -0.8535689 -0.66669756 -0.7076755
-0.8829282 -0.84355545 -0.526051 -0.4838641 -1.0510982 -0.97326434 -0.54441845 -0.7633162
-0.7703821 -0.86705786 -1.4491774 -0.54277253 -0.5034644 -0.8736753 -0.77149546 -0.7228344
-0.7761263 -0.10840593 -0.86397475 -0.5061231 -0.50870377 -0.70373684 -0.77977115 -0.79331946
-0.5395121 -0.45014468 -0.8814329 -0.7103965 0.68213 -0.19424073 0.091239445 -0.50031
-0.323659 -0.79805875 -0.4764818 -0.69330174 -0.5879093 -0.77330804 -1.368085 -0.9926331
-0.5433495 -0.20710367 -0.70725346 -0.29009548 -0.42246893 -0.7844939 -0.88044083 -0.64473075
-0.5437301 -0.99553853 -1.0648195 -0.1321301 -0.5876194 -0.2661522 0.12107225 -1.100354
-1.2268107 -0.7778981 -0.7213962 -0.121719405 -0.7777075 -0.14558055 -0.9970869 -0.76112324
-1.1584972 -0.34512076 -0.77321506 -0.936452 -0.3132131 -0.70748633 -1.0587875 -0.9092612
-1.1496333 -0.18638198 -0.7047853 -1.1092331 -0.562615 -0.59037423 -1.0193362 -0.8227547
-0.93690133 -0.7008625 -1.1069304 -0.2454152 -0.49993223 -0.54914784 -0.81206787 -1.1694683
-0.061709933 -0.64823437 -0.4281753 -0.805652 0.06966465 -0.82418203 -0.29751298 -0.9692623
-0.89829785 -0.8002219 -0.6690905 -0.66739565 -0.81190616 -0.23916395 -0.29982173 -0.12244294
-0.76185274 -0.90011674 -0.74330485 -0.31310892 -1.9661006 -0.04788225 -0.762692 -0.98431
-1.3099993 -0.5940746 -0.7032742 0.30044937 -0.78299904 -0.55346125 -0.6255664 -0.20499776
-0.6701189 -0.24126697 -0.36358902 -0.7528868 -0.8898202 -0.9541913 -0.33656308 -0.74651086
-0.86848634 -0.59966516 -0.2032388 -0.7379599 -0.60014266 -0.47558665 -0.7797266 -0.6064391
-0.425249 -0.5284082 -0.59324723 -0.48948422 -0.27321386 -0.5236998 -0.58011824 -0.5620133
-0.8803942 -0.3434306 -0.9880074 -0.48565885 -0.6341668 -0.07294049 0.019360289 -0.43398264
-0.46279657 -0.7650644 -0.5967934 -0.7849292 -0.66924995 -1.0307833 -0.4235095 -1.135436
-0.20895737 -0.9501067 -1.2323475 -1.7142527 -0.16552185 -0.0949107 -0.14087152 -0.85518634
-0.6916934 -0.7241466 -1.1265485 -0.40528843 -0.570448 -0.29490665 -0.4785853 -0.6527729
-0.64574707 -0.6581539 -0.5461623 -1.0576522 -0.4723303 -0.697923 -0.38603202 -0.74351335
00000000: 6d79 68be 83fb e3be 6326 28be 561e 8abf
00000010: 631a 8ebf ad71 d6be 687e 7bbe b3be 43bf
00000020: cbc7 57bf 1a23 26bf dafd 16bf f0c4 76bf
00000030: 5576 e7be 94bc 85be 2027 3fbe 5afa b8be
00000040: eb0f 5abf b504 a6bf c0bd 12bd ed2c 04bf
00000050: 1e47 3cbf 4a07 4b3d 30ff 18bf b454 86be
00000060: c026 e8be 6d8f 74bf bfbc 9dbf b2e1 8cbf
00000070: 13f0 0ebf e0ce 8bbf c0ae 42bf fc4f 33bf
00000080: 02ff e2be 4648 5dbf 29f2 8abe a5a6 43bf
00000090: c847 25bf c3f2 1bbf 5074 073e f716 d9be
000000a0: 505e 88bf cc4e 89bf d2ef 9abf 5bf8 4dbf
000000b0: c788 83bf 44dd 52bf 8809 e0be a4c0 3abf
000000c0: 7d63 2abf eeca 24bf c615 e2be b667 79bf
000000d0: 8cdd a9bf c787 b8be 7618 b3be 1327 88bf
000000e0: 8197 79bf eea6 113c 3e1a 30bf 1c04 27bf
000000f0: 10ae 58bf 4fb0 abbf e1a4 3abf 1930 27bc
00000100: 3432 6fbf 708c 1dbf 3b74 1ebf d57f 31bf
00000110: 0dee 35bf 7e83 5abf b1ac 2abf 392a 35bf
00000120: 9507 62bf 40f3 57bf 47ab 06bf 09bd f7be
00000130: 638a 86bf da27 79bf 025f 0bbf b168 43bf
00000140: c337 45bf 81f7 5dbf a57e b9bf 24f3 0abf
00000150: 0be3 00bf 2fa9 5fbf ba80 45bf ad0b 39bf
00000160: 37b0 46bf ee03 debd 732d 5dbf 4991 01bf
00000170: 693a 02bf 1928 34bf 159f 47bf fc16 4bbf
00000180: 771d 0abf 5d79 e6be 96a5 61bf 8cdc 35bf
00000190: 12a0 2e3f 0be7 46be bfdb ba3d 5114 00bf
000001a0: a2b6 a5be 944d 4cbf 6cf5 f3be 397c 31bf
000001b0: 3981 16bf 84f7 45bf 691d afbf 341d 7ebf
000001c0: f418 0bbf fc12 54be 900e 35bf 6587 94be
000001d0: d94d d8be 98d4 48bf 9264 61bf 130d 25bf
000001e0: e531 0bbf 9ddb 7ebf 014c 88bf 1d4d 07be
000001f0: 3a6e 16bf 1a45 88be baf4 f73d 66d8 8cbf
00000200: 2208 9dbf 5424 47bf 6cad 38bf 0648 f9bd
00000210: d717 47bf 1113 15be 1641 7fbf f9d8 42bf
00000220: a349 94bf abb3 b0be 6cf1 45bf 51bb 6fbf
00000230: 785d a0be d31d 35bf 5986 87bf 58c5 68bf
00000240: 2f27 93bf ebda 3ebe cf6c 34bf 5afb 8dbf
00000250: 8907 10bf c422 17bf 9c79 82bf 0da0 52bf
00000260: c4d8 6fbf ba6b 33bf e5af 8dbf 1f4e 7bbe
00000270: 1ef7 ffbe f494 0cbf aee3 4fbf 23b1 95bf
00000280: 8ec3 7cbd b0f2 25bf cb39 dbbe 363f 4ebf
00000290: 57ac 8e3d 98fd 52bf 9f53 98be 9321 78bf
000002a0: d9f6 65bf 58db 4cbf 8449 2bbf 71da 2abf
000002b0: 15d9 4fbf 65e7 74be 3c82 99be 5dc3 fabd
000002c0: c808 43bf 0d6e 66bf 3a49 3ebf d04f a0be
000002d0: 2fa9 fbbf 2e20 44bd c83f 43bf bdfb 7bbf
000002e0: 0fae a7bf 4615 18bf c709 34bf 80d4 993e
000002f0: a072 48bf a3af 0dbf 1f25 20bf efea 51be
00000300: ea8c 2bbf b00e 77be 5728 babe 30bd 40bf
00000310: 42cb 63bf e245 74bf ff51 acbe 561b 3fbf
00000320: 1f55 5ebf a883 19bf d51d 50be f1ea 3cbf
00000330: f3a2 19bf 1880 f3be 2a9c 47bf 983f 1bbf
00000340: 3dba d9be c345 07bf 0ddf 17bf ad9d fabe
00000350: b0e2 8bbe 3111 06bf a182 14bf 1be0 0fbf
00000360: 8461 61bf 23d6 afbe 0eee 7cbf 47a8 f8be
00000370: c158 22bf d361 95bd 7899 9e3c f932 debe
00000380: acf3 ecbe 43db 43bf 74c7 18bf 1ff1 48bf
00000390: f753 2bbf b5f0 83bf 3dd6 d8be f855 91bf
000003a0: ecf8 55be 313a 73bf 90bd 9dbf a26c dbbf
000003b0: 8f7e 29be 8b60 c2bd a040 10be 7eed 5abf
000003c0: d212 31bf ac61 39bf be32 90bf f781 cfbe
000003d0: e108 12bf 01fe 96be 2209 f5be 201c 27bf
000003e0: ae4f 25bf c67c 28bf 4bd1 0bbf 2661 87bf
000003f0: 47d5 f1be 15ab 32bf fda5 c5be e456 3ebf

bn1.running_mean f4 [400]
-1.4654949 0.8812091 3.105248 3.3117332 -4.219682 0.6757292 -4.872949 -2.2118282
-2.0277781 2.4683924 -3.0252864 -0.89431447 -2.6062214 -1.2907189 -3.592323 -0.4042944
1.2397469 -8.862528 -1.0267488 -0.22699003 -0.8037224 -2.2809865 -9.70183 -1.882459
5.206562 -0.8806046 -2.4180374 0.29607475 -2.0546536 -2.767581 0.61405915 -1.521112
0.9773653 -4.0004807 1.9208562 -0.32152763 -4.362573 -3.7874053 0.04434651 0.80465573
1.5368532 0.44282115 -5.131744 -3.2482119 -3.7551124 3.9146218 5.609837 -0.7711647
0.6071109 -1.300123 -0.6145844 -4.851108 12.115649 -1.4123946 3.4273837 1.0869863
8.637631 0.3423512 1.6690371 -0.52168375 1.8685963 -1.9470748 0.075907476 -0.10781283
0.4326996 4.9509945 -4.040819 -2.2095022 -0.22023463 -1.6256272 3.6426227 -0.06949098
-2.2339385 -0.91504186 -3.893934 -3.8824315 -3.5274396 -2.7951233 -3.5358543 1.6403768
0.3642187 -2.1790116 -0.41641036 -0.97544974 -4.6306615 -0.0058454825 1.6406797 0.48462898
6.6397753 0.28305945 2.8387496 -0.37641963 2.5030165 1.3818578 1.0076169 -10.311231
2.855955 0.6718382 2.7907176 0.067073554 6.544557 2.1652842 5.97833 -3.0431077
-3.0843282 1.8952099 0.05981241 1.2089518 3.1783407 -2.6100945 -9.194976 -0.95202124
-4.473192 -5.8497243 -0.71313965 -0.2802564 1.7222012 -1.8313437 1.567694 -0.308093
-0.42648095 -1.949758 -1.2869534 2.6225755 -3.0069954 0.29690352 5.3491898 -2.1445405
-0.9687786 0.43926102 -0.9308874 6.3093543 -7.308755 2.2141745 -0.7990313 2.1936104
2.4623084 0.24151713 4.1593847 -4.032664 -1.373754 2.6247416 1.611494 0.6124544
-7.372749 3.6524763 1.8737118 -0.16756353 -7.8793955 3.6851861 3.4352005 -5.242773
-3.0145926 1.0341696 -2.3605297 -3.2222333 -1.2297335 -3.9049215 -7.7836146 -1.178625
-1.0051056 1.6590482 -0.83768123 0.31408322 -0.37583002 -4.036108 -2.2705183 1.2779905
-0.26412442 0.4333705 -0.8591204 1.3414421 -2.3023455 -5.3768597 0.9111567 -1.8702999
-4.8698134 6.0077653 4.674367 -4.3449106 -6.0871334 -4.800904 -3.8470676 -1.0261803
-1.9774119 -1.6701149 2.0934625 0.08566032 -1.0556167 -0.19003448 -4.580258 0.5489926
3.1080377 1.0024564 -2.2418945 -0.5917012 -0.6795032 0.60389286 1.8693075 4.792212
-1.7226712 2.9075665 1.786939 2.0999064 1.21838 -3.8347743 5.734096 -0.96989936
-0.14920644 1.9661547 -2.4733415 5.031212 -2.8086455 1.0465213 3.6059732 -4.6151714
-2.5607328 -0.20024848 -1.0834033 -0.920182 -3.6210508 4.0795007 5.776336 -2.8431435
-5.77006 -0.07937486 -1.6533868 1.5251017 2.2147183 -2.9424274 3.9509532 -1.5057013
-3.355073 -4.575424 -3.728816 -2.5871577 0.68069065 -0.09129321 2.8901298 -0.38889262
-1.4476261 -8.989479 -3.6063783 5.2213435 -2.9577215 -4.554667 1.432069 2.4749649
1.8224233 -4.579037 0.14842558 1.9519701 -1.8969485 -3.6019104 1.9180255 0.13785358
00000000: 5695 bbbf eb96 613f 62bc 4640 70f3 5340
00000010: a307 87c0 97fc 2c3f 33ef 9bc0 988e 0dc0
00000020: 1ec7 01c0 24fa 1d40 4b9e 41c0 cbf1 64bf
00000030: 55cc 26c0 4736 a5bf 9fe8 65c0 adff cebe
00000040: 07b0 9e3f eacc 0dc1 816c 83bf 1370 68be
00000050: c0c0 4dbf affb 11c0 b23a 1bc1 6bf4 f0bf
00000060: 289c a640 4e6f 61bf 20c1 1ac0 1c97 973e
00000070: 727f 03c0 0c20 31c0 fb32 1d3f ccb3 c2bf
00000080: 9d34 7a3f f003 80c0 9ede f53f 459f a4be
00000090: 339a 8bc0 d964 72c0 b0a4 353d ebfd 4d3f
000000a0: 9bb7 c43f 74b9 e23e 3f37 a4c0 b4e2 4fc0
000000b0: c353 70c0 2a89 7a40 c983 b340 0d6b 45bf
000000c0: 9f6b 1b3f 6e6a a6bf 6755 1dbf 473c 9bc0
000000d0: b3d9 4141 59c9 b4bf 415a 5b40 5e22 8b3f
000000e0: bd33 0a41 a848 af3e 02a3 d53f 118d 05bf
000000f0: 2a2e ef3f bf39 f9bf 6175 9b3d f9cc dcbd
00000100: cd8a dd3e 8c6e 9e40 644e 81c0 7c68 0dc0
00000110: 3085 61be 8d14 d0bf bb20 6940 4951 8ebd
00000120: d9f8 0ec0 2f40 6abf 3736 79c0 c279 78c0
00000130: 92c1 61c0 4de3 32c0 704b 62c0 def7 d13f
00000140: e07a ba3e ed74 0bc0 bd33 d5be 13b7 79bf
00000150: 612e 94c0 768b bfbb cb01 d23f 4a21 f83e
00000160: 0a79 d440 2bed 903e 13ae 3540 13ba c0be
00000170: 6c31 2040 b7e0 b03f 97f9 803f cdfa 24c1
00000180: f7c7 3640 97fd 2b3f 1e9b 3240 dc5d 893d
00000190: 036d d140 0494 0a40 7b4e bf40 47c2 42c0
000001a0: a265 45c0 3d96 f23f dcfd 743d efbe 9a3f
000001b0: ef69 4b40 ca0b 27c0 9f1e 13c1 aab7 73bf
000001c0: 6424 8fc0 f130 bbc0 5290 36bf c47d 8fbe
000001d0: 1771 dc3f 7869 eabf 32aa c83f 5ebe 9dbe
000001e0: b65b dabe ac91 f9bf e4ba a4bf 47d8 2740
000001f0: 9d72 40c0 bd03 983e 902c ab40 2740 09c0
00000200: e001 78bf d2e6 e03e a34e 6ebf 3be6 c940
00000210: 52e1 e9c0 09b5 0d40 518d 4cbf 1d64 0c40
00000220: 7696 1d40 4450 773e ae19 8540 950b 81c0
00000230: 2cd7 afbf c4fb 2740 6f45 ce3f d0c9 1c3f
00000240: 8fed ebc0 2cc2 6940 cad5 ef3f c695 2bbe
00000250: 0224 fcc0 17da 6b40 53da 5b40 ccc4 a7c0
00000260: 16ef 40c0 ab5f 843f eb12 17c0 1239 4ec0
00000270: e867 9dbf 3cea 79c0 5f13 f9c0 2fdd 96bf
00000280: 4da7 80bf b15b d43f 4772 56bf 84cf a03e
00000290: cb6c c0be cc27 81c0 2c50 11c0 3195 a33f
000002a0: 513b 87be bde2 dd3e 51ef 5bbf 60b4 ab3f
000002b0: a159 13c0 3c0f acc0 9141 693f fd65 efbf
000002c0: 83d5 9bc0 9d3f c040 6a94 9540 8209 8bc0
000002d0: ccc9 c2c0 01a1 99c0 5b36 76c0 e059 83bf
000002e0: d51b fdbf 53c6 d5bf 4afb 0540 ae6e af3d
000002f0: 731e 87bf 6698 42be 7991 92c0 c78a 0c3f
00000300: 17ea 4640 7e50 803f 337b 0fc0 bb79 17bf
00000310: ecf3 2dbf b998 1a3f 7845 ef3f cd59 9940
00000320: 7d80 dcbf 9215 3a40 6bba e43f de64 0640
00000330: e0f3 9b3f f16c 75c0 b77d b740 534b 78bf
00000340: 93c9 18be f5aa fb3f 3a4b 1ec0 b0ff a040
00000350: d9c0 33c0 69f4 853f 44c8 6640 7caf 93c0
00000360: 0ce3 23c0 f00d 4dbe f6ac 8abf 0c91 6bbf
00000370: 4cbf 67c0 458b 8240 bfd7 b840 10f6 35c0
00000380: 55a4 b8c0 498f a2bd 2ea2 d3bf 8836 c33f
00000390: f2bd 0d40 bb50 3cc0 6bdc 7c40 d2ba c0bf
000003a0: 84b9 56c0 e069 92c0 eca4 6ec0 fe93 25c0
000003b0: be41 2e3f eff7 babd e3f7 3840 ef1c c7be
000003c0: d04b b9bf e8d4 0fc1 e7ce 66c0 3f15 a740
000003d0: 4f4b 3dc0 d5bf 91c0 094e b73f d365 1e40
000003e0: 2b45 e93f 7987 92c0 e0fc 173e 28da f93f
000003f0: 35cf f2bf b385 66c0 dc81 f53f 7d29 0d3e

bn1.running_var f4 [400]
68.26847 22.153477 51.437794 112.39844 245.21906 55.321945 80.60263 76.40004
62.168953 53.015644 145.43518 120.031975 45.067184 55.95578 48.084995 43.767597
58.664734 202.95335 64.131966 104.1307 46.60084 27.897812 75.491714 81.32845
90.65613 80.87847 96.104866 67.93792 50.418526 85.35891 112.18862 63.919724
36.13872 425.60565 157.17023 201.99683 87.99223 86.23659 110.16489 132.18527
187.40234 70.49341 124.27308 47.745274 41.71518 129.16087 265.16287 346.91846
41.486435 142.00244 59.91186 165.88559 66.13786 75.07026 577.3237 146.1098
144.95164 19.514458 116.30092 71.38859 37.83205 51.13054 63.53882 59.28536
32.110386 131.72813 38.71163 174.09627 49.38072 85.2289 128.90652 52.010845
66.09073 111.76227 92.03252 98.27171 93.13243 88.835976 78.69189 132.6394
78.85989 233.66864 118.963005 121.47467 64.05756 44.567078 59.50945 47.388004
124.496765 29.28817 114.88583 88.497444 30.664284 97.241936 148.81271 91.30424
67.286896 102.70517 207.078 67.917274 169.80084 28.82825 208.67247 342.86322
103.12209 68.900665 23.886536 247.86366 72.03558 65.574585 103.773026 122.51067
119.09516 44.323223 47.434483 80.15995 49.566208 75.15313 58.794518 58.85875
62.654797 115.47665 51.988804 56.388355 50.048027 61.337337 95.46878 100.526695
116.586845 229.77975 52.19285 33.73422 113.75103 54.33504 66.44826 39.0538
175.52708 57.250473 112.48156 140.43066 61.534515 173.78499 95.22361 286.65842
99.27671 52.58881 172.76091 67.338554 172.82582 97.56623 115.28806 48.52898
479.58624 49.53977 212.23256 148.5599 63.8719 44.020283 105.34485 80.758675
61.480186 63.045647 76.406456 49.76396 74.431366 77.13229 22.693241 79.29921
145.44194 55.903675 23.010435 59.64824 56.47022 70.831024 80.50519 148.86334
132.97688 151.08492 50.69804 99.47256 189.05345 52.82208 84.866974 37.17615
117.67469 38.56968 90.59834 107.78848 34.53788 89.34858 97.009995 141.71095
96.5851 50.300404 91.460724 61.83915 127.33432 89.23208 177.70503 240.10065
93.28528 97.252396 239.73558 90.56612 46.386288 52.632442 237.5848 97.26608
72.62709 104.868835 63.512978 92.893 24.184032 26.269567 116.02173 155.73152
77.79423 66.42262 89.17538 33.86855 92.781906 53.50536 56.127575 26.106798
28.623503 57.662468 40.04585 122.0243 49.97936 119.536125 136.5145 39.80633
67.96263 98.97053 95.38534 308.5697 146.0643 115.31884 129.4693 213.94531
49.243496 90.27017 104.90185 225.43349 76.99506 129.768 139.83003 152.45787
47.18233 169.81134 108.0616 250.7553 29.443174 28.939472 156.59344 83.758545
00000000: 7589 8842 523a b141 4dc0 4d42 00cc e042
00000010: 1438 7543 ac49 5d42 8c34 a142 d2cc 9842
00000020: 02ad 7842 0510 5442 686f 1143 5f10 f042
00000030: cc44 3442 b8d2 5f42 0957 4042 0512 2f42
00000040: b0a8 6a42 0ff4 4a43 9143 8042 eb42 d042
00000050: 4367 3a42 b82e df41 c2fb 9642 2ba8 a242
00000060: f04f b542 c7c1 a142 b135 c042 37e0 8742
00000070: 92ac 4942 c3b7 aa42 9360 e042 ccad 7f42
00000080: 0d8e 1042 86cd d443 942b 1d43 30ff 4943
00000090: 06fc af42 2279 ac42 6c54 dc42 6e2f 0443
000000a0: 0067 3b43 a0fc 8c42 d18b f842 29fb 3e42
000000b0: 58dc 2642 2f29 0143 d994 8443 9075 ad43
000000c0: 1cf2 2542 a000 0e43 bfa5 6f42 b6e2 2543
000000d0: 9646 8442 f923 9642 b854 1044 1c1c 1243
000000e0: 9ff3 1043 9c1d 9c41 129a e842 f5c6 8e42
000000f0: 0554 1742 ac85 4c42 c027 7e42 3524 6d42
00000100: 0971 0042 67ba 0343 b6d8 1a42 a518 2e43
00000110: db85 4542 3275 aa42 12e8 0043 1b0b 5042
00000120: 742e 8442 4886 df42 a610 b842 1e8b c442
00000130: ce43 ba42 05ac b142 3f62 9d42 b0a3 0443
00000140: 44b8 9d42 2cab 6943 0fed ed42 08f3 f242
00000150: 791d 8042 b044 3242 ad09 6e42 518d 3d42
00000160: 58fe f842 2c4e ea41 8cc5 e542 b1fe b042
00000170: 7450 f541 df7b c242 0ed0 1443 c59b b642
00000180: e492 8642 0c69 cd42 f813 4f43 a5d5 8742
00000190: 04cd 2943 42a0 e641 27ac 5043 7e6e ab43
000001a0: 833e ce42 24cd 8942 a017 bf41 19dd 7743
000001b0: 3812 9042 3026 8342 ca8b cf42 7705 f542
000001c0: b930 ee42 fb4a 3142 e9bc 3d42 e551 a042
000001d0: cc43 4642 674e 9642 962d 6b42 5c6f 6b42
000001e0: 839e 7a42 0bf4 e642 89f4 4f42 ad8d 6142
000001f0: 2e31 4842 6f59 7542 04f0 be42 ab0d c942
00000200: 772c e942 9ec7 6543 7ac5 5042 d7ef 0642
00000210: 8780 e342 1557 5942 82e5 8442 1737 1c42
00000220: ef86 2f43 7c00 6542 8ff6 e042 406e 0c43
00000230: 5823 7642 f5c8 2d43 7d72 be42 4754 8f43
00000240: ad8d c642 f15a 5242 cbc2 2c43 57ad 8642
00000250: 69d3 2c43 e921 c342 7d93 e642 ad1d 4242
00000260: 0acb ef43 b928 4642 893b 5443 568f 1443
00000270: d37c 7f42 c514 3042 90b0 d242 7184 a142
00000280: b6eb 7542 be2e 7c42 1bd0 9842 4c0e 4742
00000290: dcdc 9442 bc43 9a42 c28b b541 3299 9e42
000002a0: 2371 1143 5d9d 5f42 5f15 b841 cc97 6e42
000002b0: 81e1 6142 7ca9 8d42 a802 a142 04dd 1443
000002c0: 15fa 0443 bd15 1743 cbca 4a42 f3f1 c642
000002d0: af0d 3d43 cf49 5342 e4bb a942 61b4 1442
000002e0: 7159 eb42 5a47 1a42 5a32 b542 b493 d742
000002f0: ca26 0a42 79b2 b242 1e05 c242 01b6 0d43
00000300: 922b c142 9d33 4942 e4eb b642 4a5b 7742
00000310: 2cab fe42 d376 b242 7db4 3143 c419 7043
00000320: 1092 ba42 3a81 c242 4fbc 6f43 da21 b542
00000330: 8f8b 3942 9f87 5242 b595 6d43 3c88 c242
00000340: 1241 9142 d8bc d142 4a0d 7e42 37c9 b942
00000350: e678 c141 1328 d241 200b e842 45bb 1b43
00000360: a596 9b42 62d8 8442 cb59 b242 6579 0742
00000370: 5690 b942 7d05 5642 a382 6042 b9da d041
00000380: effc e441 5ea6 6642 f32e 2042 710c f442
00000390: ddea 4742 7f12 ef42 b683 0843 af39 1f42
000003a0: deec 8742 e9f0 c542 4bc5 be42 ec48 9a43
000003b0: 7610 1243 3fa3 e642 2478 0143 00f2 5543
000003c0: 57f9 4442 548a b442 bfcd d142 f96e 6143
000003d0: 79fd 9942 9cc4 0143 7dd4 0b43 3775 1843
000003e0: b5ba 3c42 b4cf 2943 8a1f d842 5bc1 7a43
000003f0: 9f8b eb41 0a84 e741 ec97 1c43 6084 a742

fc2.weight f4 [300, 404]
-0.021525254 -0.07317366 -0.058295593 0.07656078 -0.025420377 -0.008109959 -0.0469081 -0.0010882932
0.0049814754 -0.012705106 -0.028943898 -0.012484558 -0.011732097 -0.011133227 -0.088407665 -0.06459731
0.08252438 -0.020076215 -0.027361553 0.003702437 0.012785164 -0.011373933 -0.020023791 -0.09919353
0.024931854 -0.03226573 -0.041895352 -0.13446867 -0.08064368 -0.018474262 0.0039588725 0.005321807
-0.066518955 0.08158185 0.0023476395 0.013958842 -0.08525929 0.01568758 -0.0867772 -0.07240529
-0.04266967 -0.060248185 -0.061195098 0.013737203 -0.05593111 -0.10106557 -0.050351243 -0.023340577
0.014276819 -0.043032203 -0.10446947 -0.0843035 -0.003963147 -0.06707525 0.016394323 -0.06883819
-0.019531488 -0.09059812 -0.054778546 -0.0016401501 -0.11220979 -0.06800717 -0.005101846 -0.05354932
-0.040616047 0.023466563 -0.113413505 0.005769107 -0.049259037 -0.008992435 -0.037537836 0.028904207
-0.026889553 -0.12273224 -0.07155376 -0.052009504 -0.079482585 -0.022111522 0.043080065 -0.10944329
-0.10233047 -0.020465536 -0.01847905 -0.040877484 -0.130172 -0.06869816 0.021689957 -0.07893195
-0.053365868 -0.1207232 -0.040341165 -0.0670081 0.008410524 -0.014428177 -0.043386664 -0.043863147
-0.059795212 -0.10366528 -0.10876496 0.020181596 -0.040887695 -0.015737053 0.0024146067 -5.9700444e-05
-0.06683119 -0.23893274 -0.018621974 -0.09396084 -0.017636318 -0.01264311 0.057563264 -0.0436619
-0.034182098 -0.075773865 -0.0888023 -0.036981214 -0.07509011 -0.07611996 -0.03349687 -0.06285228
-0.03009039 -0.059186146 0.024711803 -0.019097582 -0.14785346 0.11226831 -0.18072613 0.0032856718
-0.00014927458 -0.062090438 0.0077280933 -0.028893992 -0.034968086 -0.022555955 0.017319404 -0.12624028
-0.025755106 -0.048909962 -0.10772601 -0.06141659 0.0127105 0.009403998 -0.046540476 -0.06895858
0.019442203 -0.05258885 -0.015342332 -0.017019942 0.00051694916 -0.07392058 -0.04482346 -0.084557235
-0.020486332 0.011618946 0.04330839 -0.05190921 -0.022207662 -0.052429866 -0.01499536 0.031133201
-0.008460482 -0.05675902 0.026149448 -0.11359873 -0.03197689 0.026177222 0.01324754 -0.05901438
-0.048842926 0.00027939968 -0.03624756 -0.042159572 -0.035744336 -0.004961091 -0.0144582875 -0.110868305
0.03408747 0.03602856 -0.06545331 0.0059307576 0.013633807 -0.009704204 0.011241847 -0.030328495
0.035362426 -0.039819304 -0.03633002 -0.05452991 -0.03216872 0.037282728 -0.006094026 -0.014885611
-0.037153944 -0.063751124 -0.05794023 0.011290317 -0.062911145 -0.048288364 0.015204282 0.019040493
0.02284228 -0.024406932 0.0013812848 0.066643 -0.07090267 -0.002010744 -0.03777785 -0.03118456
-0.03823731 0.021069178 0.03468344 -0.025262766 -0.0797436 -0.13187198 -0.06522157 0.06399941
-0.067509025 -0.052721165 -0.047358237 -0.100994326 0.00022490798 -0.08874903 -0.13397993 -0.02424497
0.07671021 -0.00063083146 -0.08060773 -0.060798913 -0.037693214 -0.020284547 -0.07542608 -0.05064871
0.017317949 -0.04323514 -0.038261585 -0.057618044 -0.09451325 -0.060628913 -0.03775089 -0.06481693
-0.036192976 -0.09060756 -0.017150747 -0.115706004 -0.05595509 -0.018531479 -0.07283524 -0.011016685
-0.129581 -0.035161763 0.016680866 -0.11237754 -0.09630317 -0.06573363 -0.075101584 -0.061471146
00000000: bb55 b0bc 12dc 95bd 5cc7 6ebd e6cb 9c3d
00000010: 653e d0bc a2df 04bc b522 40bd 0fa5 8eba
00000020: a53b a33b 1429 50bc c11b edbc 088c 4cbc
00000030: fb37 40bc 2368 36bc 140f b5bd 984b 84bd
00000040: 8b02 a93d e076 a4bc 5625 e0bc 96a4 723b
00000050: dd78 513c bc59 3abc ef08 a4bc fa25 cbbd
00000060: e33d cc3c 1229 04bd 769a 2bbd 28b2 09be
00000070: 8428 a5bd 5657 97bc 6eb9 813b 8e62 ae3b
00000080: 173b 88bd 6314 a73d dbda 193b a0b3 643c
00000090: 6c9c aebd 3d83 803c 3fb8 b1bd 3a49 94bd
000000a0: 64c6 2ebd cdc6 76bd b6a7 7abd 0112 613c
000000b0: 0518 65bd 77fb cebd 1b3d 4ebd bd34 bfbc
000000c0: 52e9 693c 8942 30bd 17f4 d5bd 50a7 acbd
000000d0: 49dd 81bb c05e 89bd 634d 863c 09fb 8cbd
000000e0: 8000 a0bc 828b b9bd 785f 60bd 4efa d6ba
000000f0: 3fce e5bd 5847 8bbd 632d a7bb 8856 5bbd
00000100: 035d 26bd f33c c03c 5745 e8bd c70a bd3b
00000110: d8c3 49bd 0255 13bc 46c1 19bd 84c8 ec3c
00000120: 7b47 dcbc 0a5b fbbd c78a 92bd eb07 55bd
00000130: c4c7 a2bd 3923 b5bc b974 303d ce23 e0bd
00000140: a392 d1bd 57a7 a7bc 6061 97bc 266f 27bd
00000150: cf4b 05be 9fb1 8cbd 23af b13c 13a7 a1bd
00000160: 2b96 5abd ba3d f7bd c73c 25bd 8b3b 89bd
00000170: 4bcc 093c 2964 6cbc 37b6 31bd d8a9 33bd
00000180: d3eb 74bd 764e d4bd 2ac0 debd e053 a53c
00000190: db79 27bd feea 80bc 613e 1e3b dd66 7ab8
000001a0: cade 88bd c9aa 74be 1c8d 98bc 8a6e c0bd
000001b0: 0a7a 90bc 0c25 4fbc 75c7 6b3d d2d6 32bd
000001c0: 8702 0cbd 542f 9bbd fbdd b5bd 9d79 17bd
000001d0: d8c8 99bd c8e4 9bbd 0434 09bd b2b8 80bd
000001e0: 1f80 f6bc 2c6d 72bd 6870 ca3c 8872 9cbc
000001f0: e666 17be edec e53d 4510 39be 6d54 573b
00000200: 9786 1cb9 8b52 7ebd f23b fd3b 18b3 ecbc
00000210: b23a 0fbd 44c7 b8bc 6ce1 8d3c 2245 01be
00000220: 5ffc d2bc d055 48bd 749f dcbd f68f 7bbd
00000230: b33f 503c 3a13 1a3c 3aa1 3ebd 283a 8dbd
00000240: 4145 9f3c 6867 57bd 685e 7bbc 686d 8bbc
00000250: df83 073a ac63 97bd ce98 37bd 582c adbd
00000260: f4d2 a7bc 645d 3e3c 2364 313d c09e 54bd
00000270: d8ec b5bc b3c0 56bd 19af 75bc 0e0b ff3c
00000280: d59d 0abc 257c 68bd 5e37 d63c 73a6 e8bd
00000290: 33fa 02bd 9d71 d63c 360c 593c 10b9 71bd
000002a0: 850f 48bd 647c 9239 5278 14bd 84af 2cbd
000002b0: a768 12bd a690 a2bb 74e2 6cbc ec0e e3bd
000002c0: 4e9f 0b3d af92 133d 630c 86bd cd56 c23b
000002d0: 5560 5f3c 62fe 1ebc b92f 383c 7773 f8bc
000002e0: 31d8 103d 9119 23bd c9ce 14bd c15a 5fbd
000002f0: 59c3 03bd c6b5 183d 65b0 c7bb c7e2 73bc
00000300: bc2e 18bd f38f 82bd bc52 6dbd 06fb 383c
00000310: 8fd7 80bd 05ca 45bd 611b 793c cffa 9b3c
00000320: bc1f bb3c 0cf1 c7bc 3a0c b53a 207c 883d
00000330: 6b35 91bd b0c6 03bb f2bc 1abd c376 ffbc
00000340: ba9e 1cbd 4599 ac3c 3910 0e3d dcf3 cebc
00000350: 9d50 a3bd 7309 07be e392 85bd 1f12 833d
00000360: 2c42 8abd 26f2 57bd b6fa 41bd 1dd6 cebd
00000370: 47d5 6b39 0dc2 b5bd 0932 09be 639d c6bc
00000380: 3e1a 9d3d 625e 25ba aa15 a5bd 4808 79bd
00000390: 3364 1abd c72b a6bc fd78 9abd 0675 4fbd
000003a0: 5fde 8d3c 5517 31bd 2eb8 1cbd e600 6cbd
000003b0: 2a90 c1bd 0656 78bd ada0 1abd bdbe 84bd
000003c0: 163f 14bd 7590 b9bd b97f 8cbc 45f7 ecbd
000003d0: 2a31 65bd 54cf 97bc a42a 95bd 537f 34bc
000003e0: e2b0 04be c805 10bd 50a6 883c 3226 e6bd
000003f0: 993a c5bd 5a9f 86bd dcce 99bd 2bc9 7bbd

fc2.bias f4 [300]
-0.12379958 -0.086717926 -0.09983033 -0.088693745 -0.26492545 -0.06512379 -0.102956645 -0.11685974
0.32850692 -0.05586118 -0.14176308 -0.43869177 -0.08297809 -0.09770056 -0.13858725 -0.107700825
-0.32548472 1.9447979 -0.09083878 -0.08907186 -0.043159578 -0.07326238 -0.283996 -0.10780601
0.0008257109 -0.10360116 -0.11303633 -0.042814095 0.7464239 -0.056227837 0.63079005 -0.11020253
-0.11969205 -0.11650678 0.49809214 -0.12796107 -0.008316396 -0.17310625 -0.0968392 -0.099036425
-0.0898804 -0.11194718 0.7012775 -0.11107291 -0.12077188 -0.05977129 0.81573856 -0.4803707
-0.28781068 -0.14522167 -0.14433157 -0.15441431 1.928224 -0.05008654 -0.074037656 3.248971
1.1767794 0.0003118012 -0.14526525 0.6738269 -0.07632737 -0.79298085 -0.10165973 -0.07673749
-0.15427245 -0.12706834 0.51681125 0.8662474 -0.115077876 -0.10007531 -0.1170864 1.3290712
0.8083246 -0.12491224 -0.11072626 -0.0576365 -0.0724416 -0.10173137 -1.1515272 0.24888098
-0.08247519 -0.36871493 -0.3730465 0.909841 1.3446555 0.11099394 -0.11526359 -0.049806174
-0.29644457 -0.12435805 -0.0768347 -0.4193588 0.96237165 -0.034875065 -0.06083172 -0.1555325
-0.06322118 -0.09070695 -0.1112193 0.19665812 -0.13526103 -0.09568126 1.3054513 -0.1343796
-0.068551965 -0.5793064 2.3167171 -0.066598065 -0.08264358 0.9072395 0.5369387 -0.06747036
-0.11645521 -0.1001835 -0.11086785 -0.09482735 -0.08554984 -0.064838335 -0.3651748 -0.12738502
-0.075001515 0.3303539 -0.020912299 -0.55361897 -0.14310314 -0.097174264 0.3231065 0.17440073
-0.06296027 -0.07355556 -0.12888099 -0.02376676 -0.062208377 -0.08012009 -0.10771341 -0.72038794
-0.10492862 -0.08605434 -0.19823526 1.121419 -0.08186946 -0.04145032 -0.088495314 0.3347297
-0.04011953 -0.31322786 -0.09779447 -0.10778266 -0.112211384 -0.092973895 -0.1148576 -0.04130664
-0.035741817 -0.09038647 -0.3992894 -0.13948719 1.1924014 -0.070015445 0.11218368 0.021462979
-0.17272036 -0.08543099 1.5313078 -0.121203 -0.8039177 -0.54660684 0.087476216 -0.21640031
-0.110322475 -0.16370967 -0.049175788 -0.067335345 -0.016287187 -0.15908113 -0.10169354 -0.07821404
-0.14435825 -0.054929033 -0.0454784 -0.08135846 -0.100781806 -0.13196227 -0.09147328 -0.09158289
-0.15949029 -0.079185024 1.587072 -0.113044694 -0.04956979 -0.037276037 0.43114686 -0.34098375
-0.049396697 -0.05353935 -0.2689944 0.466785 -0.07263127 -0.07000963 -0.13492858 -0.117501676
-0.058217585 -0.80705976 -0.06873105 -0.10029277 0.7149258 -0.11924799 -0.08387239 -0.096382625
-0.0767297 -0.0913798 -0.1394168 -0.06519961 -0.16973175 -0.09915133 -0.07845017 -0.26564243
-0.18852809 -0.17341304 -0.06056517 -0.041458834 -0.15530157 -0.068798415 -0.093810536 -0.09259838
0.8609342 -0.029733783 -0.053931106 0.004101368 -0.75966746 -0.027099414 -0.057426307 0.56747234
-0.039276294 -0.01049883 -0.03878925 -0.42109147 -0.15852965 -0.7244371 -0.04115881 -0.08866328
-0.12642093 -0.10886681 -0.036214825 -0.031597525 -0.26411733 -0.13319637 -0.74078894 0.037946906
-0.07532923 -0.050399154 -0.18579103 -0.10080638 -0.06977884 -0.04040183 -0.0847669 -0.03600471
00000000: a28a fdbd 2b99 b1bd d873 ccbd 11a5 b5bd
00000010: 4fa4 87be 9f5f 85bd efda d2bd 2954 efbd
00000020: 0f32 a83e b1ce 64bd 572a 11be 359c e0be
00000030: 6bf0 a9bd 3b17 c8bd d1e9 0dbe 4092 dcbd
00000040: efa5 a6be 23ef f83f af09 babd 4f6b b6bd
00000050: 19c8 30bd 960a 96bd ec67 91be 66c9 dcbd
00000060: 8574 583a d82c d4bd 977f e7bd d55d 2fbd
00000070: a315 3f3f 294f 66bd 757b 213f ddb1 e1bd
00000080: 1b21 f5bd 1b9b eebd ef05 ff3e 3a08 03be
00000090: 7e41 08bc c442 31be a153 c6bd 9cd3 cabd
000000a0: 3713 b8bd 9044 e5bd ec86 333f 327a e3bd
000000b0: 3f57 f7bd bdd2 74bd 3ed4 503f 26f3 f5be
000000c0: ec5b 93be fdb4 14be a8cb 13be c91e 1ebe
000000d0: 0bd0 f63f 8b27 4dbd 0ea1 97bd 24ef 4f40
000000e0: b5a0 963f 4079 a339 6ac0 14be eb7f 2c3f
000000f0: 8651 9cbd cb00 4bbf fa32 d0bd 8c28 9dbd
00000100: 99f9 1dbe 341e 02be be4d 043f 64c2 5d3f
00000110: f3ad ebbd 49f4 ccbd ffca efbd 011f aa3f
00000120: 5cee 4e3f fdd1 ffbd 73c4 e2bd 4014 6cbd
00000130: 435c 94bd 8958 d0bd 3e65 93bf a8da 7e3e
00000140: c1e8 a8bd 34c8 bcbe f3ff bebe 57eb 683f
00000150: ac1d ac3f ca50 e33d 510f ecbd 8f01 4cbd
00000160: 95c7 97be 6faf febd 835b 9dbd 32b6 d6be
00000170: fd5d 763f 28d9 0ebd ae2a 79bd e943 1fbe
00000180: 1b7a 81bd 91c4 b9bd f2c6 e3bd bf60 493e
00000190: de81 0abe 89f4 c3bd 0719 a73f ce9a 09be
000001a0: f964 8cbd 6d4d 14bf 1845 1440 9164 88bd
000001b0: 0a41 a9bd d940 683f d174 093f e62d 8abd
000001c0: 1280 eebd 022d cdbd af0e e3bd d734 c2bd
000001d0: c134 afbd f6c9 84bd 31f8 babe 3871 02be
000001e0: 659a 99bd 2524 a93e 4550 abbc f9b9 0dbf
000001f0: a189 12be 4d03 c7bd 376e a53e 1b96 323e
00000200: 50f1 80bd 4ca4 96bd 61f9 03be 82b2 c2bc
00000210: 36ce 7ebd 0016 a4bd d998 dcbd 586b 38bf
00000220: d1e4 d6bd 423d b0bd 2ffe 4abe a88a 8f3f
00000230: 2dab a7bd d0c7 29bd 083d b5bd b161 ab3e
00000240: 6054 24bd 675f a0be 7848 c8bd 28bd dcbd
00000250: 15cf e5bd 1969 bebd 763a ebbd 2731 29bd
00000260: 0366 12bd 8b1c b9bd a96f ccbe bbd5 0ebe
00000270: 9ca0 983f 4264 8fbd 8fc0 e53d 21d3 af3c
00000280: 9bdd 30be 71f6 aebd e501 c43f 4739 f8bd
00000290: 8dcd 4dbf 6dee 0bbf bb26 b33d 0b98 5dbe
000002a0: c0f0 e1bd 82a3 27be 8d6c 49bd 1de7 89bd
000002b0: b56c 85bc 2ae6 22be b444 d0bd af2e a0bd
000002c0: a6d2 13be 44fd 60bd 8f47 3abd 449f a6bd
000002d0: b166 cebd 1e21 07be 5856 bbbd cf8f bbbd
000002e0: 6c51 23be c22b a2bd 2d25 cb3f fa83 e7bd
000002f0: b109 4bbd c2ae 18bd 48bf dc3e 6c95 aebe
00000300: 3154 4abd 144c 5bbd a2b9 89be 72fe ee3e
00000310: b4bf 94bd 3561 8fbd b82a 0abe b8a4 f0bd
00000320: 9075 6ebd 789b 4ebf ddc2 8cbd 4c66 cdbd
00000330: 6105 373f 4a38 f4bd 4ac5 abbd 4164 c5bd
00000340: 7624 9dbd 5525 bbbd 47c3 0ebe 6087 85bd
00000350: 29ce 2dbe da0f cbbd 7caa a0bd 4902 88be
00000360: 820d 41be 3093 31be 2f13 78bd bdd0 29bd
00000370: 6007 1fbe 2fe6 8cbd bd1f c0bd 38a4 bdbd
00000380: 2f66 5c3f 4394 f3bc dde6 5cbd c564 863b
00000390: 9179 42bf 97ff ddbc d937 6bbd de45 113f
000003a0: 2ee0 20bd 4903 2cbc 7ae1 1ebd 4d99 d7be
000003b0: 9955 22be b674 39bf 2496 28bd 1895 b5bd
000003c0: 7d74 01be 90f5 debd ff55 14bd 686c 01bd
000003d0: 633a 87be a164 08be 58a4 3dbf 376e 1b3d
000003e0: 3646 9abd 586f 4ebd 0140 3ebe 9373 cebd
000003f0: 35e8 8ebd 647c 25bd 459a adbd ad79 13bd
